models/01112021_2146_ngcf_Movielens-100k.pt (torch, 741575 bytes, 10 tensors)

GC_Linear_list.0.weight f4 [64, 64]
00000000: 087b 723b 2da0 d9bd c259 a23c 440e 3c3c
00000010: 7797 f93d 7d4e e0bd 36fb e3bc 381b 0a3d
00000020: d422 283d 5a5a cebd 737a 8c3b d50a 18bc
00000030: 43c9 b73d 5325 f8bd fa47 93bd fac6 6cbd
00000040: 653d eb3d 2056 a43d b90a e0bd e47f 943d
00000050: 6b5a e5bd 8ca8 c43c b6fd 303d b8a6 bcbd
00000060: ca3a c13d e723 d93c 5d18 c1bd 5e1d 7b3c
00000070: 185d e9bd 0f7e 2f3d 13d7 9a3d 03f1 e93d
00000080: 9f09 9abd 8d3c fc3d f9d1 f6bd e040 c03b
00000090: 2e74 e13d 90f0 d63d 4140 263d f4ad 8abd
000000a0: d949 c7bb 753d 093c 684c b53d ff17 85bd
000000b0: c0fd dbbd cf8a 363d abf8 f13d 0f75 bebd
000000c0: b33e cdbd 97a7 1e3d 1d6d 3c3d 33f1 163c
000000d0: 6eee 6dbc 7a33 4cbc be30 81bd 0f2f 0cbd
000000e0: 472d 873d 7b1c 5f3c 0515 863d a676 e93d
000000f0: 112a 683c d2a9 f03d bfea 793d dfc9 a13c
00000100: 2dcc 673d 86e1 80bd 9f53 82bb 1c78 b1bd
00000110: 0e98 84bd f77d e63c 9489 de3d 19a2 a3bc
00000120: 4f65 d13d 012a f73c e349 edbd f8cd d33d
00000130: 40a0 53bd 3e69 8ebc 46d8 283d 9205 9c3d
00000140: 4899 debd 58f7 a0bd faf7 003d eb25 113d
00000150: 4453 c23d 567e f03d 6e35 a93c 83f4 a43a
00000160: 297b c53d a829 e33d 14ce debc 931c ff3d
00000170: 25e2 babd 4eb5 6c3b 7224 eb3d 7a51 16bd
00000180: 5c3d 013e 64ab d7bc 0d04 99bd 2479 bc3d
00000190: 8bb8 94bd 2a9b 4d3b f0d4 003e 12ba 723b
000001a0: 8f7b 7cbd 825a ac3c 29d2 89bd f960 04bd
000001b0: f8a5 ba3c 624c cbbd 89f9 debd 9cac 743d
000001c0: 52a1 26bd 9182 c83d 696a dabd 5251 afbc
000001d0: cecd e03d f866 333d 7b91 893c 92ed 943b
000001e0: 1f4e febd ea20 9f3d cf52 ea3b 31a0 2fbd
000001f0: 608d 24bd a2cd bbbd 8060 ddbd fbd9 8a3c
00000200: ee0c cb3d c9d0 a6bb 8939 973d b486 a2bd
00000210: 7e24 48bd 6c43 31bc 77c4 fabd bd2a fdbd
00000220: 327e 443d bd34 003e 099b 953c 9ef9 46bc
00000230: 765e b4bd 9799 d2bc d3e9 4f3c 6d8b 143d
00000240: 7970 dfbd e9d0 d0bd ecf5 af3d 6e98 8f3c
00000250: bc8b a6bd dea8 ccbd 1e9c 2ebd 88d6 8dbd
00000260: 52de da3d 419b 183d 2460 033c 204c 69bc
00000270: ded0 a3bd a5c1 e63d 735d 35bd 4791 653d
00000280: b753 3d3d dbf1 81bd 9328 50bd 4fca 3a3d
00000290: bf55 a2bd b71e babc 7ccf 04be dcb3 94bd
000002a0: 87a6 e63d c648 0bbd 0560 813b 1482 97bd
000002b0: 275b f53d ff7a 22bd 5402 b23d ddfe 08be
000002c0: ecab 6cbd 7081 d33d 3fe9 7d3c 52f9 873d
000002d0: b293 d9bc 08dd 513d ea3b 12bd cff3 803c
000002e0: 92da 94bd d1a5 54bd a1c4 6fbd 9e17 22bd
000002f0: cadc f53c 831b 34ba 93f6 8b3d f5c6 dbbd
00000300: fc2a f1bc 6b91 5f3d 7bba 633b 3050 f4bb
00000310: e15b 623d 210f 1e3d 95b3 00be 3227 e4bd
00000320: 9151 d1bd a526 ebbd 336d adbc e627 c03c
00000330: 2ce5 e33c c93d e0bd 57b3 9fbd 79ac 213d
00000340: e5ed 9bbd 1b47 0e3b 1b96 9c3a f738 4f3d
00000350: 3883 02be 448e a9bd 992f 2d3d ab2d 81ba
00000360: 3124 a53d 0c63 2d3d dd3b 1abd eb93 6bbd
00000370: e45b c0bd 3052 e2bd 689a f23d bdd8 92bd
00000380: b8e8 9bbd fe9a bb3d a238 ad3d 47b1 d3bd
00000390: ebd6 db3c 19bb 0d3d 2129 a2bd 0772 323d
000003a0: ae39 03bd 2579 4f3d b805 5dbc b7f7 713d
000003b0: 7a20 6e3d 1b89 c9bc ae15 113d f59b a0bc
000003c0: 98dd 9abc c975 223d c3cd d23d fdc9 b73d
000003d0: 747c a03d f09a 8abc 14b8 e6bd 40b0 a03d
000003e0: d105 a23d 4d3a bdbd 942b f5bc 70c3 e93d
000003f0: c6cc 473d 7c77 a4bd e6c4 8b3d 9096 93bd
0.0036999602 -0.10626254 0.01981819 0.011478011 0.12187093 -0.109524705 -0.027829748 0.033717364
0.04104884 -0.10075827 0.004287058 -0.009279926 0.089739345 -0.12116494 -0.07191463 -0.057806946
0.114863195 0.080242395 -0.10939545 0.07250956 -0.111988865 0.02400615 0.043210708 -0.092114866
0.09435041 0.026506377 -0.09428475 0.015326826 -0.11394709 0.04284483 0.075605534 0.114229225
-0.07521366 0.12316237 -0.12051768 0.0058671087 0.11008488 0.104951024 0.04058862 -0.0677146
-0.0060818014 0.008376469 0.08852464 -0.064987175 -0.10741758 0.044565972 0.11815008 -0.09299671
-0.100217246 0.038734045 0.046002496 0.00921278 -0.014522178 -0.012463445 -0.06308125 -0.034224566
0.06600433 0.01361763 0.06546978 0.113995835 0.014170186 0.11751141 0.061014887 0.01974958
0.0565912 -0.06293015 -0.0039772536 -0.08665487 -0.06474315 0.028136237 0.10866085 -0.019974755
0.10224401 0.030171396 -0.115863584 0.1034202 -0.0516665 -0.017384168 0.04122188 0.0761825
-0.1086908 -0.07859677 0.03148649 0.035436552 0.09488538 0.11742847 0.02065536 0.0012585077
0.096426316 0.1109193 -0.027197875 0.12456622 -0.09125165 0.0036118808 0.11481561 -0.036698796
0.12621063 -0.026326843 -0.07471476 0.09202793 -0.07261761 0.0031373003 0.12581229 0.0037037176
-0.061641272 0.021039251 -0.06729538 -0.032319043 0.022784218 -0.09926678 -0.10887439 0.059734926
-0.04068119 0.097905286 -0.106648274 -0.021401081 0.10976754 0.04379937 0.016793003 0.004544922
-0.12417244 0.0776995 0.007150985 -0.04287738 -0.04017389 -0.09170081 -0.108094215 0.016949644
0.099145755 -0.005090807 0.07384021 -0.07935849 -0.048862927 -0.010819297 -0.12244504 -0.12361667
0.04797191 0.12520118 0.018262403 -0.012144474 -0.088070795 -0.025708003 0.012690025 0.03626578
-0.10910124 -0.101960965 0.08591828 0.017528739 -0.08132121 -0.09993146 -0.042629354 -0.06925684
0.106869355 0.037257437 0.008018527 -0.014239341 -0.07998823 0.112674035 -0.044278573 0.05604675
0.046222415 -0.063449584 -0.050819945 0.045603093 -0.07926511 -0.022719724 -0.12969774 -0.07260868
0.11262231 -0.03400495 0.003948214 -0.07397857 0.119802766 -0.03966808 0.0869185 -0.13378473
-0.057781145 0.103274226 0.015497505 0.06639351 -0.026559684 0.051236182 -0.03570167 0.015741257
-0.072682515 -0.051915947 -0.05853713 -0.039573304 0.030012507 -0.00068705546 0.0683414 -0.107313074
-0.029439442 0.05458204 0.0034748602 -0.007455848 0.055263404 0.038588647 -0.12568505 -0.111402884
-0.10220636 -0.1148198 -0.021170234 0.023456525 0.027819239 -0.109492846 -0.07797878 0.039471123
-0.07613734 0.0021709863 0.001194659 0.050591435 -0.12745368 -0.08279088 0.04228172 -0.0009855529
0.080635436 0.042330787 -0.037654746 -0.057514112 -0.09392527 -0.11050832 0.11845857 -0.07170246
-0.07612747 0.09160422 0.084580675 -0.10336547 0.02683588 0.03460226 -0.07918001 0.043565776
-0.03203743 0.05065264 -0.013490133 0.05907413 0.05813644 -0.02460151 0.035421066 -0.019605616
-0.018904492 0.03966311 0.10293152 0.08974073 0.078362375 -0.016919583 -0.11265579 0.07846117
0.07911266 -0.092396356 -0.029928006 0.1141423 0.04877927 -0.08030602 0.06824665 -0.07206452

GC_Linear_list.0.bias f4 [64]
00000000: 7350 873c aeef 1d3d 2e98 b83d 458f c03d
00000010: e393 acbd c763 fb3c 7d05 b0bd 3cc8 8cbd
00000020: 52e8 a93d 42d4 77bb 89d2 3fbd e857 59bd
00000030: 191d 053c d1b0 2e3d 3412 dc3d 7ad6 bcbd
00000040: 57aa f33d b3d7 ba3d 4814 793d 39d8 cd3d
00000050: 14d2 82bd f0e7 a4bd 8a91 ee3d 088f 45bc
00000060: 42dd 94bb c934 e43c 0839 b23c 2b55 013e
00000070: 069a 1fbd 05a1 4c3d 504a c83d e670 ad3d
00000080: 32a2 23ba 6b9e 203d 633a d73d ef2f e73d
00000090: da4c 29bd 97bb 293d b266 c9bd 78cd e8bd
000000a0: 104b 84bd 380f 3fbd f885 c3bd ae45 f4bc
000000b0: b84d f63d 249a cebd 614f c13d 5ee8 e5bb
000000c0: 83a0 adbd 3cef b23d e7e1 9ebc eb06 47bb
000000d0: a667 5ebd 5042 04bd bc50 803d f806 93bd
000000e0: e4ec c13d e776 473d 5990 503d c1da ee3d
000000f0: e4e5 cbbd 09f9 803d 8c06 053d 1352 c03d
0.016517853 0.038558654 0.09013401 0.094023265 -0.08426645 0.030687226 -0.08594797 -0.06874129
0.08296265 -0.0037815724 -0.04683164 -0.05306235 0.008124613 0.042649094 0.107456595 -0.09220596
0.11897724 0.091231726 0.060810357 0.10051007 -0.063877255 -0.08052051 0.11648853 -0.012058027
-0.0045429775 0.027857201 0.02175571 0.12630145 -0.038965248 0.049958248 0.09779799 0.08468799
-0.00062421255 0.03921358 0.10509183 0.112884395 -0.041333057 0.041438665 -0.09834041 -0.11367315
-0.064596295 -0.046645373 -0.09547037 -0.029818382 0.120265424 -0.10087994 0.094389684 -0.0070162257
-0.08477881 0.087370366 -0.019394828 -0.0030369114 -0.054298066 -0.032289803 0.06265399 -0.071790636
0.094690114 0.04869738 0.05091891 0.11662818 -0.099559575 0.062975 0.032476947 0.093906544

GC_Linear_list.1.weight f4 [64, 64]
00000000: 7e41 9bbc f613 8abd ee1a 5c3d 7d26 843d
00000010: cba0 a1bd f8e7 3f3b fc8a cc3d 970a fbbd
00000020: 05a5 1e3d cc1e e83c aac0 c2bc be74 46bd
00000030: 3fac 2b3d ed62 833d f88b 88bc 8104 493d
00000040: af52 72bb c505 b8bd 7d61 6cbd 7849 90bb
00000050: 662e 88bd ed87 5d3c 21d2 f73d b2e5 6cbd
00000060: 68ff 0cbd b161 f0bd 2868 c33d b7f5 dabd
00000070: 6a0a fdbd 8f95 8a3d 8675 123d bcbf 97bd
00000080: b004 dfbd 875e 363b 9dd1 11bd 9cfe 65bd
00000090: 6f7d f03d ac9c db3d 2682 393d ffa7 aebd
000000a0: 1e9e a73d 4814 e3ba 3c5f dbbd dc74 ecbd
000000b0: 8f47 c43c 3325 26bd 20e0 8ebd b2d7 efbc
000000c0: 2a58 b43d 90a9 803d fa03 fa3d 2ffa 9c3d
000000d0: 399d fdbd a941 c9bd 6a00 743c 849d 493d
000000e0: 11d2 033d 7d84 4f3c ab97 b2bd ccdd d3bd
000000f0: 708c fabd 7950 223c 5248 a337 a84e d6bc
00000100: af85 0dbd 9fd3 acbd 766b 063d fd64 6ebd
00000110: cdb6 2fbc f395 d6bd c44b 633d a8c9 99bd
00000120: 7724 113c 584d c33c 3df4 473d 1fc1 cdbd
00000130: 4c06 963d 3d32 f4bd 40a6 f3bd e7e7 373b
00000140: 7a29 6d3d 8658 19bd 1b90 0a3d f391 e1bd
00000150: 3cdc 803d c9c7 9e3d a875 c33d dc61 003d
00000160: 20ce 873a 4760 6d3d 1565 4cbd 69d9 d53d
00000170: 7de1 3d3d b8b8 0b3d e9d4 5dbc 5bb2 f93d
00000180: 5629 3abd adb9 993d 9600 ed3d 8836 c5bd
00000190: 7f7c 56bd c928 c43b 66f1 d03d ee05 c6bd
000001a0: 018b 873d ff88 913d a933 b4bc 27b2 a13d
000001b0: e6c0 d8bd 3041 b53d 5b66 95bd ad52 84bc
000001c0: d7e3 813c e3ea 2bbd 4598 ddbd d592 f7bd
000001d0: 573f cbbd e31f e73d 0b88 e13d 035f 4c3c
000001e0: b9a7 72bd adea 62bd a588 8e3d 8cb9 6b3d
000001f0: 1f53 ee3c 2670 b03c 6d6b babd fa81 30bd
00000200: 2dcd 6ebd fa47 6dbc 3406 c5bd 51e2 9e3d
00000210: 1208 a3bd cbfe f83d a73a c83c ff6e bdbd
00000220: b478 0dbd 4942 a9bc 3532 99bb cecb 3c3d
00000230: 8065 79bd 495b 4e3d 5a91 00bd 2cbb b2bb
00000240: cb21 b2bd 1498 df3d d783 753c f0cd 8d3d
00000250: f783 cfbd 4712 cb3d 2890 d83d 7057 9a3c
00000260: 29b6 4ebd a458 d3bd 01a0 453d dc59 ff3d
00000270: 297e e93c dc56 743d c26d 003e 5197 b83d
00000280: 2c37 92bd 0ff3 bf3d 8167 a73d 17ef 503d
00000290: f54c a83c 132d 1abd 4eba 16bd 5083 983d
000002a0: 9c59 34bd de19 be3d 08ef cc3c 2266 c4bd
000002b0: 240d aa3a e189 523d 8212 e9bd 33c2 46bd
000002c0: 84b2 b1bc 274c 90bd d0d7 c83d 1c6f d4bc
000002d0: d97d e8bd 5762 833d 8b58 bcbd 6dd8 63bd
000002e0: 0e30 f73d 7baa 783b 6ad9 7ebc afbf eabc
000002f0: da9c debd 629f d1bd a6b6 a83d 41eb a43d
00000300: 1d89 36bd 665d b1bd 9729 ab3d 3f3b 92bd
00000310: bcde e2bd 3a20 e8bd ba93 f53d 33fa 71bd
00000320: 9be6 b13c bcd0 733d 8d1c b5bd c24c bc3d
00000330: 1700 4c3d bb69 b7bd facb b2bd eab7 dcbd
00000340: ed8e 963d 1767 7f3d 39f9 06bc 1006 903d
00000350: 6cfd abbd 567e f2bc 693d c3bd ab8b e83d
00000360: 35c5 823d 96f9 95bc 3872 28bd c670 da3d
00000370: 5bb3 d3bd 09a5 b53d 007c b53d ac6b ee3d
00000380: 81d1 d63d 370e 083d c5bd debd 2e70 2abd
00000390: defc 483d f002 453d bbd2 d2bc abe4 633d
000003a0: a178 b63c 0dbc a53d 790c 42bd 4cb6 703c
000003b0: 7b85 fdbc c709 a13d 66eb f03d 1590 ebbd
000003c0: 5ad3 8dbd 4eb9 903d 8cfb f3bc 6790 073c
000003d0: 563a 3fbb 59ff e0bc a11d ca3d 66e8 dcba
000003e0: 7b5e c43d 1df9 fabd 49ac 12bc e156 e4bc
000003f0: 1599 c2bd 1b2b a3bd a33a fabd fe5f 523d
-0.018952128 -0.067420885 0.05373662 0.064526536 -0.07891997 0.0029282551 0.09987447 -0.12257879
0.038731594 0.028334998 -0.02377351 -0.048451178 0.041912314 0.06415353 -0.016668305 0.04907656
-0.0036975553 -0.089854755 -0.05771016 -0.0044032894 -0.06649475 0.013521177 0.12100626 -0.057836242
-0.034423262 -0.11737383 0.095413506 -0.10691398 -0.12355502 0.06766807 0.03575661 -0.07409617
-0.10889566 0.0027827339 -0.035600293 -0.056151018 0.117426746 0.10723242 0.045290135 -0.085281365
0.08184455 -0.001732477 -0.10711524 -0.11545727 0.023959903 -0.04056282 -0.06976342 -0.029277656
0.088058785 0.062823415 0.1220779 0.07664906 -0.123835035 -0.09826977 0.014892677 0.049222484
0.032182757 0.012665865 -0.087203346 -0.10345039 -0.122338176 0.0099068815 1.9464791e-05 -0.026160553
-0.03455132 -0.08438801 0.032817326 -0.05820178 -0.010724735 -0.10477819 0.055492178 -0.07509166
0.008858792 0.023840591 0.04881691 -0.100466006 0.0732542 -0.11923645 -0.11896944 0.0028061809
0.057900883 -0.03743794 0.033828836 -0.11014166 0.062920064 0.0775295 0.095439255 0.031343326
0.0010361113 0.057953145 -0.049901087 0.10441858 0.04635762 0.03411171 -0.013539531 0.12192222
-0.045449577 0.07506118 0.115723774 -0.09629542 -0.052364822 0.0059863073 0.10202293 -0.096691
0.0661831 0.07106208 -0.02199729 0.07895308 -0.105836675 0.08850324 -0.072949134 -0.016152704
0.015855713 -0.041972052 -0.10820059 -0.12088553 -0.099241905 0.11285379 0.11012276 0.012473824
-0.059241984 -0.055399586 0.069596566 0.05755 0.02909237 0.021537852 -0.09102521 -0.043092705
-0.05830114 -0.014482493 -0.09620324 0.0775801 -0.07960524 0.12157973 0.02444203 -0.092496864
-0.03453894 -0.02066149 -0.0046751746 0.0460928 -0.060887814 0.050380025 -0.031388618 -0.0054544415
-0.08697852 0.109176785 0.014985046 0.06924045 -0.10132592 0.099155955 0.105743706 0.018840522
-0.05046669 -0.10319641 0.048248295 0.12468311 0.02850254 0.059653148 0.1254187 0.09013236
-0.071394295 0.093725316 0.08174039 0.051009264 0.020544508 -0.037640642 -0.036798768 0.07446921
-0.04403077 0.092822775 0.025016323 -0.09589793 0.0012973887 0.051401023 -0.11380483 -0.048525047
-0.021691568 -0.07045775 0.09806788 -0.025931887 -0.113521285 0.06415241 -0.09196576 -0.05562632
0.120697126 0.003794341 -0.015554765 -0.028655855 -0.10869761 -0.10235478 0.082379624 0.080526836
-0.044564355 -0.086603925 0.08357542 -0.071402065 -0.110776395 -0.11334272 0.11991067 -0.0590765
0.021716407 0.059525236 -0.08843336 0.09194328 0.049804773 -0.08955713 -0.08730312 -0.10777266
0.0735148 0.062354174 -0.00823813 0.07032406 -0.08397946 -0.029601257 -0.095331974 0.113547646
0.063852705 -0.018307488 -0.041124552 0.10666041 -0.10336944 0.088693686 0.08861542 0.116416305
0.104891784 0.03321668 -0.108760394 -0.04161089 0.049069278 0.048098505 -0.02573525 0.055637997
0.022274317 0.080925085 -0.047375176 0.0146919 -0.030947438 0.07863193 0.11763649 -0.11502091
-0.06925078 0.07066594 -0.029783033 0.008274174 -0.0029179058 -0.02746551 0.098689325 -0.0016853928
0.09588333 -0.12254546 -0.008952209 -0.027873458 -0.09501854 -0.07967206 -0.12218215 0.051361077

GC_Linear_list.1.bias f4 [64]
00000000: ff17 dfbd c508 0a3e e747 0d3c 7fda e2bd
00000010: 11d8 bc3d 25ac a0bd f2d2 dabd 1d27 b1bd
00000020: b3ec 173d c581 3e3d d2ee 2a3d 0bbb 9bbd
00000030: 6135 2e3d c92a 983d 11e7 bf3d aec9 10bd
00000040: 705c debd 2a8c f93d 3045 de3d 1493 afbd
00000050: a9f1 aa3d bb32 c73d 691f a43d f1d6 9abd
00000060: fe07 0fbd 1fd5 ae3c 9187 89bd 6803 ae3d
00000070: d6b1 f8bd 7c0a 793c 338e 6abc 8edd bf3c
00000080: fb26 8b3d 5523 d43d 90a5 823d 16f8 8b3d
00000090: e9d2 f6bd 4d87 023e 0cfc 7dbd 56d2 9abd
000000a0: af3f 9b3d ebfe b6bd e98b e1bd 4f8d 76bd
000000b0: 0838 9ebd 6419 babd 2c83 5ebd 0b83 3a3d
000000c0: dba4 8a3d c68c be3d 3b91 c93d 8563 6d3d
000000d0: 3831 a53d 2966 b03d ffdd 90bd 61bb 95bd
000000e0: 3527 97bb f280 733d 669e 853d 1e50 683a
000000f0: 650d 173d c0d7 073e ffe9 c6bd f695 973c
-0.10893249 0.13479908 0.0086231 -0.11076831 0.09220899 -0.07845334 -0.10684766 -0.086500384
0.03709097 0.046510477 0.041731663 -0.07604035 0.042531375 0.074300356 0.09370244 -0.035348587
-0.10857475 0.12184937 0.1085304 -0.08572975 0.08346874 0.09726473 0.080138035 -0.07560528
-0.03491973 0.021341858 -0.0671531 0.084967434 -0.121432945 0.015200254 -0.0143161295 0.023421075
0.06794544 0.103583016 0.06379235 0.06834428 -0.12051947 0.12746926 -0.06200795 -0.0755965
0.07580506 -0.089353405 -0.11013014 -0.060193356 -0.07725531 -0.09086874 -0.054324314 0.04553513
0.06769725 0.09304194 0.09842154 0.057956237 0.08066028 0.086132355 -0.070735924 -0.0731113
-0.004612828 0.059449144 0.06524353 0.0008862036 0.03687801 0.13265896 -0.097126 0.018504124

Bi_Linear_list.0.weight f4 [64, 64]
00000000: b6a8 e4bd 2b00 83bc 0415 b4bd 7824 433d
00000010: 19e8 fa3d 01fd 1b3b 6206 bdbd ada2 b9bc
00000020: 3437 513d 85b3 dc3d 0efc 523d 5321 d53b
00000030: 166f 1c3c 3b49 8dbd e9e0 d03d 06bc 0ebd
00000040: d3a7 933d 8dc1 af3d 1442 66bd 29c6 503d
00000050: 6c9f b7bd e161 fbbd 8686 f63d 1616 90bd
00000060: 69a3 173c f605 04be 15f2 edba 05d7 243d
00000070: f102 08bd c09a 933d 69a3 b03d de26 f03b
00000080: c819 c33d 2ea1 97bd fe44 dabc cee6 143d
00000090: 0bd1 183d a8b7 4d3c 5744 093d dede f23d
000000a0: 8eab fd3c e02d c53d fd61 50ba f575 1c3c
000000b0: 7c55 d73c 4c6f 0b3d 3c36 e83d 0051 cd3d
000000c0: 2c14 46bc b176 893c 8d0e af3d 975b 153d
000000d0: ea16 ac3a 5c64 a5bd 8d96 413d 0acc 253d
000000e0: 2122 7a3c 55e1 7c3c 6ff3 ce3d ba2c a8bd
000000f0: d83b feba 7d2b 1d3d efbd babd 5658 d53c
00000100: 5880 e6bb 77af 813d ac60 f0bd 5468 91bd
00000110: 1750 44bd 3395 d8bd c654 453d da9a a5bc
00000120: 0940 bd3d f7fc 523d ef99 663d 98af 6bbc
00000130: f580 253d 72f8 923d fe5c c03d be27 953d
00000140: d864 20bb 0f66 97bd 0581 363d 6655 bbbd
00000150: 7336 bfbd b3cf 97bc 80f2 debd 0ddc c53d
00000160: 19b4 dbbc 3016 9c3d 51bf e03d 9172 d8bd
00000170: 7807 bfbd e83f e4bd 3dda 543d 0b5f d03d
00000180: 9e14 95bd 59d3 bc3d 72cc d43d f0e5 4bbd
00000190: 7979 ecbd f14f b93d 4644 98bd 6720 34bd
000001a0: af4e 613d a52c ccbd 656f b63c f794 99bd
000001b0: 902e c53d b556 d13d 667e 82bd cbc5 5cbd
000001c0: 326e 8a3d c7bf 4cbd 18ee dd3d 41dd ef3c
000001d0: aee8 d33d 4da5 dcbd 8d53 8cbd 2f71 ff3d
000001e0: 74ec 9fbc 8ff9 cabc 0cc4 afbc f59a efbc
000001f0: bc9f dc3c 0bc3 3ebd a833 e0bd 806c 033e
00000200: 0965 a4bc e41e 393d f5b7 ad3d 9f59 143c
00000210: d97c c3bd 7dfa c9bc 2a79 dc3d eb59 d13d
00000220: 8694 c63d a17c 1a3a fc15 e53d 3031 903d
00000230: ee4a f9bd 59be 5f3d 2e4f ea3d facf 66bc
00000240: d47c 06b9 316c 653d 60bf 85bb 3c76 d9bd
00000250: 8eed b0bc f0a4 a1bd c12c ec3c acf5 b83d
00000260: 6766 a73d 00f4 fabd e732 f3bd 9938 8e3d
00000270: 3db2 dcbd cfc4 27bc 51e8 833d 03d1 0b3d
00000280: aa0b cbbc 5351 96bd 1b52 47bd 601d 0cbd
00000290: f70a 7abd 3a03 093d e377 a23d 90fc 72bd
000002a0: a80e bc3c 416c 023c 017e 5abb 4bf7 f7bc
000002b0: 98ad a33d 9a20 753d eb8e de3b a1a2 c63d
000002c0: 49ef 29bb 6e4b 463d e68d 393d fae3 c63d
000002d0: 66af 463d 6107 9f3d f13c db3b a08a 7f3d
000002e0: 557a 683b f12f 3d3d b359 bfbc d8d0 273d
000002f0: 5c61 b9bd afcf cbbd 255f 3c3d 851b b7bd
00000300: 9797 3b3b 66b4 913c 790f 83bd ce70 653c
00000310: f44f 97bd d701 88bd e7fb d8bd 32af 2d3d
00000320: 9ee7 183d ba8f 783d 8c72 93bd 4ca1 ff3b
00000330: e6bf 113d 8a85 3c3d 8e2d 733d dc4d f1bd
00000340: 36c0 3dbd 2993 83bd aaf0 87bd 4265 7bbd
00000350: 9ca2 803a eff4 f63c a9d6 48bd 22d5 fd3d
00000360: 1c09 bf3d da35 b6bd 83c0 eebd 64d1 82bc
00000370: 22ea e23d 5b77 09bc 7196 aabd 291e e0bd
00000380: 9511 273d fa4c da3c 1ff8 103d 288f 233d
00000390: 0369 b83c 515e 1c3d b64d d6bd f9c2 a8bd
000003a0: bb4b c5bb f66e c6bd 2186 97bd 3ace c0bd
000003b0: 288c 7cbd 9120 0b3c 263a 94bd 6353 313d
000003c0: 3618 21bd bfb9 c6bc 8494 30bd bd27 f83c
000003d0: 4d90 163d 22cb e33d a927 cabc 8e64 e93c
000003e0: e35f a5bc 5b0f a23d b8dd dabd 3046 243d
000003f0: 0a68 3ebd 1f5d 923d 18ed febd e391 90bd
-0.111649916 -0.015991291 -0.08793071 0.0476422 0.122513 0.0023801925 -0.09229733 -0.022660578
0.051078036 0.10776428 0.05150991 0.0065042167 0.009547969 -0.06898733 0.10199148 -0.034847282
0.07209744 0.08581839 -0.05621536 0.05097023 -0.08965954 -0.12274528 0.12037377 -0.070354626
0.009255269 -0.12892899 -0.0018153811 0.04024412 -0.03320593 0.072072506 0.08624918 0.007328852
0.09526402 -0.074037895 -0.026644226 0.036352925 0.037308734 0.012555994 0.03351244 0.11858915
0.030965593 0.096278906 -0.00079491717 0.0095496075 0.02628588 0.034041688 0.113384694 0.10025215
-0.01208977 0.01678023 0.08547697 0.0364643 0.0013129388 -0.08075783 0.047262717 0.04047779
0.015266926 0.015434583 0.10105025 -0.08211656 -0.0019396497 0.03837155 -0.09118258 0.026043098
-0.0070343427 0.063322954 -0.11737189 -0.07099977 -0.047927942 -0.105753325 0.04817655 -0.02021544
0.09240729 0.051510777 0.056299146 -0.0143851265 0.040406186 0.071762934 0.09392737 0.07282971
-0.002447417 -0.07392513 0.044556636 -0.09147148 -0.09336557 -0.018531656 -0.10886097 0.09661112
-0.026819276 0.076214194 0.10973991 -0.10568727 -0.093275964 -0.11145002 0.05196594 0.10174378
-0.07279323 0.09219999 0.10390557 -0.049779832 -0.115466066 0.09048451 -0.07434897 -0.043976214
0.05500668 -0.09969453 0.022269914 -0.07499116 0.09628022 0.10221616 -0.06371765 -0.053899568
0.06759299 -0.04998758 0.108364284 0.029280307 0.103471145 -0.10773716 -0.068518735 0.1247276
-0.01952193 -0.024777202 -0.021455787 -0.029248694 0.026931636 -0.046572726 -0.10947353 0.12834358
-0.020067709 0.045195475 0.08482353 0.00905457 -0.09545297 -0.024655575 0.10765298 0.102222286
0.09696297 0.0005893205 0.11185834 0.07040632 -0.12172495 0.05462489 0.114408836 -0.014087671
-0.00012825738 0.056011382 -0.0040816516 -0.106182545 -0.02159765 -0.078927875 0.028829934 0.09031233
0.081738286 -0.122535706 -0.11874943 0.06944389 -0.10776184 -0.010239794 0.06440795 0.034134876
-0.024785835 -0.0733973 -0.048662286 -0.0342077 -0.061045613 0.033450343 0.07933023 -0.059322894
0.022956207 0.00796038 -0.0033339264 -0.030269286 0.07992095 0.059845544 0.0067919395 0.09698988
-0.0025929979 0.04841178 0.04530134 0.09711452 0.048507117 0.07765079 0.0066906144 0.062388062
0.0035473306 0.0461883 -0.023358202 0.040970653 -0.09051773 -0.09951722 0.045989174 -0.08940796
0.002862429 0.017786216 -0.063994355 0.0140039455 -0.07388297 -0.06640976 -0.105949216 0.042403407
0.037330262 0.060683943 -0.071995825 0.0078012105 0.0355834 0.04602579 0.059369616 -0.117824286
-0.046325885 -0.06424553 -0.066377 -0.061375864 0.0009814086 0.03014609 -0.04903284 0.123941675
0.09327909 -0.0889699 -0.116578124 -0.015968986 0.110798135 -0.008390273 -0.08329476 -0.109432526
0.040788252 0.026648033 0.035392877 0.039931446 0.022511011 0.038175885 -0.10464041 -0.08240313
-0.0060209907 -0.09689133 -0.0739863 -0.094143346 -0.0616571 0.008491651 -0.072376534 0.043292414
-0.03932973 -0.024258493 -0.043110386 0.030292386 0.03675871 0.11122729 -0.024677115 0.028490331
-0.020187324 0.07913085 -0.10686821 0.040106 -0.046485938 0.07146668 -0.12447566 -0.07059076

Bi_Linear_list.0.bias f4 [64]
00000000: 46fa 313c 6e9a a23d 0982 8dbd 0f28 cb3d
00000010: 53ba ccbd 1291 25bc a99b 3dbd a853 1dba
00000020: 474d aebd d8ee 6d3d 03c3 e53d 6a34 3c3d
00000030: 6027 8abd 952f c6bc 715e b63c 1848 93bd
00000040: af84 ea3c bc00 e43d 357f dabd 2ae1 1abd
00000050: 007e 87bd ce38 b33d 9244 bcbd 24d2 633d
00000060: c193 0ebd 2a64 55bc db9b 813d 2649 14bc
00000070: 27fc 67bd 10d1 74bc f92a aebd a00a c73c
00000080: 3528 ba3d 94e4 07bd e6b1 9dbc 955b 7ebd
00000090: 7bba 18bd 77cd e6bd 7d3c 603d 995f 8e3c
000000a0: f16f 2abc 7a64 82bc 0690 403d ece1 a9bd
000000b0: 1cb5 c73d 0ef8 88bd 309c 793d 4a87 cc3d
000000c0: f0ff 9cbd fc5f ef3d 479f bf3d f0d3 a63d
000000d0: 3e59 e93d a024 1bbc c249 01be ef61 e43d
000000e0: 63ed f0bc 40de 6bbd 5f16 6b3d 1c8d d0bd
000000f0: 2283 01be 40bb 173d 4cf9 8e3d e474 35bd
0.0108628925 0.079396114 -0.06909568 0.0991975 -0.09996476 -0.010105388 -0.046291027 -0.00060015405
-0.08510833 0.058089107 0.11218836 0.045948423 -0.067457914 -0.02419261 0.02226183 -0.07191485
0.028627722 0.111329526 -0.10668794 -0.03781239 -0.066158295 0.08751069 -0.09192766 0.055620328
-0.034808878 -0.013024369 0.06328555 -0.009050643 -0.056636956 -0.0149424225 -0.0850429 0.024297059
0.090897 -0.033176973 -0.019249868 -0.06209906 -0.037287217 -0.11269658 0.054745186 0.017379569
-0.0104026655 -0.015917052 0.04701235 -0.08295044 0.09751341 -0.06687938 0.060939968 0.09986742
-0.07666004 0.116882294 0.093565516 0.081458926 0.11393975 -0.009469181 -0.12625793 0.11151492
-0.02941007 -0.057585 0.05739438 -0.101831645 -0.1264768 0.03704381 0.06981143 -0.04430093

Bi_Linear_list.1.weight f4 [64, 64]
00000000: 6a0d 9aba b97e 2fbd 1385 123d 95e4 96bd
00000010: 47ca f83d f3a9 853b e99c c6bd 2461 e73d
00000020: 420d c2bc e7b6 89bd eb34 e8bd 985c 0a3d
00000030: 90d0 56bd 4385 f0bd 6e5c 16bd b019 07bd
00000040: b09f 043c 442b 7f3d 13f8 a73d 819c 57bd
00000050: a51f 57bd 21f7 c1bd 9666 d43d 82d7 6ebd
00000060: ac26 67bd 7bf2 ffbc ef67 da3d 536e 48bd
00000070: d7d2 e43d b0be 473d 1fba e23d 21b5 af3d
00000080: a392 563d b424 fb3d 90c8 453d 8b88 7d3d
00000090: 06f7 133d 6469 73bc 7ab6 103d 2b86 f1bd
000000a0: 28f0 fcbd 7178 243d 8b73 863d 7c54 e0bd
000000b0: 1782 bf3d b8a7 36bd 9693 423d 7f4e 253b
000000c0: 2b83 123d 38a0 25bd 704e 88bd 1ce5 5bbc
000000d0: 5fa2 bcbd 7803 113d 6e34 1d3d fa51 c8bc
000000e0: 708f 6a3d c921 843c e12c 023d 2d84 a3bd
000000f0: de69 71bd 92c6 15bd afa4 b4bd 317f 88bd
00000100: 9206 62bc 10ee 793d 1d20 583d 9568 223d
00000110: 8e83 5d3d ffe6 e2bd e8e7 353d 5df9 0bbd
00000120: 82c3 c7bd e6ff 7abd fc83 0abe fbbc 02be
00000130: 2908 563d b6bf 9ebd 2176 7c3b c44d e6bd
00000140: adf8 27bc 7cb3 893d f224 51bd a7fa f6bb
00000150: 259c 833d 71f2 bebd 5b73 fdbc 40f6 5cbd
00000160: 4002 613c c94c 21bd 7195 12bd 5d98 803d
00000170: 0c5d ecbd 16f0 513d 1953 c4bd 20cd 87bc
00000180: 0f79 8fbc 4dfb 9dbd 25d6 d6bc 90c0 8dbd
00000190: d12e 0b3d 8f13 473c b2ce 89bd 724e 8a3d
000001a0: e599 b73d de82 ddbd 7caa 8c3d cb83 46bb
000001b0: 7c5c 533d 4c73 d5bd c698 11bb 0b4f c7bd
000001c0: 715c 9f3d 4568 783d 5bf4 9dbd 3941 97bd
000001d0: bba8 353c aa6d 753d 64fc 7fbd 108b d83d
000001e0: f664 87bd 5522 10bd 314d d73d 2cdb a03d
000001f0: faae 553d fb3f ca3d b891 bbbd c138 7e3c
00000200: 6b01 9d3d 53e2 dd3d 0500 41bd fca9 88bb
00000210: 3494 173d 4be6 7fbd e390 04bd cea6 d2bd
00000220: 0528 9ebd 378c a83c e074 c43c 3642 2c3d
00000230: d080 c83d 6db2 02bd f6e5 a5bc 6ad4 df3d
00000240: 2ab0 853d 4f70 f63d 4bb7 5b3b 4416 1d3d
00000250: 6fcb 0c3b e651 99bd 3467 16bc c26f 913c
00000260: 2626 30bb 6a7e b9bd e295 263d 5071 b43d
00000270: 79d9 c6bd 2092 76bd 691d 323d d023 3f3d
00000280: 603a 9c3d 3971 a1bd 6888 a8bd 2a59 a3bd
00000290: bb76 e6bc 7f4b fc3c 94f4 33bd 107e 3bbd
000002a0: 2e82 d33d caa2 30bd 52fd 593d 26c1 ae3d
000002b0: a8d5 ee3d 1c87 9c3d 2bdc adbd b2dd 4fbd
000002c0: e947 a43d 44be a7ba 6c9f 643d 14e4 dcbd
000002d0: 62b3 d3bd bc37 c9bd 56a8 ad3d 648f 003e
000002e0: be02 31bd b940 46bd 912f c03d 8de0 e1bd
000002f0: 27bf 2cbd 2638 fe3c 348d 2d3d 2194 74bd
00000300: f135 e83d 647b 8c3d a990 93bd 4cb1 513d
00000310: ea49 bd3d b7c7 cc3b ead1 c5bd 6ed3 713c
00000320: 8e2a bbbd 26dd 8d3d 3d1b a63d 01bf 303d
00000330: cef0 c2bc e5ab b23d 4fec 48bd baf9 c93d
00000340: 7ed3 a3bc 8503 803d 22d3 b5bc 5504 993d
00000350: e438 3bbc 36ec db3d 2dd6 c3bc 3d0e f03c
00000360: 64d2 c93d 2d01 ce3d 88fc 203d be98 6cbd
00000370: f8a5 b6bd 04d6 febd 6d3f c1bd 22a0 f23c
00000380: 1900 e2bb 18ef 0ebd e2ab 68bd 631c d2bc
00000390: 6173 a83d e235 d7bc 472a 7cbd 1b70 97bd
000003a0: 5d19 723c de4f 95bd 4d67 923d e3d7 303d
000003b0: 81ee 783d 8181 543d e281 a6bd d118 19bc
000003c0: f800 2a3d 0c7c a1bd 667b b4bd 3171 4ebd
000003d0: 59a0 afbd 154d d53d 8822 8b3d 7991 763b
000003e0: 09e6 f9bd 1df7 023d 1bf4 913d 579d 33bd
000003f0: 8ce6 8d3d b30e 723d da88 d0bc 3f75 803d
-0.0011753265 -0.04284546 0.03577144 -0.07367817 0.12147956 0.0040790974 -0.09697897 0.11297825
-0.023687962 -0.06724339 -0.11338218 0.03377971 -0.052444994 -0.11744168 -0.03670924 -0.032983482
0.008094713 0.06229712 0.08201613 -0.052639488 -0.052520413 -0.09470964 0.10371129 -0.058310993
-0.056433365 -0.031243553 0.10664355 -0.04893334 0.11173027 0.04876584 0.11070656 0.085794695
0.052385937 0.1226286 0.048286974 0.061897796 0.03612425 -0.01485667 0.035330273 -0.11793169
-0.12350494 0.040153924 0.06565007 -0.10953614 0.093509845 -0.044593543 0.04750403 0.002522379
0.035769623 -0.040436 -0.06655586 -0.013421323 -0.09210657 0.0354037 0.03838008 -0.024453152
0.0572657 0.016129391 0.03178108 -0.07984195 -0.058938853 -0.036566325 -0.088204734 -0.06664885
-0.013795512 0.06101805 0.052765 0.03965052 0.05408054 -0.11079215 0.044410616 -0.03417336
-0.09754087 -0.0612792 -0.1352691 -0.12767403 0.052253876 -0.0775141 0.0038522559 -0.11245301
-0.01025216 0.06723687 -0.051060624 -0.0075372043 0.064262666 -0.09323586 -0.030938795 -0.05394578
0.013733447 -0.03937987 -0.03578705 0.06279061 -0.11541185 0.051254354 -0.09586162 -0.016577303
-0.01751378 -0.077139474 -0.026225159 -0.06921494 0.033980194 0.012150659 -0.06728877 0.067532435
0.089649 -0.108159766 0.06868455 -0.0030290957 0.05160187 -0.10422382 -0.0022216304 -0.09731873
0.07781304 0.060646314 -0.07712623 -0.07385487 0.011087592 0.059919037 -0.062496558 0.10573399
-0.06611054 -0.03518899 0.1051277 0.07854304 0.052168824 0.098754846 -0.09158653 0.015516461
0.07666286 0.108341835 -0.04711916 -0.0041706543 0.037006572 -0.062475484 -0.032364737 -0.10285722
-0.07722477 0.020574672 0.023981512 0.04205533 0.09790194 -0.03190844 -0.020251255 0.10929187
0.06527741 0.1203314 0.0033526 0.038351312 0.002148356 -0.07486324 -0.009179879 0.017753486
-0.0026878207 -0.09057315 0.040670283 0.08810675 -0.09709448 -0.06019795 0.04348508 0.046665013
0.07628322 -0.07882924 -0.082291424 -0.07975991 -0.028132787 0.030797718 -0.04393442 -0.04577452
0.10327564 -0.043123998 0.0532201 0.08532934 0.116618454 0.076429576 -0.08489259 -0.050748535
0.08021528 -0.0012797792 0.0558161 -0.1078569 -0.10336949 -0.098250836 0.08479373 0.12554699
-0.043215506 -0.048401568 0.093840726 -0.11029158 -0.042174485 0.031032633 0.04237099 -0.05971158
0.113384135 0.068594724 -0.07205326 0.051194474 0.092426136 0.006249394 -0.096591786 0.014759881
-0.09138976 0.06926946 0.08110664 0.043150906 -0.023796465 0.087241925 -0.049053486 0.09862085
-0.019998308 0.06250671 -0.022195403 0.074715294 -0.011427138 0.10738413 -0.023905838 0.029303664
0.09854582 0.10058818 0.039303333 -0.057762854 -0.08918375 -0.12443164 -0.09435926 0.029617373
-0.0068969843 -0.034895986 -0.056804545 -0.025648301 0.08225132 -0.02627081 -0.061563756 -0.07394429
0.014776555 -0.07290624 0.07148609 0.043174636 0.06077433 0.051881317 -0.08130242 -0.009344296
0.04150483 -0.07884988 -0.08812599 -0.050400916 -0.08575506 0.10415093 0.06793696 0.003762333
-0.12202079 0.031973947 0.071266375 -0.043851223 0.06928739 0.05909605 -0.02545588 0.06272363

Bi_Linear_list.1.bias f4 [64]
00000000: 3cb3 6ebd 40dc 9d3c d48d c5bd 7828 b2bd
00000010: df6a 8d3d 8006 3ebd ce3a 38bc 4b75 92bd
00000020: a77e 8f3d 3ba3 a2bd bfdc 28bd 64aa f6bc
00000030: 93f3 d33c 231e d93d e837 1a3d 7fea 03b8
00000040: 3c42 34bd a001 d3bc 9530 6a3c f176 c63d
00000050: 58dd b73d 39f3 ceba 90c2 da3d 4cdd c63b
00000060: f54e 913d f5c3 b33d 5942 19bd 7895 263c
00000070: 385a dc3d 1496 00be 2a25 60bc 8b32 b1bd
00000080: 6710 1ebd fe73 91bd b505 d23d 0cdf 803c
00000090: c0db b3bc 0894 903d 7b39 813d eb0b 683c
000000a0: a31d ad3d 96f9 9bbc 5a5d a9bd c932 e3bd
000000b0: 0eb0 8cbd 69a9 213d 77cd a2bd fa7a cabd
000000c0: 358a f9bd f070 ba3c e5d9 e23c ec29 9f3c
000000d0: 0eae cf3d ec45 bb3d 9651 383c 1d3c 203d
000000e0: 9b29 973c ae83 ae3d 261c b0bd 8221 aabd
000000f0: 9f73 fb3c daf1 913c a93b aabd 1577 913d
-0.0582764 0.019270062 -0.09646192 -0.08699125 0.0690515 -0.046392918 -0.011244489 -0.07151278
0.07006579 -0.0794129 -0.041226145 -0.030110545 0.025872981 0.10601451 0.037650973 -3.1451225e-05
-0.04400848 -0.02575761 0.014293809 0.09690655 0.08977765 -0.0015789039 0.10681641 0.006068861
0.07095138 0.0877761 -0.03741679 0.010167472 0.10759395 -0.1255725 -0.013680736 -0.086522184
-0.03858986 -0.07102202 0.10254995 0.015731357 -0.02195537 0.07059485 0.06309792 0.014162998
0.084529184 -0.01903991 -0.082697585 -0.11093671 -0.06869517 0.039468203 -0.079493456 -0.09886737
-0.12184564 0.02275893 0.02769179 0.01942917 0.1014062 0.09144196 0.01124992 0.03911983
0.018452456 0.0852121 -0.08599119 -0.08307172 0.03069478 0.01781552 -0.083121605 0.07102791

user_embedding.weight f4 [943, 64]
00000000: e204 0f3d 2c70 65bd be48 73bd 49be 10bd
00000010: 60db 773d 1a07 9ebd cc8c 40bd 52bd 803d
00000020: 6f06 363d 6702 783d a810 3abc ebb3 1bbd
00000030: f094 64bd 2066 acbc 8efe 883d f595 69bd
00000040: 6f9e 913d a1c5 8abd 0220 fd3c 053a 0a3d
00000050: 68d9 b1bc a369 713d ce13 9dbd 436f 0b3d
00000060: 4bcd 3dbd c50c e5bc 310b 6b3d 65a0 9fbc
00000070: 9a9f 86bd be41 3bbc 591e 6bbd fdad 993c
00000080: 6bb2 92bc 2083 833b fe31 19bd a36e 193c
00000090: 9fb4 74bd 59e5 f33c 4192 44bd 9dfd d43c
000000a0: 514d ecbc a650 cd3c 9e06 933c 832d d33c
000000b0: d389 483d 90ea f13c 146f 873d b8a7 773d
000000c0: 4dbe 40bd 9f86 93bd bdc1 f03c a2bf 25bd
000000d0: 6661 93bb aa1b 513d 052f cfbc 28d7 003c
000000e0: f484 733d 499a 94bd f66b 23bb bb38 7ebc
000000f0: 586c 8abc edd0 93bc 2e55 5e3d 2f62 fabc
00000100: f382 21bd 8e0c b2bc 8ce5 26bd f968 603c
00000110: 829b 6e3d 9eec c2bc dbc8 d8bc 0038 8c3c
00000120: d62a 8abd 32f9 bebc 8baa 1b3d b909 a1bc
00000130: 2507 ddbc 16b2 acbc 001a d63b 2006 cabc
00000140: 8cc5 96bd cd21 96bd deae 86bd 7ee0 043d
00000150: 4c42 3d3c 658d 063c 6c3f 9dbd 70af 44bd
00000160: a483 4bbd e4d3 053c 1fd5 253d 669b 84bd
00000170: 4b32 80bc e71e 04bd cb1a 71bd a882 703d
00000180: 3b4f d73c 3e85 333d f286 90bd 2fb4 da3c
00000190: 99dd 99bd 7401 8fbc 046d 833d 3663 babc
000001a0: 8766 943d d373 893c 4e4c 99bd 39e2 9a3b
000001b0: d113 3cbd 71f4 8bbd 2193 b63c ba4b 113d
000001c0: 08dc 0d3d 009a 853d 6a3b a03d aa1c 91bd
000001d0: 7fde 82bd 4def 0dbd f994 94bd 7583 343d
000001e0: cfb7 98ba 8fd4 1cbd e639 193d 2559 45bd
000001f0: 88ac 5a3d f8ef 583d 5322 8a3d ecda 8fbd
00000200: 031c 303d 7a19 563d 06a0 71bd c60f 5dbd
00000210: 8de2 d8bc 2da3 90bd 8395 de3c f98f 62bd
00000220: bb4e 8d3d c699 8dbd 16b1 9fbd 060c 133c
00000230: 285b 373d 89c2 70bd 6bcf 953c 12b9 3cbd
00000240: 53d4 61bd 318a 743d 659a 20bd b435 d1bc
00000250: 77fd 933d 95fe 673d ca63 8a3d 565f ba3c
00000260: 9058 0a3d c821 1abd 29ce cdba 7ca4 4cbd
00000270: e869 553d c808 94bd d2ae 3d3d 970b 7cbb
00000280: c9eb 8fbd 4538 b8bc c541 1dbd ddc7 26bc
00000290: 9760 073d 04ff fcbc 8a71 813d d837 0bbd
000002a0: 3ab1 54bc 3964 17bd 391b 3abc aa84 e7bc
000002b0: d642 6f3d 3bb1 553b 5d2b 30bd 7431 54bd
000002c0: 0ea4 43bd 880a 943d adf2 493d 3d40 9bbd
000002d0: 4f90 e23b cb0b 54bd 0c56 47bd 597f b53c
000002e0: 055f 543d 231c 10bd 8b66 36bc 84a9 723d
000002f0: 7dd5 243d 0994 3fbd 56a8 c4bc 1b57 68bd
00000300: f7b3 0ebc b3ac 8f3d f55e 253d e2b1 743d
00000310: 6d4b 5cbd 15b3 203d dfb8 cebc 4033 0bbd
00000320: b94e 8d3d f205 613c db60 80bd 458e 6e3d
00000330: e606 27bd 996b 5e3c 7016 99bd 3bf4 56bd
00000340: 4ac8 3e3c 4acc 5bbd b5c3 003d ba0c 82bd
00000350: 7a86 37bd 491c 94bb bf2a 67bd e3a9 233d
00000360: dd76 8fbd 46ae 3ebb 41d2 23bd 4e34 9abd
00000370: 1183 64bd e7e3 233d cf52 a0bd d308 95bd
00000380: 00d8 b5bb a34f cebc 294e 323c ebb8 5bbd
00000390: 4a9a 16bd ca62 873d bd9f dd3c 615b 1bbd
000003a0: 8182 533c 15c4 f1bc d5af a6bb e9f7 8abd
000003b0: f529 023c eb54 363d 446f 713d b0d3 a3bc
000003c0: 34f6 713d d5af e33b c122 4d3c 65c5 ae3a
000003d0: 294b 043c b496 6d3b f4d0 913d dce4 023d
000003e0: 8c45 24bd d1cc 223c c257 8b3d 7c03 6ebd
000003f0: 0234 45bd 0605 48bc 1b0e 1fbd 7032 903d
0.034916766 -0.05601518 -0.059395544 -0.03533772 0.060511947 -0.07716198 -0.047009274 0.0628611
0.04443973 0.060549166 -0.01135651 -0.03801338 -0.0558061 -0.02104479 0.066891775 -0.057027776
0.07110297 -0.06775976 0.030899052 0.033746738 -0.021710113 0.058938634 -0.07669793 0.034041654
-0.04633836 -0.02796019 0.05738372 -0.019485662 -0.0657341 -0.011429248 -0.05740199 0.018759722
-0.017907342 0.004013434 -0.037401192 0.009364757 -0.059742566 0.029772447 -0.04799104 0.025999838
-0.028845461 0.02506287 0.017947491 0.025778538 0.048959564 0.029530793 0.06612983 0.060462683
-0.047056485 -0.07203411 0.029389257 -0.04046596 -0.004497695 0.051051773 -0.025290975 0.007863797
0.059452966 -0.0725599 -0.0024936176 -0.015516455 -0.016897365 -0.01804396 0.054280452 -0.030564396
-0.039431524 -0.021734502 -0.040746257 0.013696902 0.058253773 -0.023794468 -0.026462963 0.017116547
-0.067464516 -0.023312185 0.03800444 -0.019657956 -0.026980946 -0.021081012 0.006533861 -0.024661124
-0.07361898 -0.07330666 -0.06576322 0.032440655 0.011551451 0.008212422 -0.076781124 -0.048018873
-0.04968609 0.008168194 0.04048645 -0.064749524 -0.015648982 -0.032256033 -0.058863442 0.058718354
0.026282897 0.04382824 -0.07056989 0.026697246 -0.075129695 -0.017456748 0.064172775 -0.022752386
0.07246118 0.016778862 -0.07485257 0.004726675 -0.045917336 -0.06833733 0.022286953 0.03547261
0.034633666 0.06523514 0.07823832 -0.07085545 -0.06390094 -0.034652043 -0.07254977 0.04407068
-0.0011651459 -0.03828865 0.037408732 -0.048180718 0.053387195 0.052963227 0.06744828 -0.07024178
0.042995464 0.05227039 -0.0589905 -0.05397012 -0.026475215 -0.07062373 0.027170902 -0.055313084
0.06899782 -0.069140956 -0.07797448 0.008975035 0.044764668 -0.058779273 0.018287381 -0.046074934
-0.05513413 0.059702102 -0.039209742 -0.025538303 0.07226079 0.056639273 0.067573145 0.022750538
0.033775866 -0.037629873 -0.0015701699 -0.049961552 0.052102953 -0.072282374 0.0463093 -0.0038459057
-0.07027394 -0.022487769 -0.0383928 -0.010179487 0.0330511 -0.03088332 0.06320484 -0.033988804
-0.012981707 -0.036960814 -0.011359029 -0.028261501 0.05841335 0.0032606858 -0.043010104 -0.051804975
-0.047763877 0.07228571 0.0493037 -0.07580612 0.0069141756 -0.05176906 -0.048666045 0.02215545
0.05184843 -0.035183083 -0.011132847 0.059243694 0.04024266 -0.046772037 -0.02400605 -0.056723695
-0.008709899 0.07015362 0.04037376 0.059739955 -0.05378287 0.039233286 -0.025234638 -0.033984423
0.06899781 0.013734328 -0.06268474 0.058241148 -0.040778063 0.013575458 -0.07474983 -0.05247901
0.011644432 -0.053661622 0.03143664 -0.06350084 -0.04480598 -0.0045199734 -0.05643725 0.03995694
-0.07005093 -0.0029095574 -0.039995436 -0.075295076 -0.055789057 0.040012266 -0.078282945 -0.07277074
-0.005549431 -0.025184458 0.010882893 -0.05364315 -0.036768235 0.066106394 0.027053708 -0.037928943
0.0129095325 -0.029512445 -0.005086879 -0.06785566 0.007944574 0.044514578 0.058944 -0.019998401
0.05907269 0.006948451 0.012520493 0.0013333975 0.00807456 0.0036253156 0.07119933 0.03195654
-0.040105388 0.009936527 0.06803848 -0.05810879 -0.0481453 -0.012208229 -0.03883181 0.0704087

item_embedding.weight f4 [1682, 64]
00000000: 4833 203d de66 cd3b feb2 7bbc 7dbb 95bb
00000010: 3fa0 80bb b3ad 8e3c 9fcf 433c 4d5f 333d
00000020: caac 373d 0138 8fbc eb04 56bd b260 25bd
00000030: 06fd 333d c165 3bbd a7e7 f73c 6d3f b5bc
00000040: d5c6 14bc 032e 9d3b 7a83 b7bc f78b a6bc
00000050: 0a3c 55bc 4a0b 153d dfaa a73c 2e5e 123c
00000060: 21a9 163d b669 dcbc 018f c83c 6e7f 323d
00000070: dbf1 d33c b7f8 f0bc 34c0 33bd 4eca ec3b
00000080: a032 6a3d ed99 283d 6f2c 2d3d 155a b43c
00000090: f8cb af3c 1d3a a13c 0b76 39bd f40e 043d
000000a0: 7895 8abc cee0 86bc 707c c53a c0e5 343d
000000b0: 1d4f 1abd 6146 34bd ad65 583d a895 1cbd
000000c0: ddce 24bd 1729 4abd 782a a33c 4a39 e3bc
000000d0: 8527 3cbd 05e9 c6bc 42af 153d d554 863c
000000e0: 2d5e b13b 72c8 343c 7b74 f13b 2e2b dabc
000000f0: fe6a b5bb efd3 14bd 9a85 cf3c d2af e13c
00000100: 6cb5 233d 2d9a ee3c 8421 903c 7ead 13bd
00000110: 0a2d da3c 5b01 a8bc 7979 47bd c033 71bd
00000120: 8be0 65bd e956 1cbc d592 fcbc 7841 623d
00000130: c50b 11bd f825 4b3c 05bb 153d 68b2 84bc
00000140: 5418 f93c 5e6d 213d 6f7f a33c 7f81 513c
00000150: be64 603c 0b55 013d e6c3 31bd 3cb9 cdbc
00000160: 9e71 28bd b6a3 d43c ddea 76bb f92c 6e3c
00000170: 0b38 05bd 2c21 8b3b b3b4 28bd 0f29 643d
00000180: 05c6 4f3c e099 223d d0b8 cb3c c4cc 7abc
00000190: 529c e0bc dd98 b0bc c8ca 51bd 2324 4c3d
000001a0: aede 0fbc 873a 593d f3f1 4bbd 2344 723b
000001b0: 7fbb 6dbd 5d8d 3d3d 44a1 c73c 1075 a73c
000001c0: a5c4 fabc b65f 89b9 ef1d f73c 9bb3 7cbc
000001d0: c1e9 2a3d 923a 37ba 3e39 0a3c 3255 ff3a
000001e0: 04a4 6ebd 33b0 413d 5347 223c 26b8 97bc
000001f0: e003 cbbc a106 fc3c 8e89 423c af5b 1d3d
00000200: f215 58bd a63a 493d 2352 0dbd 60ae 22bd
00000210: a70b e73b 585f f5bc 2189 04bd c478 e83c
00000220: de38 04bd 33e1 6bbd e4e4 2fbd 16f4 f4bb
00000230: 5028 a63b 47db 493d e446 603d 58b2 25bd
00000240: 4307 f0bc 8a91 e2bc ddcd 3a3c 80db 48bc
00000250: 60fa 5ebc d05f 743d 83c2 233d 4ea4 21bd
00000260: 64bc 003c 028f 4c3d 4149 39bd 7a93 ebbb
00000270: d67a a2bc 2e47 973c 6de1 b6bc 7fa1 463d
00000280: 3bda 41bc 82b5 0bbd 314d 30bd 2a14 95bc
00000290: 9b8b 7f3b e102 253d cd90 043c 3442 5abd
000002a0: 4f73 eb3c 26b7 e2bb be9a ee3c 3620 62bd
000002b0: d417 bbbb 534d 11bd 2da5 343d a0b9 df3b
000002c0: 7626 43bc 5e0a 583d ed37 4d3d 81e1 573c
000002d0: 079e 4dbd 09e0 883c 588e cc3c c6f3 dd3c
000002e0: 7637 613d bcad 46bd 493c 3b3c 940b 00bd
000002f0: 89eb bd3c ff44 eb3c c17c fb3c d9a6 253d
00000300: ef52 25bd ba63 4fbc aef9 f8bc 9cbb 10bd
00000310: c301 4ebd 6ed2 d9bc 15e2 35bd 878c f93a
00000320: d6e2 47bd e383 913c d685 1bbc 420f 6a3c
00000330: 9295 043c 28bd 5ebc 5d52 003d 746f 15bd
00000340: a7bd 913c a202 463d c44c de3c a810 2fbd
00000350: cd43 09bc cf54 5fbc 48a9 493d e5a0 d13c
00000360: 4e7a fabc 655c aabc 93be 43bd f0ab abbb
00000370: 12a9 e8bc dbed 633d 0ef9 443d ea67 4f3d
00000380: 0b1d fa3c 4cb3 0dbd beef 613d 839a 043c
00000390: 7d65 c43c b38c 14bc 18b9 833c 35fd cbbc
000003a0: daf2 a13c 52d9 353d 564c 46bd bfc8 9b3c
000003b0: 4abf c13c bb57 15bc 4b9a c0bc 77e0 df3c
000003c0: 9be0 f9bc 1894 0dbd 3380 b43b 39d9 c7bc
000003d0: 9240 c33c e648 3a3d 3911 08bd d198 d9bc
000003e0: b258 26bd c37b 2ebd 6b75 0e3d f52c 02bd
000003f0: e552 9ebb f52d 19bd 40a7 47bd 20ab 4bbc
0.039111406 0.0062683662 -0.015362499 -0.0045694695 -0.003925353 0.01741681 0.011951356 0.043792058
0.04484252 -0.01748276 -0.052250784 -0.04037542 0.043942474 -0.045751337 0.030261828 -0.02212497
-0.009080608 0.004796745 -0.02240156 -0.020330412 -0.013014803 0.03638772 0.02046722 0.008933587
0.036782388 -0.026905876 0.024482252 0.043578558 0.025872162 -0.029415471 -0.04388447 0.007226265
0.057177186 0.04116242 0.042278703 0.02201561 0.021459565 0.01968103 -0.04527859 0.032240823
-0.016916975 -0.016464617 0.0015066992 0.04416442 -0.037673105 -0.04401243 0.05283134 -0.03822866
-0.040236343 -0.049355593 0.019917712 -0.027737278 -0.045936126 -0.024281034 0.036544092 0.016397873
0.005412838 0.011034118 0.007368622 -0.026631918 -0.005536436 -0.036334928 0.02533226 0.027549658
0.03996794 0.029126251 0.017594106 -0.036054127 0.026632804 -0.020508459 -0.04869983 -0.058887243
-0.056122344 -0.009542205 -0.030831734 0.055238217 -0.035411615 0.012399189 0.03655531 -0.016198352
0.030407108 0.03941094 0.019958226 0.012787222 0.013695894 0.031575244 -0.043399714 -0.02511274
-0.04112398 0.02595697 -0.003767661 0.0145370895 -0.03252415 0.0042458978 -0.041187953 0.05570322
0.012681489 0.039697528 0.024868399 -0.015307609 -0.02741829 -0.021557266 -0.051218778 0.04983915
-0.008781118 0.05303433 -0.049791288 0.0036966882 -0.05804014 0.046277393 0.02436889 0.020441562
-0.030611346 -0.00026201986 0.03016564 -0.015423681 0.04172683 -0.00069896237 0.008436499 0.0019480346
-0.058261886 0.047287177 0.0099047 -0.018520426 -0.024782121 0.03076488 0.011873616 0.038417514
-0.052755304 0.049128197 -0.03450216 -0.03971708 0.0070509496 -0.02995269 -0.03235734 0.028377898
-0.032280795 -0.057587814 -0.042942896 -0.0074753864 0.0050707236 0.049281385 0.054755107 -0.040453285
-0.029300338 -0.027657289 0.011401621 -0.012259364 -0.013609499 0.059661686 0.039980423 -0.039463334
0.007857416 0.04994107 -0.045235876 -0.0071892114 -0.019833963 0.018466558 -0.022324288 0.04849386
-0.011831815 -0.034108646 -0.043042365 -0.018198092 0.0038993123 0.04028595 0.008091164 -0.053285792
0.028741507 -0.0069188057 0.029126521 -0.0552065 -0.0057096276 -0.035474133 0.044102836 0.006827548
-0.011911025 0.052744262 0.050102163 0.013176323 -0.050199535 0.01670839 0.024970219 0.02709378
0.054984532 -0.04850553 0.011427947 -0.03126104 0.023183601 0.028719423 0.030699136 0.04044232
-0.040362295 -0.012658054 -0.030392494 -0.03533517 -0.05029465 -0.026589599 -0.04440506 0.0019039073
-0.048800312 0.017763084 -0.009492358 0.014285864 0.008092301 -0.013594903 0.031328548 -0.036483243
0.017790629 0.048342355 0.027136214 -0.042740494 -0.008377981 -0.01363106 0.049233705 0.025589416
-0.030575898 -0.02079601 -0.047789168 -0.0052390024 -0.028400932 0.05564676 0.04808908 0.05063621
0.030531427 -0.03459482 0.055160277 0.008093479 0.023974175 -0.009066748 0.01607947 -0.024901012
0.019769121 0.044396706 -0.048412643 0.019016622 0.023650784 -0.009115155 -0.023511073 0.027328713
-0.030502608 -0.03456506 0.0055084466 -0.024395572 0.0238345 0.045479678 -0.03321955 -0.026562126
-0.04061193 -0.042598497 0.034779947 -0.031781156 -0.004831659 -0.037397344 -0.048743486 -0.012430936
