models/02112021_1920_ngcf_Movielens-100k.pt (torch, 741575 bytes, 10 tensors)

GC_Linear_list.0.weight f4 [64, 64]
00000000: 5596 8c3d a825 743d ff06 f53d 1ef7 02be
00000010: 92e1 a23d 0d33 d83d a75c 893d 84ea 01be
00000020: 5665 f33d 6a01 ddbd 8129 e3bd 05e3 3fbd
00000030: 8559 a63d 0f39 92bd 2010 043d 6715 f6bd
00000040: 0694 d63d c420 b1bd e6ba f1bd 4078 cb3d
00000050: aaa8 9cbc 6be8 ffbd 8e0c c93d 6ded d6bb
00000060: cb06 503d 473c a8bd 9bda fb3b c1e4 fbbc
00000070: 0d28 87bd 7402 a7bd e801 03be 1fdc 8e3d
00000080: fdb2 ba3d 2866 c53d 4fa6 b73d 552b 0cbd
00000090: 7483 33bd 58b3 18bd 6c21 91bd 7350 8abd
000000a0: 12e2 9d3c edaf 7e3d 49e5 6a3d 938e 2b3b
000000b0: f659 583d 797c a03c 17b0 d53c 5451 413d
000000c0: a62a 9d3d 15e9 bd3d 0a99 a33c 4744 4cbd
000000d0: f9c7 263c 60ae fbbd b537 ee3d d823 893d
000000e0: 010f 90bd 880a c1bd 82d0 f43d d580 b9bd
000000f0: 84b6 ee3d 015e 16bd 6881 fa3d 31dc 3c3d
00000100: bd46 01be 0df4 bb3d 4817 cabc 74f5 acbd
00000110: a7a9 ad3c 0f63 853d 3da9 f13d 051a d2bd
00000120: 86c7 72bc c908 41bd 7972 e7bd 37ce f8bd
00000130: e7ba b23d c88d 903c 9bbe e43d 010c aabb
00000140: 637c c33d 5788 98bd 68aa d83d bb04 6bbb
00000150: 16c9 c3bd dffc 853c 6fa2 ffbd 852b 01be
00000160: 5f85 703d 17b8 963c 9434 d33b ba79 e4bd
00000170: fcda 1bbb 7abb d43d 8823 31bc 314d be3d
00000180: bb17 aebd 5f20 df3d 5304 e63c a26d e1bc
00000190: 4d85 dfbd ae38 f4bd 8aa7 ce3c 5377 d63d
000001a0: e695 d83d a974 a2bd 4303 d53d ff49 ac3d
000001b0: 589c d23c 3e02 c03d b963 ef3d d3ea ebbd
000001c0: f9ab 023e 9b86 933d 12aa 183d d249 5cbd
000001d0: ad1c a03d f00a 17bd 7b51 03bc dec0 843c
000001e0: 0a8a c43d 1ed6 b33d 08f1 01bd 2788 01be
000001f0: d612 02bc 220d 4abd 4c43 913d 4fe7 d4bd
00000200: 9ae6 033e 1ec7 98bd 3464 c2bd 4dd9 2a3d
00000210: 7afe a03d 0a71 1a3b 293d 363d 49ad f1bd
00000220: 69b6 d5bc 5e0d 023d ddc4 38bd 17b6 d13d
00000230: d32c e0bc b4c3 d2bd b08d 133d 0787 83bd
00000240: 3f49 073d 62fa 0bbd 6332 c03d 16d8 31bc
00000250: 5b5b 723c 1fe9 56bd 51c6 eabd 0575 2fbd
00000260: bea5 d9bc fb1a a7bc f938 cdbd 0d06 4b3d
00000270: 5bab a93b d1fd 00be 2f0c 90bd 125d f8bd
00000280: 9d18 c13d 0588 a3bd 3f30 f0bc ef50 a4bd
00000290: 27de 873d 842c 8c3d 42b8 843d c0fb 57bd
000002a0: 372c ee3d a7cb 9e3d b155 3cbd 3270 993d
000002b0: 8589 173d 726c adbc 93f9 e23c 19b4 b4bc
000002c0: 6ea9 d23c 6fe0 c0bd e95e c2bd ed71 a3bd
000002d0: 4407 acbd b624 94bd c828 7d3d 9994 083d
000002e0: 2d0e ecbd 7923 3ebd 203b c03b f3e3 503d
000002f0: c10c 8bbd a318 0e3d 2cef 8dbd 1531 f5bd
00000300: 964d d03d 7746 6ebd 25c6 33bd 37a7 953d
00000310: 123a 9c3d a7c3 f63d 76f4 7a3d d4fc 72bc
00000320: 01b1 b2bd 2091 a0bd a591 103d d791 e6bd
00000330: 9f32 9e3d 1b95 833d 32ef ef3d 8a5e c93d
00000340: a09a ccbd 9af9 823d 1bcc 04be 1cfb fd3c
00000350: 9e6d afbd c6c5 2d3d 9385 7ebc 8300 abbd
00000360: 21c2 b8bc 4188 0cbc f447 30bd dcd5 dd3c
00000370: a373 5dbd dc44 dabd 9c1a a9bd dd2a e93c
00000380: 7a51 d5bc b64e e43d 373f 563d a105 aa3d
00000390: f18d efbc 0898 18bd 521c 9bbd 6ba2 2abc
000003a0: 5b21 6a3d f498 cfbd 17de 163c 6e35 d6bb
000003b0: 6648 5bbd 7806 8dbd 3892 94bd d757 babd
000003c0: 0835 aa3d 91a3 123b 2cd5 313d f881 a93c
000003d0: 5db3 dcbd 8f52 dc3d c8d0 d1bc d749 433d
000003e0: 2789 4fbc 28b4 d3bd 11c7 9fbd ca60 0a3d
000003f0: 559b 033e 6bf8 ffbd 2348 023d eba6 19bc
0.06864611 0.059606224 0.11964225 -0.1278958 0.079531804 0.10556612 0.06707125 -0.12687117
0.11884563 -0.10791285 -0.110919006 -0.046847362 0.08122543 -0.07139789 0.03224194 -0.12015801
0.10477452 -0.08648828 -0.11803226 0.09935045 -0.019123394 -0.12495502 0.09816848 -0.006559065
0.05078773 -0.08214622 0.007685972 -0.030748727 -0.06599436 -0.08154765 -0.12793696 0.069755785
0.091161706 0.096386254 0.08967268 -0.034221012 -0.043826535 -0.03728041 -0.07086453 -0.06753626
0.019272838 0.062179495 0.05734757 0.002617751 0.05282017 0.019590603 0.026084943 0.0471967
0.0767415 0.092729725 0.019970436 -0.0498698 0.010179513 -0.12289119 0.11631719 0.0669629
-0.07034112 -0.09425837 0.11953832 -0.09057776 0.11655906 -0.036710743 0.122317135 0.04610843
-0.12624641 0.09177408 -0.024669304 -0.08445254 0.02119906 0.065130346 0.11799858 -0.10258869
-0.014818078 -0.04712752 -0.11301131 -0.12148707 0.08727055 0.017645732 0.111691676 -0.0051894193
0.09545209 -0.0744788 0.105793774 -0.0035860974 -0.095598385 0.01635593 -0.124821536 -0.12614258
0.058720943 0.018398328 0.006445477 -0.1115603 -0.0023781648 0.10387321 -0.010811694 0.09292067
-0.0850062 0.10894846 0.028078234 -0.027518097 -0.10914097 -0.11924873 0.025226373 0.10471978
0.10575466 -0.079324074 0.10401013 0.08412551 0.025709316 0.09375428 0.116889425 -0.115193985
0.12760915 0.07203408 0.037271567 -0.053781338 0.078179695 -0.036875665 -0.008015032 0.016205247
0.09596641 0.08781074 -0.031724006 -0.12649594 -0.007939061 -0.04932893 0.07092914 -0.10395681
0.12880936 -0.074598536 -0.094917685 0.04171114 0.078610376 0.0023565912 0.04449192 -0.1180063
-0.026087957 0.03175103 -0.04510962 0.10239809 -0.027365124 -0.10291234 0.036023796 -0.06422239
0.033028837 -0.03417433 0.093846105 -0.010854742 0.014792289 -0.052468415 -0.11463607 -0.042836208
-0.02656829 -0.020398607 -0.10020632 0.049566317 0.005177898 -0.12596823 -0.07033574 -0.12127127
0.09428523 -0.07984928 -0.02931988 -0.08023249 0.06634169 0.06844428 0.06480457 -0.052730322
0.11629527 0.07753687 -0.04598016 0.07492103 0.036996383 -0.021169875 0.027706897 -0.022058534
0.025715556 -0.09417807 -0.09490759 -0.07980714 -0.08399823 -0.072335646 0.06180647 0.03334484
-0.11526141 -0.046420548 0.0058664232 0.05099864 -0.06789542 0.034691464 -0.06930384 -0.11972252
0.10171048 -0.05817267 -0.043890137 0.07307284 0.076282635 0.120490365 0.061268292 -0.014830787
-0.08725167 -0.078401804 0.035295147 -0.112582855 0.07724499 0.06424924 0.11715545 0.09832485
-0.0999043 0.06395264 -0.12968485 0.031003527 -0.0856583 0.04242494 -0.015534776 -0.08349707
-0.022553505 -0.008577407 -0.04303737 0.027079515 -0.054065358 -0.10657665 -0.082570285 0.028462822
-0.026039828 0.111478254 0.05230638 0.08301855 -0.029242488 -0.037254363 -0.07573761 -0.0104147
0.057160717 -0.10136595 0.009208224 -0.006537131 -0.05353584 -0.068859994 -0.072544515 -0.09098785
0.08310896 0.0022375325 0.043416187 0.020691857 -0.10776398 0.10757934 -0.02561225 0.04767784
-0.012666977 -0.103370965 -0.07801641 0.03378371 0.12852223 -0.12498554 0.031807076 -0.009378175

GC_Linear_list.0.bias f4 [64]
00000000: 3889 6c3d a8f1 2b3d 0e92 4a3d b8b7 4aba
00000010: bfd0 833d 1e93 6ebd fc2d 383d 2fac 003d
00000020: 6e23 6e3d 3a65 d03c 14f8 f6bc abe0 7b3d
00000030: ef98 e039 cdba 4dbd 5f78 4b3d 9746 39bd
00000040: f1e6 563c 33fd d13c 3adb f33d af10 a3bd
00000050: b3ef ddbd 0570 a13d a3b7 ccbd f14d 933c
00000060: 1e63 873d 085a c2bd a3a9 afbd 5861 dcbd
00000070: 88a9 02be 04ca 89bc ab10 cb3d 4e84 a6bd
00000080: ca2a b1bd 5e7b 02ba e381 523d f304 d8bd
00000090: 6447 8b3b 7f94 f3bd 963b 833d d3fe bdbd
000000a0: 2418 acbd eef0 febd 23e7 523d c7ae fd3d
000000b0: 1683 263c 0ef0 bcbd 6db5 903d 071c b3bd
000000c0: 450a aebd 63cc a9bd 031a ad3d 7d23 883c
000000d0: 8e58 85bc b97f ff3d 2fbc afbd f9e1 9d3d
000000e0: 47e8 bd3c 66e9 d43d 037d 8dba b97b bd3a
000000f0: bcfe a03c 91e1 d33d 54f4 8e3d b9dc 3c3d
0.05774805 0.04197851 0.049455695 -0.00077330647 0.064362995 -0.05824577 0.04496573 0.031414207
0.058139257 0.025438894 -0.03014759 0.061493557 0.00042838554 -0.050226975 0.04967534 -0.045233335
0.013116584 0.02563343 0.119070485 -0.079621665 -0.108367346 0.07882694 -0.099959634 0.017981501
0.06610702 -0.09489828 -0.085772775 -0.10760754 -0.12759984 -0.016819961 0.099152885 -0.08130704
-0.086507395 -0.00049774896 0.0513934 -0.10547819 0.004250454 -0.11893558 0.064078495 -0.092771195
-0.08403042 -0.124482974 0.05148996 0.12386852 0.010163089 -0.09225474 0.07065854 -0.0874558
-0.084980525 -0.08290937 0.08452227 0.016618485 -0.016277578 0.12475533 -0.08580815 0.077091165
0.023182048 0.1039608 -0.0010794703 0.0014456428 0.019652717 0.10345758 0.06980196 0.046108935

GC_Linear_list.1.weight f4 [64, 64]
00000000: 05e8 58bd c7b6 d9bd aae6 9fbc d091 dcbd
00000010: b556 7b3d 6916 dbbd d291 98bb fbcd 1dbc
00000020: d77f 933d 173d cabd c06d a73b ea1b 80bc
00000030: a9e1 81bc 69b5 dc3c f713 c73d b729 97bd
00000040: 1819 94bd 51a5 a6bd b73f cbbc 08f0 f23d
00000050: ae84 d23d c27c 93bd 5576 0f3d b19b b33c
00000060: a3f4 21bd 6c0e bfbd d7fd d4bd 1f05 f1bd
00000070: f827 e43d 7ea3 85bd d2dd cfbd 8380 f33c
00000080: 70e6 043d 8897 c13d e1d7 473d 2092 323d
00000090: 6799 c43c b16b 133d d345 133d 6c91 80bd
000000a0: 2843 6cbc 1a03 bcbc 274d 1e3c 0167 03be
000000b0: d580 cd3d 5a92 493d d87e 5b3a 05b9 593c
000000c0: df65 82bc 4446 cd3c eece 523c f725 473d
000000d0: d4e0 4bbd 31cb abbd 2c6a f1bd 6ac0 aebd
000000e0: a699 48bd 762e 61bd 3fbc 1e3d e9d1 b1bc
000000f0: e96c dbbd a5cc 7d3d 96c5 c3bc 0e06 bbbd
00000100: 51e6 3dbd b650 a93d 8d58 dabd 2dff ecbd
00000110: b5bc 7fbd 9961 88bd 967b 3dbd 124b e7bd
00000120: 6a2f c93d 1343 903d 61e0 b83c ce0c 88bd
00000130: 4293 d33d 9170 a63c 823f cc3d e51b 063e
00000140: fe4c 913c 40d2 99bd a1ac fe3d ff08 6cbc
00000150: 168d 593d 1b20 633c 4b08 c1bd 6266 9e3d
00000160: 376e 773d 666f a7bd 8430 e3bd f06a 683d
00000170: bace 0c3a 922d 023d 1e89 ad3c 4ae4 4cbc
00000180: a7b8 aabd 8784 99bd c845 8abc 686d 92bc
00000190: 489e 473d 6200 3ab8 ffa7 803d 8321 433d
000001a0: 3d58 883d 6d57 c83d 67b9 dbbd 34a7 3dbc
000001b0: e407 22bd 2981 f03c a323 97bd fe8b 24bd
000001c0: 7068 26bd ebb9 88bd 04c1 983d 2e61 b4bc
000001d0: ff3c b0bd cb94 dc3d 6515 5a3d 9bd4 213d
000001e0: 178a e73d 2eac bc3d 3128 da3d 1204 5e3d
000001f0: 90b9 72bc 1051 3c3d b442 b3bd 1c64 013e
00000200: 5755 3fbd 6556 eabd df19 86bc 1368 b3bc
00000210: a581 9abd 5938 0b3d 58c4 dc3d e6e9 8d3d
00000220: 07be ae3d e4b8 32bd d36b 9cbd 8802 adbd
00000230: 16fc f63d c2fa be3d 066a a9bd b803 e83d
00000240: f674 d1bd 81f7 21bd d429 d4bc 0485 133d
00000250: c2f6 693d fb36 993d e49b c83d 7cbe 4a3d
00000260: 6137 d93c 0ea4 3cba 7b25 a63c c551 e23d
00000270: cd7d b63c f86d 5b3d b10e b23d 136e b43d
00000280: 7fcf cfbd 7113 a8bd 72c8 cfbc a277 bf3d
00000290: c241 073d 7a30 163b 4555 9e3c c3b6 82bc
000002a0: 524b 9d3c d8d5 ab3b 3cb4 f63d c5ed 8e3c
000002b0: f1ee ae3d 6dd5 39bd 3020 7abd 9ccc 8b3d
000002c0: cd97 72bd 4382 d53d 2de0 61bd 9441 fa3d
000002d0: e363 c03d 0bb0 0cbd 1de3 603d db20 f1bc
000002e0: dab0 dfbc 21c5 c33c 5e04 f7bd 8907 a4bd
000002f0: 0121 cfbc ce24 21bc 8eeb febd 302b 53bd
00000300: 2685 573c a8a6 c6bd c8ff f63d 04e4 c13b
00000310: 5da6 9dbd 2aa3 eebd aeaf 89bc 3280 2d3d
00000320: 1087 75bd fe1c c73d a7e2 813c 6f05 20bc
00000330: c70e cbbb af58 d9bd ca2e fc3c 7b2f d93d
00000340: 8194 853d 123f 87bd 87a0 dd3d 6872 133c
00000350: dea1 863d 31e6 5b3d 29d7 053c 8a8d 8e3d
00000360: dfe3 6ebc 2ff7 123c c27e fa3c b5f7 1abd
00000370: 0720 7abc 3219 82bd ef0d 81bc 9076 c23d
00000380: d081 e03d c14d b23d 42eb 053d 78d5 47bd
00000390: dd48 fc3d 2eea 6fbd 7a9d e3bd 0929 e2bd
000003a0: 0d3d 9bbd 784d 98bd 159f cdbd cdde af3d
000003b0: 5465 913d 5ff4 3abb bb36 c93d 9254 95bc
000003c0: 5557 c5bd 3423 e03c 519c 293b c52c de3d
000003d0: 53b5 48bd 8c54 60bd 01ee 97bc 4940 d6bb
000003e0: d489 9a3d 0930 863d d50e 23ba 0587 ec3d
000003f0: 26b6 143d 5482 1abd 4191 5cbc 43ff a43d
-0.052955646 -0.10630565 -0.019519169 -0.10769999 0.061361987 -0.10697634 -0.004656055 -0.009631629
0.07202118 -0.09874933 0.0051095188 -0.01563831 -0.015854673 0.026941972 0.09720605 -0.07381003
-0.07231349 -0.08137 -0.024810655 0.118621886 0.10279213 -0.0720153 0.03502496 0.021924825
-0.039539944 -0.09328923 -0.103999786 -0.11768555 0.11140436 -0.06525324 -0.10149731 0.029724365
0.032446325 0.094527304 0.048789863 0.043596387 0.02399893 0.035991374 0.03595526 -0.06277737
-0.014420308 -0.022950698 0.009661949 -0.12832262 0.100343384 0.049211837 0.0008373088 0.013288741
-0.015917717 0.02505792 0.012866719 0.04862019 -0.04977496 -0.08388365 -0.11787829 -0.08532794
-0.048974656 -0.05497595 0.038753744 -0.021706538 -0.10714132 0.061962742 -0.023897927 -0.09132014
-0.046362225 0.082673475 -0.10661421 -0.115721084 -0.062435824 -0.0665924 -0.04626044 -0.112936154
0.09823497 0.070440434 0.02256793 -0.06643067 0.103308216 0.020317348 0.09973051 0.13096578
0.017736908 -0.07510805 0.1243527 -0.014406442 0.053113066 0.013862635 -0.0942541 0.07734372
0.060407843 -0.081755444 -0.11093238 0.05674261 0.0005371381 0.03178174 0.021183547 -0.0125056
-0.08336001 -0.07495981 -0.016878977 -0.017874435 0.048734933 -4.4346212e-05 0.06282043 0.04763938
0.06657455 0.097823 -0.10728722 -0.011575509 -0.039558306 0.029358463 -0.07379844 -0.04017257
-0.040626943 -0.06676086 0.0745869 -0.022018995 -0.08605384 0.107705675 0.05324306 0.039509397
0.113056354 0.09212528 0.10652197 0.0542031 -0.014814749 0.045975745 -0.08752957 0.12635845
-0.046712246 -0.1144226 -0.016369758 -0.021900212 -0.07544259 0.033989284 0.10779637 0.06929378
0.085323386 -0.043633357 -0.07637753 -0.084477484 0.120598 0.09325172 -0.082721755 0.11328834
-0.10227387 -0.03954268 -0.025898851 0.036015525 0.057120092 0.0748119 0.09795359 0.049498066
0.026515665 -0.0007196077 0.020281544 0.110507526 0.022276783 0.05357167 0.086942084 0.088100575
-0.101469986 -0.08206833 -0.025364134 0.0934899 0.033021696 0.0022917078 0.019327769 -0.015956288
0.019200955 0.005243998 0.12046096 0.017447362 0.08541668 -0.045369554 -0.061065853 0.068261355
-0.0592268 0.10425236 -0.05514543 0.12219539 0.09394052 -0.034347575 0.054904092 -0.029434612
-0.02730601 0.02389771 -0.1206138 -0.0800925 -0.025284292 -0.009835435 -0.12447272 -0.05155486
0.013154304 -0.09699756 0.12060505 0.005917074 -0.07697747 -0.11652215 -0.016807403 0.042358585
-0.05994326 0.09722327 0.015855147 -0.0097669205 -0.00619683 -0.10612618 0.03078403 0.10604759
0.065224655 -0.066038266 0.10821634 0.008999445 0.065738425 0.053686325 0.008168974 0.0696059
-0.014580696 0.008970066 0.030578021 -0.037833888 -0.015266425 -0.06352462 -0.015753714 0.0949527
0.1096226 0.08706237 0.032695062 -0.048787564 0.12318585 -0.05857294 -0.11114021 -0.11042983
-0.07580004 -0.07436651 -0.10040108 0.08587418 0.07099405 -0.0028527004 0.09824892 -0.018228803
-0.09635798 0.027360536 0.0025880525 0.10848383 -0.04900105 -0.05476813 -0.018546106 -0.006538425
0.0754582 0.06552131 -0.00062201667 0.115491904 0.036306523 -0.037721947 -0.013462366 0.080565

GC_Linear_list.1.bias f4 [64]
00000000: ce54 823d 7dcf b8bd 5e81 213d 2a42 a43d
00000010: 416f e5bb c6fb 913d 38e5 29bd 5bfc b93d
00000020: 8937 923c 044d 89bd 00ea 973d 714c ab3c
00000030: 47b0 f43a f6c2 dd3d d237 6ebd 4eaa c03d
00000040: 72f9 ba3c 7bc1 01be 39e7 d03d 5372 68bc
00000050: 4c06 b7bd c3c7 62bd 3d99 b53d 63eb b4bd
00000060: 382e 133d 2e32 83bc 5d24 c6bd 6ac6 a13d
00000070: a0bb e0bb 8ddd eb3d f8e1 a83d 3c47 523d
00000080: a78b 5d3c db71 2dbd 4ccc b1bd 0955 143c
00000090: 5b59 493d d13c 353d 88ea 973d 0865 863d
000000a0: 302e ccbd 1e45 e6bd 2687 c3bc cfd2 2fbd
000000b0: e2be 443d 84ff 493d ca3d 3c3d 8c3b f7bc
000000c0: aba9 b2bd 177f 9fbb 2394 b2bd ac6c c63d
000000d0: fcad b13b 6335 243d 1b8c a53d 165d 60bd
000000e0: de9c 713d c488 da3d 3b39 103d f6c1 2a3d
000000f0: 13e5 cd3d e06f ba3c 16f2 5abd 5409 41bd
0.063638315 -0.0902395 0.039430015 0.08020432 -0.007001788 0.071281 -0.041478366 0.09081336
0.017848747 -0.06704143 0.07417679 0.020910474 0.0018668257 0.108282015 -0.058158703 0.09407483
0.022824023 -0.12671463 0.10200352 -0.014187413 -0.08936748 -0.05536629 0.088671185 -0.08833959
0.03593275 -0.016015138 -0.096749045 0.078991726 -0.006858304 0.11516867 0.08246225 0.051337466
0.013522065 -0.04234491 -0.08681545 0.009053477 0.04915748 0.044247452 0.0741778 0.06562239
-0.09969747 -0.11243652 -0.023868155 -0.042925652 0.048033603 0.049315944 0.045957364 -0.030179761
-0.08723768 -0.004867445 -0.08719661 0.09688696 0.005422352 0.040089976 0.080833636 -0.054776274
0.05898749 0.10670617 0.03521083 0.04168888 0.10053458 0.022758424 -0.053453527 -0.047128037

Bi_Linear_list.0.weight f4 [64, 64]
00000000: d45a 9ebb 0174 0f3d 087f d3bd c8c0 f83c
00000010: 4f77 ae3d 43b3 2ebd 42dc 01bd 5e72 803d
00000020: 2a80 fbbd e6c4 573c 2e45 1abd 153d 46bc
00000030: d3c1 a33c 47ea d6bd 39ad aebd 92fc 74bd
00000040: 086b 70bd cffd 69bd 9d3b 9dbc 544c 703d
00000050: 28c7 663d 340c 6a3d 7451 2ebd d562 a03d
00000060: 653e 9b3c a880 ae3d 7abf 9fbd 514b aa3d
00000070: da87 b73d c6e8 403d 3a32 b8bd 8044 e23d
00000080: f92e 59bd facf 0a3d 7291 f6bd 034e e63d
00000090: 6744 5b3d 93b6 ecbd bcda 2c3d 95cc fbbd
000000a0: 4a95 58bd 18b8 f03d 1224 1c3d e031 383c
000000b0: 12ed b9bd a6c4 aabc fa5c 94bd 5afd 1ebd
000000c0: 7197 3d3d 6b03 c4bd 825f 03be 2fc1 113d
000000d0: 431e 2bbd 3892 1bba 0e9e 45bd 314e 3c3d
000000e0: 424a b03d 4faa 8d3d cb35 e63d 0474 cf3c
000000f0: 83ca babd d818 143d cd6f 473b eacf a43d
00000100: 7706 0bbd 1e99 af3d 4759 be3d 9570 153d
00000110: 59be d7bd 4ae3 bfbc 1553 a4bd 3922 b5bd
00000120: 7da4 b23c 691e 69bd 96bd 673c 0215 39bd
00000130: 7e67 0c3d 2559 cdbc eccc 5cbd 6ec1 8cbd
00000140: 70e4 e53a 4363 bd3c 957b 5ebc 3e9e 713c
00000150: bdef 21bd eb4c 4abd 7aa4 d5bd b705 903d
00000160: 1af5 57bd 7648 58bd 6cc8 f0bc 55b4 433b
00000170: dbb3 01be 6ba7 b93d 64cd 87bd c77a b8bd
00000180: 7d37 00be 381a 46bd 78dc ecbd 822e 6a3d
00000190: a4e1 e43d f292 02bd d9d0 c5bd ac4b 673d
000001a0: dc3d 4a3d dec5 cdbc 6a2b cc3d 2c65 fdbb
000001b0: 7171 ee3d f313 9bbc 56d9 e83b e634 45bd
000001c0: 68ae c2bd 09d4 423c 691f 773c aefb edbc
000001d0: a414 9ebd 447d f13d 4dc6 3f3c fd06 96bd
000001e0: a51a d93d c288 c2bd 1d0f 06bd 9195 d1bd
000001f0: 26dc 93bd c7d1 ef3d d661 01be 0338 733b
00000200: 9e30 32bd c4b8 963d d7ef d33d d500 ad3d
00000210: f3b3 f1bd 9e1f 113d 78dc 323d da06 5a3d
00000220: 2a65 cfbd 0d86 29bc 909b c9bd 35d8 e7bd
00000230: b44d 8b3c 2242 68bd bede 363d 930c 22bc
00000240: bee5 813c 5ba2 9ebd cd7c f9bc 2b1c 22bd
00000250: 364d f23d 08ac 0b3d 0d30 3dbd 63f2 e4bd
00000260: de55 e43d 6227 6a3d 7c2d d93c 3364 b5bd
00000270: 50e9 b0bd 11d0 3ebc 18b6 a33d 43e4 53bc
00000280: 6bb3 d0bd 1ca4 b3bd af84 543c a455 d43d
00000290: 73d0 a2bc 08de ccbd 1802 2a3d cfcf a53d
000002a0: 7f44 273c 76d0 d83d 1fea e33d 4b58 493d
000002b0: 8a81 5bbd b1fd 5bbd 5f81 f13c 7dea 2d3d
000002c0: 837c cebc f957 6f3c 45e6 b63c dd13 b9bd
000002d0: f430 c63c c357 74bd 9c57 893d 805d 75bc
000002e0: 5b62 ca3d 469b 9f3d e88e 90bd 50ea 4bbd
000002f0: d6a0 7fbd 0c98 e23d 85ba f0bd d232 47bb
00000300: c6fc d6bc 5da8 bcb9 a58c b4bd fe71 81bd
00000310: c9a7 903c 10ce f43d c75e 8c3d 7c50 cabd
00000320: e073 23bd d306 babc e80f fbbd 5971 13bd
00000330: f629 92bb a645 97bd 578d f9bd 48d5 afbd
00000340: 4f28 cebd b3a7 3d3d 0f91 253d 3ba3 bb3c
00000350: ea80 d4bd fd44 773d af16 733d c32f 0ebd
00000360: 388c 5e3d 0415 8ebd a2cf cebd 6337 83bd
00000370: 3774 f53d f3a6 8dbc 20a8 dbbc 1b1b f43b
00000380: 9916 d83c 3387 92bd 3928 dcbc 23a2 acbc
00000390: c702 b83d fde1 f3bd 6978 e83d 0811 e83d
000003a0: 441c 1b3c 9541 fabd 2b7c f83d 638b e8bc
000003b0: 2127 d73d c238 f83c 762f a6bc afe1 163a
000003c0: 277f d0bc 6a60 e23d 4bf0 533d d05d efbd
000003d0: eb77 7abd e4ae 513d 7a48 563b 64cb a8bd
000003e0: f7c2 2c3b 3156 b1bd fb5e 943c 52a2 08bc
000003f0: de0d bb3d b5b2 00bc 29d6 243c b13b 28bd
-0.004832605 0.03502274 -0.10326964 0.030365363 0.0851885 -0.042651426 -0.031704195 0.06271814
-0.12280305 0.013169503 -0.03766363 -0.012099524 0.019989884 -0.104939036 -0.08529133 -0.059811182
-0.058695823 -0.057126816 -0.019193465 0.058666542 0.056342274 0.057140544 -0.04255815 0.07831351
0.01895065 0.08520633 -0.07800193 0.08315147 0.089614585 0.04709699 -0.08993955 0.110482216
-0.053023312 0.03388975 -0.1203946 0.11245348 0.05353203 -0.11558261 0.04220079 -0.1229488
-0.05287675 0.11753863 0.038120337 0.01124236 -0.09078421 -0.020845722 -0.07244296 -0.038815834
0.046287004 -0.095709644 -0.12829402 0.035584625 -0.041776907 -0.0005934569 -0.048246436 0.045973007
0.086079136 0.069172494 0.11240729 0.025323875 -0.09120657 0.036156505 0.0030431629 0.08047469
-0.033941712 0.08574127 0.09294372 0.03648432 -0.10534353 -0.02342381 -0.08023659 -0.08844418
0.02180695 -0.056913767 0.014144322 -0.04518605 0.034278385 -0.025066921 -0.053906366 -0.06872831
0.0017539393 0.02311862 -0.013579269 0.0147472005 -0.039535273 -0.04938976 -0.10431762 0.0703234
-0.05272398 -0.05280348 -0.029392444 0.0029862125 -0.12666266 0.090651356 -0.06630972 -0.09007793
-0.12521167 -0.048364848 -0.115654886 0.05717326 0.1117585 -0.03187842 -0.09658975 0.05646865
0.0493754 -0.025118764 0.09969218 -0.007733008 0.11642731 -0.018930411 0.0071059866 -0.04814615
-0.095059216 0.011891373 0.015083172 -0.029050674 -0.07718781 0.11791471 0.011704993 -0.07325552
0.10600785 -0.09498741 -0.032729257 -0.10233606 -0.07219724 0.11709934 -0.12634978 0.0037112243
-0.043503396 0.0735946 0.1034848 0.08447424 -0.11801901 0.035430543 0.043667287 0.05322919
-0.101267174 -0.010346902 -0.09844124 -0.11320535 0.017004825 -0.056703694 0.044646017 -0.009890693
0.01585662 -0.077458106 -0.030455017 -0.039577644 0.11831133 0.03409961 -0.046188403 -0.11179044
0.1114919 0.057166465 0.026510946 -0.08857002 -0.08638251 -0.011646287 0.07993716 -0.01293284
-0.10190471 -0.08771536 0.012971087 0.10367897 -0.019874787 -0.100032866 0.041505903 0.08096277
0.010209202 0.10586636 0.111286394 0.04915647 -0.053590335 -0.053708736 0.029480634 0.042459954
-0.025205856 0.014608377 0.022326598 -0.09036992 0.024193265 -0.05965401 0.06706163 -0.014975905
0.09882041 0.07793288 -0.07058507 -0.049784005 -0.062409244 0.11064157 -0.11754326 -0.0030395282
-0.026243579 -0.00035983595 -0.08815888 -0.063205704 0.017658131 0.11953366 0.06854015 -0.098786324
-0.03990543 -0.022708332 -0.12258893 -0.03599677 -0.0044605685 -0.07386331 -0.121851616 -0.08585602
-0.10066282 0.04630251 0.04042154 0.022904983 -0.10376151 0.060368527 0.059347805 -0.034713518
0.05433294 -0.06937602 -0.100981966 -0.064070486 0.11985057 -0.017291522 -0.026813567 0.0074495203
0.026377963 -0.071546935 -0.026874648 -0.021073407 0.08984905 -0.11908338 0.113510914 0.113313735
0.009467188 -0.1221954 0.12133058 -0.028386777 0.1050551 0.030300502 -0.020286303 0.00057556754
-0.025451256 0.11053546 0.051742833 -0.11687815 -0.06114952 0.05119218 0.0032697008 -0.08241919
0.0026361325 -0.08659018 0.018111696 -0.008339481 0.09133504 -0.007855107 0.010060825 -0.04107255

Bi_Linear_list.0.bias f4 [64]
00000000: e987 fc3d e480 3fbc 82cf 7a3d 2c71 3abb
00000010: ec44 1bbd 2779 babd 825a 103d 7bcb 8e3c
00000020: ad5d 9bbd ac0c 3e3d 6ed9 7a3d 72da 4cbc
00000030: 2264 81bd 3362 9bba 0149 c5bc 6069 1b3c
00000040: d685 cc3d 198e c3bd d0f8 c93d 1192 cd3d
00000050: d444 473d 51d0 da3d bd14 43bd 71d2 903d
00000060: a394 56bd 2dc0 9a3d ea3e a13d 9065 de3d
00000070: daac 873c f2cd 6d3d 9dac 303d c7b0 13bc
00000080: 64f0 a1bd fba1 e93d 0089 e3bd daf1 243d
00000090: e8cb cd3d a1aa edbd f586 b93d 108f 0fbd
000000a0: 0aa4 9f3d dc9a 61bd 436d e43d 189b f13c
000000b0: 7d2e ba3d 0783 44bc 3d75 80bd c8c1 c43d
000000c0: 1d36 edbd b53c c3bd ac85 583d 398b db3d
000000d0: 8792 65bd 7bb1 b4bd 4d2f f43c 8536 583d
000000e0: 9bcd 4cbd 7751 973c b167 c83c 7c46 aa3d
000000f0: 72af 92bd ef66 b9bd 4965 0fbd b222 a63d
0.1233061 -0.011688445 0.06123305 -0.0028448803 -0.037907526 -0.09105139 0.035242565 0.017431011
-0.075862266 0.046398804 0.061242513 -0.012503253 -0.06317927 -0.0011854827 -0.024082663 0.009485573
0.09986465 -0.09548587 0.0986191 0.100376256 0.048649624 0.106842645 -0.0476272 0.070713885
-0.052387845 0.07556186 0.07873328 0.10859215 0.016561914 0.058057733 0.043133367 -0.009014315
-0.07907179 0.114078484 -0.11110115 0.04026971 0.10048658 -0.116048105 0.09058944 -0.035048544
0.0779496 -0.055079326 0.111536525 0.0294929 0.09090898 -0.01199413 -0.062723614 0.09607273
-0.11582587 -0.09533063 0.052861854 0.10719914 -0.056047942 -0.08822914 0.029807711 0.05278637
-0.05000077 0.018471463 0.024463506 0.08314225 -0.0716237 -0.09052836 -0.035008702 0.08112086

Bi_Linear_list.1.weight f4 [64, 64]
00000000: f2e4 27bd 30c3 e53d 5740 413c 2d96 163d
00000010: 8ae3 e7bc e57c 703d d139 db3d 6d11 c9bc
00000020: 515c ddbd d8d8 f13d 763d 3f3d 8ea3 593a
00000030: 11f1 e5bd be99 07bd a45b 01be d24c 3bbd
00000040: d94e a3bd 18b5 e93c dfa1 cc3d 104f be3c
00000050: ce8a 5a3d 030d a9bd aa9d 56bd a428 d9bd
00000060: aff2 d93d 7f1b de3b 90c6 903c 120e 223d
00000070: 2385 563d 1c73 f4bc b94a 99bc e21e 343d
00000080: 191e ba3c 3fca 4cbd e0aa a1bd 7903 1bbd
00000090: bc42 1dbd 81d1 c6bd 285a f6bc 53f6 c2bd
000000a0: 1641 bbbc d043 91bd 1914 6b3c 0d6d 43bc
000000b0: 7b92 e33d 2008 f83c a686 1f3d bcf1 96bd
000000c0: db49 e4bd 9f06 2c3d 5acd c7bd e73b babd
000000d0: e76b dabc 5d14 083d 2250 763d d246 023d
000000e0: 31d4 8abd 8d92 5dbd 6f97 243d 53f3 233d
000000f0: c7c3 11bd a319 3d3d 8692 3abd 094e 9f3d
00000100: f416 99bd 23df 99bd 5df7 23bd fc19 57bd
00000110: 6809 fc3c f5ed a0bd d5c6 34bb 3233 fc3d
00000120: 6161 a63d 3b9f 993d 74c8 1b3d f901 28bd
00000130: 0e0b 20bc 2dc9 edbd e8a9 8b3d 84b2 20bd
00000140: 7cd0 a4bd 71d1 cfba 8d03 ff3d e767 aebd
00000150: 4f94 6a3c a234 ce3b ae75 78bd e527 4c3d
00000160: 5af1 da3c 329a 8fbd 2980 9cbd b9f3 ddbd
00000170: ae25 c0bd 9c35 3cbd f55b 85bd 3314 5ebd
00000180: ea70 d43d 0a8a 6d3d b0e1 9fbd 8a68 60bd
00000190: d25f 923d 988f 0b3c 718d dbbc 9cf4 ff3d
000001a0: 2d6b 4e3d 03da acbd 90ef 7cbc 615f 763d
000001b0: 73e9 24bd 9353 66bd a667 f0bc dfd2 8c3d
000001c0: 57a5 e13c c022 17bd 9a71 393d 17c0 ea3d
000001d0: 6d90 693d aa44 8b3d 4f08 a3bd 6943 6dbd
000001e0: 2b81 11bd 073f fa3d 5052 d6bc eb2e eebd
000001f0: 6dc1 90bd add8 2e3d f4f9 3cbd 3c09 973d
00000200: 01f4 d83d 0a97 55bd b43d e3bc 115b 273d
00000210: f4c2 433d 091c 00bd 75ab 05bd 7e72 0b3d
00000220: a4c7 4a3c 9c92 693d d4ff 2e3c 1020 b7bc
00000230: 9f93 b03b fd51 eebc 9b9c 713d 5a5f ad3b
00000240: 567f 933d e942 753d e075 e83d f165 253d
00000250: 2484 bc3c acb8 62bc f6f7 3fbc debb 473d
00000260: 65d0 44bc 1bb9 e5bd 5e7b 6fbd a15f 00bd
00000270: cec6 e93d b5fa cc3d eff3 d9bd a603 a13d
00000280: 826d 7bbc 08f1 4d3d 69e9 4bbd 303a 7bbd
00000290: 3d0d af3c f8a4 793d e30b 863d 14f0 0bbd
000002a0: 2715 b53c c4d9 31bd 270a 953d 576c e53c
000002b0: 0904 d93c 2a43 563d ea67 453d 1679 40bd
000002c0: a718 743d 9d91 383d 7dc2 303c 7676 2a3d
000002d0: c9fb 803d be59 993d 849c e13d af0c ac3c
000002e0: 76e6 f73b 31ac cb3d 3104 6cbd 8de3 9a3d
000002f0: 0ba0 eebd 843b d33d 7817 a9bd 0779 d83d
00000300: f7cc f33c 8e88 acbd 0259 5d3d cea7 853a
00000310: 751b 29bd c262 f43b d3c6 323d 0753 c4bc
00000320: be07 3c3c 5f60 8fbd fb60 a13c 38ac fe3c
00000330: 09ce ec3d 830e 3dbd 7bf2 e73c 975f f53d
00000340: ea0b f4bd c91c ce3d e37e f43d b13c c63d
00000350: 8642 c63c f4f0 573d 3177 8dbc 162e fb3d
00000360: 0e7f 753d 7a61 ccbd 8d96 b7bd e66a bebc
00000370: ee45 633d 1fa6 d23d 4541 433d ca57 96bd
00000380: a006 fb3d dd56 393c 47fb ddbd cb7e 9dbd
00000390: f5d4 d73d d12d 813d 7dbc 663d 97fc 5ebb
000003a0: fab8 17bd eb30 8d3d dc14 3a3d fa13 e33c
000003b0: 7dcc 46bd 2164 3dbd 321f 9e3b b231 b43d
000003c0: fad5 c9bd 7340 443d 305e 65bd 188e 0dbd
000003d0: 49d0 a3bd 9052 93bc 5b26 a8bd e280 edbd
000003e0: b874 e53c 846d f23c 527f dfbd c83b c5bd
000003f0: ecc7 d7bd 5987 9e3c ebdf 373d 35a2 a6bc
-0.040989824 0.1121887 0.011795125 0.036764313 -0.028306741 0.05871286 0.10704387 -0.024544442
-0.108086236 0.11808938 0.046689473 0.00083022646 -0.112276204 -0.033105604 -0.12632614 -0.04572756
-0.07974023 0.028528735 0.09991812 0.02323106 0.05335503 -0.08254435 -0.052396454 -0.10603455
0.10641991 0.00677818 0.017672807 0.0395642 0.052373063 -0.029840045 -0.018712388 0.043974765
0.02271943 -0.049997564 -0.0789392 -0.03784511 -0.03839372 -0.097079284 -0.030072287 -0.09519639
-0.022858184 -0.07093012 0.014348053 -0.011927855 0.11111923 0.030277312 0.03894677 -0.07370326
-0.11146899 0.041998502 -0.097559646 -0.09093457 -0.02666278 0.033222545 0.060135014 0.03180582
-0.067787535 -0.05409484 0.04018348 0.040026974 -0.0355871 0.046167027 -0.045549892 0.07778556
-0.07475081 -0.07513263 -0.040030826 -0.052515015 0.030766204 -0.07857887 -0.0027584333 0.12314452
0.08124042 0.07501074 0.038032964 -0.041017506 -0.009768261 -0.11610637 0.068195164 -0.039232746
-0.08047578 -0.0015855265 0.12451849 -0.085159115 0.014317586 0.0062928954 -0.060659103 0.049842734
0.026726414 -0.07011832 -0.07641632 -0.10837502 -0.09382187 -0.045949563 -0.0651168 -0.054218482
0.10373099 0.057992972 -0.07806718 -0.054787196 0.071471825 0.008518122 -0.026800843 0.124978274
0.05039518 -0.0844002 -0.0154379755 0.060149554 -0.040261697 -0.056232046 -0.029346298 0.06876158
0.02754466 -0.036898375 0.045274355 0.114624195 0.0570225 0.06800206 -0.07960569 -0.057925615
-0.035523575 0.12219053 -0.026162297 -0.11630043 -0.07068143 0.042687107 -0.04613681 0.07374808
0.10593415 -0.052145995 -0.027739383 0.040858332 0.047793344 -0.031276736 -0.032634217 0.034044735
0.0123767 0.057024583 0.010681111 -0.022354156 0.0053886916 -0.02909183 0.05898724 0.005290908
0.07202022 0.059878264 0.11350608 0.040380422 0.023012228 -0.0138379745 -0.011716833 0.04876315
-0.012012576 -0.11216947 -0.05846726 -0.0313412 0.11414872 0.10008756 -0.1064223 0.07862024
-0.015345933 0.050278693 -0.049783144 -0.06133479 0.021368617 0.060948342 0.06545236 -0.034164503
0.022104813 -0.043420568 0.07277327 0.028005762 0.026491182 0.052310146 0.048194803 -0.046990477
0.059593823 0.045060743 0.010788557 0.04161688 0.06298024 0.0748782 0.11016181 0.021002142
0.007565315 0.09944952 -0.057621185 0.07562933 -0.116516195 0.10314086 -0.082564294 0.10569959
0.02976082 -0.08424483 0.054039963 0.0010197104 -0.04128595 0.007458062 0.043646645 -0.023965372
0.011476455 -0.07000803 0.019699564 0.03108798 0.115627356 -0.046156418 0.028313866 0.11981123
-0.11916335 0.10064084 0.11938264 0.09679545 0.024201643 0.052720025 -0.017268749 0.122646496
0.059935622 -0.0997953 -0.08964262 -0.023244333 0.055486612 0.10285591 0.047669668 -0.07340963
0.12257123 0.011312214 -0.10838943 -0.076901995 0.10538665 0.06307567 0.0563321 -0.0034025067
-0.03704164 0.06894096 0.04543005 0.027719487 -0.04853486 -0.04623807 0.004825496 0.08798541
-0.09855266 0.047913026 -0.055998027 -0.03455934 -0.079987116 -0.017983705 -0.08210441 -0.11596848
0.028009757 0.029593237 -0.10912956 -0.09630543 -0.10536179 0.019351648 0.04489128 -0.020341018

Bi_Linear_list.1.bias f4 [64]
00000000: a174 1fbd 82d2 ac3d aca4 c8bd 0794 6a3d
00000010: 8fce ddbd 354b 92bc dd2f a4bd f849 fa3c
00000020: 5506 6e3c a899 7cbc 34cc d8bd 8632 f43d
00000030: 671a 463d 2ae3 04bd 4053 253d 9600 e43d
00000040: 7df1 a5bd 6b6a 1c3d c26e 723d bcc2 b9bd
00000050: b4ce fbbc fd0f c0bd fe1c d0bd effa b5bd
00000060: e07b 72bd d0dd 85bc a065 ad3d 821b 32bd
00000070: 8015 cf3d 3157 9abd 3237 dd3d 4068 d5bb
00000080: a11a b13c b499 78bd 3e6a bbbd 93a1 f63c
00000090: 1d0f b1bd 80c1 46bd 5925 56bc 263d bf3c
000000a0: 5aa9 b0bd 44aa b8bc da92 e9bd 3209 853d
000000b0: 9789 1dbd d97f c3bc 1897 803d 4d59 d3bd
000000c0: 6723 03bd 8b59 dfbd 8737 e33d 2506 07bb
000000d0: 0dae 25bb 65c8 503b f9f9 ffbd af5a c5bc
000000e0: e01e fc3d 54c2 05bc 4da4 803d 5d40 8e3d
000000f0: 8fa7 8bbd 3b75 aebd f359 e83d cc8a a33d
-0.038929585 0.08438589 -0.09797034 0.057270076 -0.108304136 -0.017858127 -0.08016942 0.03055285
0.014527877 -0.015417494 -0.10585824 0.11923699 0.048365023 -0.032443203 0.040362597 0.11132924
-0.08102701 0.038187426 0.059187658 -0.09070346 -0.030738212 -0.093780495 -0.1016178 -0.088857524
-0.059200168 -0.01634112 0.08466649 -0.043483265 0.10111523 -0.07536162 0.10801543 -0.0065126717
0.021619143 -0.060693458 -0.091511235 0.030106341 -0.08645461 -0.04852438 -0.013070428 0.023344588
-0.08626051 -0.022542126 -0.11404963 0.064958945 -0.038461294 -0.023864673 0.06278819 -0.10319767
-0.032016184 -0.10905751 0.110945754 -0.0020603028 -0.0025280744 0.0031857726 -0.124988504 -0.024091093
0.123105764 -0.008164007 0.06281338 0.0694587 -0.06819069 -0.08518454 0.113452815 0.07985458

user_embedding.weight f4 [943, 64]
00000000: 9afc 933d ba34 92bd 960a 533c 412b 42bc
00000010: d2e7 953c ba91 4f3d e49f b6bb e7e7 ad3b
00000020: 2dcf ecbc 9093 08bd 87ea 343d 2494 043d
00000030: cae9 12bb 0ea7 9e3d f971 51bd 8ab9 81bc
00000040: fd80 21bd 8255 493d 8124 d3bc 6f65 6ebb
00000050: 0e91 263c e7b1 83bc d46c bc3c 9407 54bd
00000060: 8d7e 2fbd 0e8b febc f958 ddba 2a33 823c
00000070: 2cac b73b b956 433d fffc 013d edf5 873d
00000080: 6abd 1e3d 32d9 21bd dc51 983d ae31 6b3d
00000090: 8bd5 6abd 195c 7f3d 9f23 cabc 22ab 363d
000000a0: c719 2cbd 3700 96bb fff2 893d f39e 853d
000000b0: 9a3d eebc cf8d 953d a888 5f3d 4fd6 85bc
000000c0: 4ef2 9d3d 3bad 8c3d 79dc e63a 3750 e13b
000000d0: 0412 07bc 861a 85bc b24e 953d d47d 72bd
000000e0: c40e 03bc f3dc 97bd 3820 00bd f25d 85bd
000000f0: 182a cabc 4716 813d ade6 bbbb 52a0 473d
00000100: 1308 a6bc a86a 1e3c 6737 863d d6e8 83ba
00000110: de3a b0bb 6e67 363d b6a6 54bd 5588 91bd
00000120: aaa5 843d 013d 4a3d c05b 4f3d 63b5 363d
00000130: 022a 163c 8c2e ec3c b6c1 183d 8790 7dbd
00000140: c30a 9e3c 19f0 263d 586f 2e3d 8d17 50bd
00000150: d1fc 943d 8e58 00bc 7c42 27bd 3d13 00bd
00000160: c7ed 763c 56fa 7abd 1cfe 97bd 12af 24bd
00000170: b77c 003d 267c 993d f30f 763c f65b eabc
00000180: 5dd0 95bd 4bcc 85bd fae7 34bd ba4c 6a3d
00000190: 2d7a c73b 9d0c 88bc 3390 64bc ca6d f03c
000001a0: 75fb 5ebc 32ae 0ebd d7f8 68bd 07f8 afbc
000001b0: 4bfe de3c 6269 803d 42f0 1d3d c393 b03c
000001c0: 30a6 123d 7266 98bd c990 273c 8ecc 313d
000001d0: febf 113d 9ecb 873d 6a04 803d be82 e53c
000001e0: d996 4dbd 2a25 9a3d e558 23bb 0872 07bc
000001f0: 7bee 113c 89dc 9fbd ab50 7c3d e7e6 20bd
00000200: 8ffb 303c 0544 343d 3e4d 70bd b361 a9bc
00000210: b58c 733c f300 3d3d bd20 af3c b330 33bc
00000220: 585a 39bd 2793 973d d074 a6bc ee99 3d3d
00000230: 87b2 1cbd dd3d 1f3d 00ec e43c 0af3 063d
00000240: 1aa5 e7bc 241b 91bd d121 c6bc 56ae a33c
00000250: 50fd a33c 2505 943d 3909 a63c 59c6 623c
00000260: bd59 223c dbd7 b03c 8af9 91bd a88a 5dbd
00000270: 11e3 80bc c0b3 7dbd a1da 363b 7ebf d1ba
00000280: 7b9c 483d 9723 0bbd 6caf b0bb 72be 863c
00000290: 3c00 a2bc 5c3f ae3b 58b3 3dbd b144 0e3d
000002a0: 4dad 8ebd b7aa 8bbc 4fe0 f2bc 47f3 613d
000002b0: 9427 9a3d 755a 05bd 93c4 e8bc 36e7 903d
000002c0: 0797 5e3d 7937 023d 3502 17bd 2937 593d
000002d0: a571 7c3d 5222 803d e4e5 6d3d 293d 40bd
000002e0: 57a5 80bd 9d15 8cbd 634e 78bd 3819 03bd
000002f0: 2ff6 23bc be95 a7bc 5a4d cdbc 3bdf 91bd
00000300: 85ba 95bc bd5c 85bd f15f 34bd 9124 42bd
00000310: 4099 ad3c 7b20 653c 2707 aabc 790c 57bd
00000320: 5f16 113d bc47 19bd 22dd 8bb9 c657 da3b
00000330: 0918 3abd fb2d 9ebd 378c b7bc 06d7 2dbc
00000340: 2482 973d fb7c a93b b995 c93a 10ef 3a3d
00000350: 2f0c 073c 4585 4e3d 125c 533d 5295 82bd
00000360: f478 773c e2f0 3e3c 98c2 05bd 80b7 9a3c
00000370: 3acc e33c af0d 413d 4168 3dbd f4b4 823d
00000380: be5b b7bc 6168 833d 5cd8 313d 6a70 ac3c
00000390: b3ab 08bd 1982 943d 0a90 0e3d 71f5 1f3b
000003a0: e3aa 90bd a543 013c c584 a43c a92d bebc
000003b0: 700a 913c 366c 2cbd 28a5 f8bc 70bd 973d
000003c0: 43d6 6b3b 2996 853d 73a4 833d 5f9f 343d
000003d0: 2fe0 cf3c 9880 bbba 1fc4 15bd 10c5 1ebc
000003e0: 5cd2 94bc 6057 183d 50b0 81bd d766 123d
000003f0: 8b48 ed39 0648 8abd 25ae 75bd 078a 89bd
0.07225914 -0.07138963 0.012880942 -0.011851133 0.018299017 0.050676085 -0.0055732597 0.005307186
-0.028907383 -0.03334385 0.044168975 0.03236784 -0.0022417181 0.07746707 -0.051134083 -0.015835542
-0.039429653 0.049153812 -0.025774242 -0.0036376377 0.01016642 -0.016076041 0.023001112 -0.05176504
-0.042845298 -0.031072166 -0.0016887478 0.015893538 0.0056052413 0.047690127 0.031735417 0.066387035
0.038754858 -0.039513774 0.074374884 0.057420425 -0.057332557 0.06234369 -0.024675189 0.0445968
-0.04201677 -0.0045776623 0.06735801 0.06524458 -0.029082108 0.073024385 0.054573685 -0.016337542
0.077122316 0.068689786 0.0017613313 0.0068760174 -0.008244041 -0.016247999 0.072904006 -0.05920203
-0.007999126 -0.074151896 -0.031280726 -0.06512059 -0.024678275 0.06303077 -0.005734286 0.048736878
-0.020267522 0.0096689835 0.06553536 -0.0010063897 -0.0053781113 0.044532232 -0.0519168 -0.071060814
0.064769104 0.049374584 0.05062461 0.044606578 0.009165289 0.028830789 0.037294112 -0.06190541
0.019292241 0.04075632 0.042586654 -0.05080371 0.072747834 -0.007833613 -0.04083489 -0.031268347
0.015071339 -0.061273895 -0.074215144 -0.040206023 0.031368937 0.074943826 0.015018451 -0.028608304
-0.07315133 -0.065331064 -0.044166543 0.05720208 0.0060875625 -0.016607577 -0.013950395 0.029349227
-0.013609757 -0.034834094 -0.056877937 -0.021480573 0.027220866 0.062701 0.038559206 0.021554833
0.03580302 -0.07441415 0.010227391 0.04340797 0.03558349 0.06630634 0.06250842 0.028016444
-0.050192688 0.0752662 -0.0024924811 -0.008266933 0.008906956 -0.078057356 0.06160037 -0.039282706
0.010802164 0.04401018 -0.058667414 -0.02067647 0.01486509 0.046143483 0.021377916 -0.010936904
-0.045252174 0.07401114 -0.020319372 0.046289377 -0.038256194 0.038877357 0.027944565 0.032946624
-0.028276969 -0.07085255 -0.024186047 0.01998059 0.02001825 0.07227544 0.02026807 0.013841235
0.009909091 0.021587303 -0.07127674 -0.05408731 -0.015733274 -0.061939 0.002790131 -0.0016002504
0.048977356 -0.033969488 -0.0053920057 0.016448233 -0.019775502 0.0053176116 -0.046313614 0.034733478
-0.06966648 -0.017049177 -0.029647974 0.055163648 0.0752708 -0.03255697 -0.028414046 0.0707535
0.05434325 0.031791184 -0.03686734 0.05303112 0.061631817 0.06256546 0.05808057 -0.046933327
-0.06281536 -0.0684006 -0.06062163 -0.032006472 -0.010007425 -0.020457145 -0.025061298 -0.07122656
-0.018277416 -0.06511829 -0.04403681 -0.047398154 0.02119124 0.013984795 -0.020755364 -0.05250213
0.035421725 -0.037421927 -0.00026676903 0.0066632954 -0.045433078 -0.07723614 -0.022405727 -0.010610348
0.07397869 0.0051723695 0.0015379704 0.045638144 0.008242651 0.050420064 0.051601477 -0.06376137
0.015104521 0.011654111 -0.032656282 0.018886328 0.027807344 0.04713219 -0.046242002 0.0638217
-0.022382613 0.06416393 0.043419227 0.021049697 -0.03336687 0.07251377 0.034805335 0.002440777
-0.07063844 0.007889663 0.02008284 -0.023215132 0.017705172 -0.042095385 -0.03035219 0.07409179
0.0035985864 0.065227814 0.064278506 0.0440973 0.025375454 -0.0014305292 -0.03656399 -0.009690538
-0.018166713 0.037192702 -0.06332457 0.035742607 0.0004525821 -0.06752019 -0.05998053 -0.0671578

item_embedding.weight f4 [1682, 64]
00000000: 776d 9cbc abd6 56bb c63c 263d 92c8 80bc
00000010: 0149 0fbd 7169 663c 6282 2abd 35f6 25bd
00000020: 9f08 56bd 0d94 afb9 ce29 853c 55fa 4c3d
00000030: 77af 513d 300e 393b 818f 5a3d 17db c6bc
00000040: 64ee 523d 17c8 3ebc 2a41 ff3c af9f 59bc
00000050: 023d 653c 1c89 103d 4bd4 e93b 4cea 3a3d
00000060: a180 fcbb 51db 37bd 2a24 b5bc 4b49 2bbd
00000070: d1d2 babc 8035 9b3c 99a2 0ebd ff38 663d
00000080: b863 b93c 8eb8 6bbd 84b7 36bd 0886 293d
00000090: 1152 2e3d 9bab 3d3d d753 e23c 7e7d 14bc
000000a0: 8c69 48ba 1a65 bc3c c79c cd3b 807b 6dbd
000000b0: 61fc ff3c e810 a23c 8005 31bd 9eb0 69bd
000000c0: 993c 3cbd 0302 3f3c 8bf7 e43c 7746 153d
000000d0: 648c 3b3d 7de0 3cbd 7315 42bd d132 5dbd
000000e0: d2b7 483d 7884 b23b 50f0 25bd 8d59 e8bc
000000f0: d9dc 40bd b996 033d 1468 02bd 2fa7 6ebc
00000100: f26f 44bd 1d30 083d 2698 053c fbe4 6bbc
00000110: e362 cb3c 6708 6fbc 101b 22bd 5815 afb9
00000120: 660c 9a3c e73e 58bd 4801 48bd 6030 84bc
00000130: 834f b6bc e3b1 dd3c 2d43 cf3c ec0a 0cba
00000140: dba8 b0bc 0d9a 133d d439 19bb 7b1d 2fbb
00000150: bebd cbb8 3ca1 593d df51 aa3c bd86 6b3c
00000160: 00ef f4bc 066b f6bc 8444 a03c 94af 273c
00000170: e11e 343d bbbe cbbc 16af bdbc 0704 0ebc
00000180: cd0b 37bc 822d 133d e134 66bd 6cd1 9cbc
00000190: 677e 2bbc 3578 43bd c229 b4bc cb41 89bb
000001a0: 8707 203d f0de 5d3d d47c b93b 006b 653d
000001b0: 7824 4c3c 088a 16bc 7283 2a3d 6fdd d03c
000001c0: 0368 533d 34ee 41bc d8cf 4d3d fcb5 453c
000001d0: 0db6 cdba f35b c2bc c620 1e3d 5674 263d
000001e0: ba6b 1cbd 1197 363c 8707 53bc 496d 533d
000001f0: 5b16 653d 1cc6 5abd d67d e8bc 37e1 17bd
00000200: 8322 fbbb 80ae 18bd ac92 09bc aff7 cd3a
00000210: e455 d13c daeb 08bd 27e8 763c 8746 203c
00000220: a454 523d 73c1 c3bb 9f89 563d a4c2 5cbc
00000230: 7ad2 2d3d d0a9 09bd 22fd 423c b730 c2b9
00000240: dfa7 613d e208 40bd 401f 63bd d0ef 50bd
00000250: 53c9 e2bc 8a2b b0bc 2b71 383c 2d6d 4bbd
00000260: 6227 b5bc 02aa 593c f6d4 e2bc 89cb a1bc
00000270: 7b40 6fbd 7135 3c3d 607b dd3c 1278 e43c
00000280: 3951 44bc 98e8 1f3c 0e06 70bd 7379 083d
00000290: 0a7e 233d d2c4 1e3d 9da4 16bd 7d01 68bb
000002a0: 55ca 6c3d eaa1 a93c 8658 343d bb17 ac3b
000002b0: c63f 3d3d e7c7 913c 3b1a 91bc d6a6 46bc
000002c0: d06d e43c ecf6 acbb 06ff aebb 1849 12bd
000002d0: df9c 4dbc ad6e 613d 87a6 093d 6e47 043d
000002e0: 234c 23bd 087c 6f3a a70c c3bc 2758 59bc
000002f0: 9a04 063d 95b8 82bc ef44 333d df25 4dbd
00000300: 8b00 14bd bc81 6b3d 233c 8ebb e8ec 0cbd
00000310: da2e 15bb 411c 3fbd b453 dd3c f033 003c
00000320: ef88 cf3c 29e8 d43c 5155 4dbd 851f 2a3d
00000330: 0b7e 3e3a dafc 333d f464 c73c 67f9 5fbd
00000340: dccd d2bc c098 6b3d 275a 343d e58a ce3c
00000350: 5566 13bd 00a3 28bc a2f3 f1bc ae41 263c
00000360: e609 373d a893 2b3d e3ba a03c 8834 0fbc
00000370: 2340 12bd 4057 1cbd 363d 893c f1fe 63bd
00000380: 0d29 32bb 1702 873b c19e 2fbd a15d c43a
00000390: c9aa 51bd 132e af3a 281b 6f3d 08d3 fa3b
000003a0: 09e9 24bd 0c47 1ebb 40df 0637 8f08 e8bc
000003b0: 334f 373c b230 043d c588 363d a7b3 59bd
000003c0: 4737 da3c fe53 a2bb 671c 053c 233b edbc
000003d0: b4fb f0bc 31a1 35bc 7307 b53c 7de4 01bc
000003e0: c289 60bd d9b1 10bc d435 343d 830b 89bc
000003f0: 7ff7 2bbd 0de7 013c 0191 fcbc 728e 25bd
-0.019095166 -0.003278176 0.0405853 -0.01572064 -0.03498173 0.014063225 -0.04162825 -0.040518004
-0.052254315 -0.00033488908 0.016255286 0.050043423 0.051192727 0.0028237216 0.053359512 -0.024274392
0.05149688 -0.011644385 0.031159002 -0.0132827 0.013991596 0.035287008 0.007135903 0.0456336
-0.0077057634 -0.04488689 -0.02211197 -0.041817944 -0.022805603 0.01894641 -0.034823034 0.0562067
0.022630557 -0.057549052 -0.044608608 0.041387588 0.042558733 0.046306234 0.027627869 -0.009063123
-0.0007645122 0.022997428 0.006274793 -0.057979107 0.031248273 0.019783452 -0.043218136 -0.0570532
-0.045956228 0.0116581945 0.027950069 0.036444154 0.045788184 -0.046112526 -0.047383737 -0.05400354
0.04900343 0.0054479204 -0.040512383 -0.028363014 -0.047085617 0.032126162 -0.031837538 -0.014566227
-0.047958322 0.03324901 0.008153951 -0.014397855 0.024827426 -0.014589406 -0.03957659 -0.00033394503
0.01880474 -0.052794363 -0.048829347 -0.016136348 -0.022254711 0.027062362 0.025300587 -0.00053422037
-0.021564892 0.036035586 -0.0023380416 -0.0026720453 -9.7151365e-05 0.05313228 0.020790992 0.014375386
-0.02989912 -0.03008033 0.01956392 0.010234732 0.04397476 -0.02487122 -0.023154777 -0.008667952
-0.011172247 0.03593207 -0.056202773 -0.019142829 -0.010467148 -0.04772206 -0.021992568 -0.0041887513
0.03906968 0.054167688 0.0056606326 0.056010246 0.012459867 -0.009188183 0.041629262 0.025496213
0.051612865 -0.011836577 0.050247043 0.012067314 -0.0015694514 -0.023725485 0.038605474 0.04063829
-0.038188674 0.0111444155 -0.012880213 0.051617894 0.055929523 -0.053411588 -0.028380316 -0.037080016
-0.007664026 -0.03727579 -0.008396786 0.0015714074 0.025553651 -0.03342805 0.015069998 0.00978244
0.05135025 -0.0059739887 0.05237734 -0.01347414 0.042437054 -0.03360921 0.011901172 -0.0003703886
0.055091735 -0.04688347 -0.055449724 -0.051009953 -0.02768389 -0.021505136 0.01125745 -0.049664665
-0.022113506 0.013285162 -0.027689438 -0.019750373 -0.058411103 0.045949403 0.027036369 0.027889285
-0.011982256 0.0097600445 -0.058599524 0.033318948 0.039915122 0.03876192 -0.03677808 -0.0035401278
0.057810146 0.02070709 0.044029735 0.0052518523 0.046203397 0.017795516 -0.017712703 -0.012124738
0.027884394 -0.005278459 -0.0053404598 -0.03571424 -0.012549608 0.05503719 0.03360608 0.032294683
-0.03986753 0.00091356086 -0.023809744 -0.013265646 0.032719232 -0.015957156 0.043766912 -0.050084945
-0.03613333 0.05749677 -0.004340665 -0.03440562 -0.0022763521 -0.046657804 0.027017452 0.007824883
0.02533385 0.025989609 -0.050130192 0.041533966 0.00072667067 0.04394231 0.02434013 -0.054681208
-0.025732927 0.05751872 0.04403129 0.025212714 -0.035986263 -0.0102927685 -0.029535118 0.010147495
0.044687174 0.041888863 0.019620365 -0.008740552 -0.035705697 -0.038169146 0.01675282 -0.055663053
-0.0027185113 0.004120122 -0.04287601 0.0014981517 -0.051188264 0.0013365172 0.058375508 0.0076545514
-0.040261302 -0.0024151234 8.039002e-06 -0.028324394 0.011188316 0.032273002 0.044564027 -0.053149845
0.026637686 -0.0049538603 0.008124447 -0.028958863 -0.029416896 -0.011085794 0.022098279 -0.007928011
-0.054818876 -0.008831465 0.043996647 -0.016729122 -0.041984078 0.007928622 -0.030830862 -0.04041905
