models/09112021_2326_mf_Movielens-100k.pt (torch, 673127 bytes, 2 tensors)

user_embedding.weight f4 [943, 64]
000000 6a 3a 81 bd 1b dc 9a bc 98 1c 71 3d 78 ad 07 3c
       -0.0630997 -0.018903783 0.05886516 0.008281104
000010 ef cd 28 3d 32 99 9b bd 6c 01 84 3d d1 09 c2 3c
       0.04121202 -0.07597579 0.06445584 0.023686321
000020 55 46 68 3d 5b 5f 33 3d 67 5d 93 bc 59 79 8f 3d
       0.0567077 0.04379211 -0.017988874 0.07005567
000030 38 ae 9f 3c a6 52 7d 3d 8f 35 53 3d 15 2d bf bc
       0.019492254 0.061846398 0.05156475 -0.023336926
000040 24 49 28 3d 13 30 9b 3b 71 28 93 3d 3a 89 b0 3c
       0.041085377 0.0047359555 0.07185448 0.02154981
000050 c2 8e 6f bd dc e9 9a bd a4 46 b1 bc 63 08 c8 3b
       -0.058485754 -0.075641364 -0.02164013 0.0061045154
000060 59 ae 80 3d e4 9a 7b bd a4 46 92 3d 3f 2c 57 bd
       0.06283254 -0.061427012 0.0714238 -0.05253243
000070 44 1f 24 3c c3 35 de 3c 9e 93 ce 3c 03 3a 21 bd
       0.01001722 0.027125245 0.025216874 -0.039361965
000080 87 9d 9b 3d 30 15 0d bd 70 21 1c 3d dc 2e 71 3d
       0.07598405 -0.034444034 0.038117826 0.05888258
000090 73 a1 f6 3c 90 1a 91 bd b4 ae 5b bd fd 1b a9 3c
       0.030106282 -0.070851445 -0.053633407 0.020643229
0000a0 5d 6e 9a bd 24 92 97 3d 30 45 8d bd fe a7 7e bc
       -0.075405814 0.07400921 -0.06897962 -0.015542982
0000b0 96 36 95 3d e8 f9 87 bd c4 76 85 bc fc ad 72 3d
       0.07285802 -0.06639463 -0.016291983 0.059247956
0000c0 a3 29 e4 bc a2 e1 80 3d 2f eb 84 3d a9 74 73 bd
       -0.027851885 0.06293036 0.0649017 -0.059437428
0000d0 0f 5f 12 bd d0 c3 45 3d 34 9f 48 3c 1e ef 8f 3d
       -0.035735186 0.048282444 0.012244988 0.0702803
0000e0 b6 29 fb 3c 73 94 9a bd df 51 88 3d 45 c3 99 bd
       0.030659538 -0.07547846 0.06656241 -0.07507948
0000f0 be f9 23 3d ff d4 6e 3d 32 90 ac 3c 55 5d 6d bd
       0.040033095 0.058308598 0.021064851 -0.057950336
000100 52 60 9a 3d fe d7 0f bc 6c 38 96 bd a6 bd 0c 3d
       0.07537903 -0.008779524 -0.0733498 0.03436055
000110 e9 a6 97 3d dc 44 fd bc c0 85 52 3d c2 7c 63 3d
       0.074048825 -0.030916624 0.051397085 0.0555389
000120 3d 51 17 bd af 0d b8 3b 38 40 d5 3a ec b9 51 bd
       -0.03694271 0.0056168656 0.0016269749 -0.0512027
000130 c1 67 69 bb c8 aa a5 bb db 9a 35 bd cd 99 a9 bc
       -0.003561482 -0.005055759 -0.044337135 -0.02070322
000140 e5 45 9c 3d 7a ff 8b 3c 3f 0b 39 bd 68 c6 5d 3c
       0.07630519 0.017089594 -0.04517674 0.013536073
000150 01 af 2b bd e2 ee d0 3c 75 2d 93 3c 63 16 ac bc
       -0.041914944 0.025504533 0.017966012 -0.021006769
000160 2d 35 58 bd 60 1c 94 3d d6 6a 81 bd 29 7e f6 3b
       -0.052785087 0.072319746 -0.063192055 0.0075223637
000170 d5 3d 4f bc b4 c9 58 3b 63 56 99 3d a4 93 30 bd
       -0.012649019 0.0033079209 0.0748718 -0.04310955
000180 ba 84 99 3d 58 90 6d 3b fb 27 2c bd 84 c9 86 bd
       0.07496019 0.0036249366 -0.042030316 -0.06581405
000190 1d 80 fa b9 ea 8e 1d 3d ac 63 91 bd 4f 01 18 bd
       -0.00047779168 0.03846637 -0.07099089 -0.037110623
0001a0 49 d3 01 bc ca 37 98 3d 9b 1b 91 bc d7 bc ef 3c
       -0.007923909 0.07432516 -0.017713359 0.02926485
0001b0 94 9d 83 3d 86 2a 57 3d 5b db 02 3d 4a 4d 59 3d
       0.0642654 0.052530788 0.031947475 0.053052224
0001c0 b8 12 d4 3c 60 83 2f bd 30 d6 06 3d 19 52 a1 3c
       0.025887832 -0.0428499 0.03291911 0.019692468
0001d0 97 6e 2b b9 3e 3e aa bb 07 12 28 bb fb c7 88 bd
       -0.00016349029 -0.005195408 -0.002564551 -0.06678768
0001e0 5c 99 10 3d bc 92 82 bd c2 eb 80 bd fd d6 10 bd
       0.035302505 -0.063756436 -0.06294967 -0.03536128
0001f0 5d e6 42 bd 37 84 6e 3d 71 47 a5 bb 92 e8 18 bd
       -0.047582973 0.05823156 -0.005043917 -0.03733117
000200 d7 1f f4 bc f5 af 7e 3c 1d 1d 6a 3d a4 12 1b 3a
       -0.029800339 0.015544881 0.05715667 0.00059155584
000210 c4 ff 80 3d d9 8f 86 3d e7 f3 63 3d 92 40 90 3d
       0.062987834 0.065704055 0.055652525 0.07043566
000220 ee a1 80 bd 8b 9a 95 bd 5f 24 52 3d 88 92 03 bd
       -0.06280886 -0.07304867 0.051304217 -0.032122165
000230 db eb 82 bd bb c4 22 3d 68 34 b9 bc 5c 83 03 ba
       -0.06392642 0.039738398 -0.022607997 -0.00050168275
000240 a1 64 19 3d b8 88 6d 3d fb 59 d3 bc 41 d4 63 bd
       0.037449483 0.057991713 -0.025799742 -0.055622343
000250 f3 17 89 bd 60 c3 80 3d bc 3c 37 3d 07 23 8c 3d
       -0.06694021 0.06287265 0.044735655 0.068426184
000260 4b 3e 8c bd e7 8f 24 3d 2a bc be bc aa 52 00 bd
       -0.06847819 0.0401763 -0.023283083 -0.031328835
000270 41 28 5d bc 37 3e 70 bd 98 8f 78 bd 87 68 71 bd
       -0.013498367 -0.058653083 -0.060683817 -0.058937576
000280 38 21 9c 3d d4 55 a8 3c 47 40 67 3d 36 88 5f 3d
       0.076235235 0.020548739 0.056457784 0.05457326
000290 8f 85 2b bd c2 a5 fa bc ba 85 e6 bc d1 e7 66 3d
       -0.04187542 -0.030596618 -0.028139938 0.05637342
0002a0 f6 30 cb bc 19 d7 65 bd 98 a0 30 3d af 11 64 3d
       -0.02480362 -0.056113336 0.043121904 0.055680927
0002b0 30 5d 24 3d 73 43 74 3d 6d 4a e0 3c d4 24 3f bd
       0.040127933 0.059634637 0.027379239 -0.04666598
0002c0 95 93 9d 3d 9b bb 69 3b 19 58 18 bc 60 cc bd bc
       0.07694165 0.00356648 -0.009298348 -0.023168743
0002d0 bd b8 92 3d 0c c3 eb 3c 9c ea e8 bc 96 93 fd 3c
       0.07164142 0.028779529 -0.028432183 0.030954164
0002e0 c8 3f 9b bd 65 88 1e 3d 3a a3 e7 3c 06 e5 57 3d
       -0.07580525 0.038704295 0.028276075 0.05270865
0002f0 79 c2 61 3d 92 48 33 3c 77 d2 45 3d 52 68 12 3d
       0.055117104 0.010942595 0.048296418 0.03574402
000300 ec 80 83 bc 9a 8d 90 3c 88 90 f3 bc ab 50 8e bd
       -0.016052686 0.017645646 -0.029732004 -0.0694898
000310 81 56 88 bc 9c b2 3a 3c 2c af 6e bd 78 b1 b8 ba
       -0.01664281 0.011395123 -0.058272526 -0.0014090976
000320 ea 4c 4c bd 50 e5 53 bb fa 8b 40 bb 74 73 09 3d
       -0.04987804 -0.0032332726 -0.0029380308 0.03355737
000330 94 50 8d bd 97 a1 68 bd b2 47 bd bb 0e 40 83 bc
       -0.06900135 -0.05679473 -0.005776369 -0.016021755
000340 e5 0b 24 bd f8 99 0d 3c 10 f4 0a bd 65 f7 f2 3c
       -0.040050406 0.008642666 -0.033924162 0.029658983
000350 d6 87 bb 3c 38 89 2d 3d 73 a4 6a bd 9d ba 9e 3d
       0.02289192 0.04236719 -0.057285737 0.077504374
000360 8e 61 04 3c 04 70 bb 38 1e aa 74 3d 32 2a 33 3d
       0.0080798995 8.9377194e-05 0.05973255 0.043741412
000370 8d 7d 7a bd 48 c1 9b 3c f6 fd b3 3b 77 81 3d 3c
       -0.06115489 0.019013062 0.005492921 0.011566511
000380 1e 68 be 3c 21 44 08 3d c7 27 96 3d c0 9e f2 3b
       0.023243006 0.033268098 0.07331806 0.0074041784
000390 75 15 89 bc 7a 82 3c bb 31 e4 37 3d df f1 53 bd
       -0.016733864 -0.0028764294 0.044895355 -0.051744338
0003a0 65 6e 94 3d a2 91 3c 3c c9 e4 b7 bc ab 28 9c bb
       0.072476186 0.011509331 -0.02244796 -0.00476559
0003b0 fa c0 94 bd 26 41 ff 3c ee bd 89 3d 79 b2 92 3c
       -0.0726337 0.031158995 0.06725679 0.017907368
0003c0 06 f0 ed 3c 91 26 90 bd d8 c0 14 bc 8a 55 8b bd
       0.029045116 -0.07038606 -0.009079181 -0.06803425
0003d0 84 1f 65 3d c8 87 51 bc 5c 2b 9e bd 18 7a 86 bd
       0.05593826 -0.01278872 -0.07723114 -0.06566256
0003e0 c9 95 6f bd 5f 7a 26 3b b3 3b 62 3c 5c 1f 81 3d
       -0.058492456 0.0025402529 0.013808179 0.063048095
0003f0 79 9a 8a bd bf 6f 8f bd af 98 57 bd 45 27 91 3d
       -0.067677446 -0.07003736 -0.052635845 0.07087568

item_embedding.weight f4 [1682, 64]
000000 f7 f5 a3 3c 25 e6 25 bd 36 92 80 bc 2e 72 c0 3c
       0.020014746 -0.040502686 -0.015694719 0.023491945
000010 90 c7 64 bb 2a 2b aa bc 08 00 4c 3d 61 c2 54 bd
       -0.0034908988 -0.020772535 0.049804717 -0.051943187
000020 b6 16 b4 3b e6 e9 8b bc b8 5a 4c 3d be cd 0e bd
       0.0054958714 -0.017079305 0.049891204 -0.03486418
000030 d8 f3 56 3d 9d 40 9e 3c 1a 22 01 bd 9b ee 75 bc
       0.05247864 0.01931792 -0.031526662 -0.015010501
000040 da 95 71 bd 67 d3 00 bc f6 57 e2 bc 2d 48 29 bd
       -0.0589808 -0.007862902 -0.027629834 -0.041328598
000050 37 6e 00 bd c1 d8 4d 3d 73 84 94 3b c7 3b 2d 3d
       -0.03135511 0.05025554 0.0045323907 0.042293336
000060 e9 0f 63 bd e6 e7 e6 3c d3 86 88 3b af 37 e1 3c
       -0.055435095 0.02818675 0.004166463 0.027492372
000070 af e0 21 bc 75 ad 41 3d 2d a8 72 3d 14 b1 65 bc
       -0.009880229 0.047284562 0.059242416 -0.0140192695
000080 61 f4 fc 3c 55 72 1f bd d5 80 2e bc ed 43 cb bc
       0.030878248 -0.038927395 -0.010650833 -0.024812663
000090 91 db 29 bd f5 b2 08 3d 5d ef 20 bc 15 e7 a5 3c
       -0.04146916 0.03337379 -0.009822694 0.02025179
0000a0 95 db 35 ba d8 ee 38 bd 1c 8f 3a bd 59 d0 8b 3c
       -0.00069373223 -0.045149654 -0.045546636 0.017067121
0000b0 cc b6 57 3d 49 20 a8 3b 77 79 c3 3c 07 78 1e bb
       0.052664563 0.005130802 0.02386163 -0.0024180429
0000c0 ea 08 be 3c 0c ff 0a bd a7 2e 69 3c 39 71 a7 bb
       0.02319761 -0.033934638 0.014232314 -0.0051099327
0000d0 08 62 3c bd 72 3a e9 bc d8 c9 4c bd 75 02 95 bc
       -0.045991927 -0.028470252 -0.04999718 -0.018189648
0000e0 b3 99 5c 3d 06 30 34 3b be c9 48 bd f9 3c d4 3c
       0.053857516 0.0027494445 -0.04902052 0.02590798
0000f0 2b 67 1b bb 8a f3 32 3d 78 2c 36 bc db a2 0f bd
       -0.0023712616 0.04368929 -0.011119001 -0.03506742
000100 49 4b 20 3d 1a 34 92 39 b1 a4 2f 3d a7 12 eb 3b
       0.039134298 0.0002788611 0.04288167 0.0071738544
000110 3b 34 19 3d bd ce cf bc 53 31 07 bc be 34 c1 3c
       0.037403326 -0.025367135 -0.008251506 0.02358472
000120 2b c5 41 3c 14 4e cf 3c 9b 95 6c 3d 47 0e 38 bc
       0.011826794 0.025305785 0.057759862 -0.011233873
000130 57 70 8f bc 29 8a db bc 27 17 5e 3d 9c 72 57 bd
       -0.017509622 -0.026799278 0.0542213 -0.052599534
000140 ec a7 37 3b 59 ba af 3c 80 66 20 bd 65 08 28 3c
       0.0028023673 0.021451162 -0.03916025 0.010255908
000150 ac 38 8a 3b 6b 7f 3b 3d f0 7e c7 bc f0 3e 21 3d
       0.0042181816 0.045775812 -0.02435252 0.039366663
000160 e7 5a c5 3c 8a 33 2e 3b 0c 63 86 bc 77 5e a5 bb
       0.024091197 0.0026581013 -0.016404651 -0.0050466615
000170 2e 12 c2 bb c7 c3 a2 bc 48 0a 98 3c 02 25 26 bc
       -0.0059225773 -0.019868745 0.01855959 -0.010140659
000180 3e df 1d bb 10 73 cc bc d5 77 af 3a af 95 25 3d
       -0.0024089362 -0.02495721 0.0013387153 0.040425953
000190 c9 31 39 3d be 21 56 3d 31 cf 24 bc 54 d1 6b bd
       0.045213494 0.052278273 -0.010059164 -0.057572678
0001a0 93 fe 56 bd ce fe 0e 3d a8 5e 75 3c 1a 6c f5 bb
       -0.052488875 0.03491097 0.014976181 -0.0074896934
0001b0 c5 60 12 3b 4d b9 3f bd e1 35 0f bd 1e ff e2 bc
       0.0022335511 -0.046807576 -0.034963492 -0.02770954
0001c0 60 14 b3 bc f9 6c df bc 1c ac ed bb 5b 30 1e 3d
       -0.021860301 -0.027273642 -0.007253183 0.038620334
0001d0 7f d1 1a 3d de 30 29 bb 45 f2 3e 3d de 29 75 3d
       0.037797447 -0.002581648 0.046617765 0.05985438
0001e0 f6 7b b2 bc 2e e2 51 3d 68 c5 49 3d 40 5b 37 3d
       -0.021787625 0.051241092 0.049260527 0.044764757
0001f0 53 3e 51 bd 49 9a d6 3c c5 97 60 bd ac 8c b1 ba
       -0.051084828 0.026196616 -0.05483224 -0.0013545952
000200 f1 b1 29 bd e1 5b 67 bd 5a 96 fe bc a8 d4 b7 3c
       -0.041429464 -0.056484107 -0.031077553 0.02244027
000210 eb dd 22 bd bd ab 68 bc 78 28 5d bd 59 ea 3b bd
       -0.03976242 -0.014201102 -0.053993672 -0.04587779
000220 d6 6e 02 3d b5 3d 63 3d 73 59 af 3c 16 46 5f bd
       0.031843983 0.05547877 0.021404957 -0.0545102
000230 21 0e c1 3c 8d be 40 bd fe 5a 8c bc f2 ff 40 bd
       0.023566308 -0.047056723 -0.017133232 -0.04711909
000240 d0 6e 41 bd b9 b7 38 3d d3 35 44 bd c8 fa 33 3d
       -0.04722482 0.045097087 -0.047902893 0.043940336
000250 f8 3f db bb d4 50 36 3b 15 14 bd bc 09 0a 36 bd
       -0.0066909753 0.0027819173 -0.023080865 -0.044443164
000260 9f 99 59 bd 9d 91 cb bb 84 6e 8f 3c 67 08 51 39
       -0.05312502 -0.006212427 0.017508753 0.00019934923
000270 95 09 0b 3d 85 85 ce bc 01 9f 5d bd 85 c4 6e 3d
       0.033944685 -0.025210151 -0.054106716 0.058292884
000280 0c 52 41 3d ce 96 08 bd 20 07 1c 3d 14 9c 03 3d
       0.047197387 -0.033346944 0.038092732 0.03213127
000290 a7 7e 53 bd ea 61 39 3c a5 43 09 3d b0 48 1a bd
       -0.051634457 0.011314848 0.033511776 -0.037666976
0002a0 e3 d3 13 3d b0 7d e0 bc 37 0b 30 3d c0 bc 6b 3c
       0.036090743 -0.027403682 0.042979445 0.014388263
0002b0 d3 df a7 3c 71 49 0a 3d 55 05 05 bd b5 53 3a bd
       0.02049247 0.033761445 -0.03247579 -0.045489985
0002c0 44 7d 58 3b 54 97 12 bc 70 c6 0f 3d e1 56 1a bd
       0.0033033649 -0.008947212 0.035101354 -0.03768051
0002d0 f9 b5 8d 3c 14 24 78 3b 58 dd 65 3d cb 5c 5f 3d
       0.017298685 0.00378633 0.056119293 0.054531854
0002e0 ba c6 0e 3d 58 1f d3 3c 38 a5 93 3a f4 2a 15 bc
       0.03485749 0.025771782 0.0011264449 -0.009104479
0002f0 07 22 0c bd f7 fe 76 3c 85 e8 06 bd d0 bd 6f 3d
       -0.03421214 0.015075437 -0.03293659 0.05853063
000300 5b 7f 5a 3d cc 5e 61 3c a7 f1 8c bc da a6 42 3c
       0.053344112 0.0137555115 -0.017205073 0.011880601
000310 67 dc 1c 3d fd cd 03 3d bd 51 49 3d 17 fe ef bc
       0.03829613 0.032178868 0.049150217 -0.029295964
000320 1d ba 3b 3c 7d 37 51 3c 08 43 32 bd ce 6a 53 3d
       0.011457947 0.012769577 -0.043520957 0.05161553
000330 aa ff 58 bc 10 9a 33 bd 10 74 72 3d 04 73 da 3c
       -0.013244549 -0.043848097 0.059192717 0.026666172
000340 d7 d6 a4 bc 67 2c 59 3d 97 d5 44 bd 07 b3 34 3d
       -0.020121975 0.05302086 -0.048055258 0.044116046
000350 e9 11 e3 3c 2b f2 b0 bb ae aa 58 bd f4 e3 1c bb
       0.027718501 -0.0053999624 -0.052897148 -0.0023939582
000360 3f 11 48 bc 13 47 91 bb 29 9b b4 3c 09 04 04 3d
       -0.012211143 -0.0044335215 0.022046642 0.03223041
000370 76 b8 27 bd cb fb 26 3c aa 63 37 3d 01 fb ed 3c
       -0.0409474 0.010191868 0.04477278 0.029050352
000380 25 4b 6a 3d a2 33 f1 3c 33 b1 0d bd 52 1b 62 bd
       0.05720057 0.029443566 -0.03459282 -0.055201836
000390 fa 29 3a 3d d2 e4 e4 3c 58 bd d4 3b cd cd 2c bd
       0.04545019 0.027941141 0.006492298 -0.042188454
0003a0 9a 7e 68 3d 5b 31 6e 3d 6e 7b 66 bc 7b a5 3d 3d
       0.05676136 0.058152538 -0.014067514 0.046300393
0003b0 f3 9a 60 3d 43 24 7f bc 19 f0 73 bd bb 52 40 bd
       0.05483527 -0.01557261 -0.059555147 -0.046953898
0003c0 87 98 57 bd 4d 4f 8a bb bb 9f 1a 3b 27 05 1e 3d
       -0.052635696 -0.004220879 0.0023593742 0.038579132
0003d0 7b 84 a1 3c 6d d4 38 3d 6d ca 3f 3d 70 e9 95 3c
       0.019716492 0.04512446 0.046823908 0.018299788
0003e0 4d db 22 3d be 16 fc bc 62 bc 34 3d 73 ca 23 3d
       0.039759923 -0.030772563 0.04412497 0.039987992
0003f0 bb 0c 21 3d c3 a2 63 bd 2f e5 ca bc 6a e1 a8 3b
       0.03931878 -0.055575144 -0.024767486 0.0051538246
