models/09112021_2330_mf_Movielens-100k.pt (torch, 673127 bytes, 2 tensors)

user_embedding.weight f4 [943, 64]
000000 99 8e d9 3c e8 84 7d bc ea b3 94 bd 8f cd 1e 3d
       0.026557254 -0.015473582 -0.072608784 0.038770255
000010 72 02 40 bc 13 f0 03 3d 3c d0 d0 3c f7 c1 6d bc
       -0.011719333 0.032211374 0.025489919 -0.014511577
000020 4a dd cd 3c c5 e1 95 bd 75 cf 42 bd 91 16 90 3c
       0.025129933 -0.07318453 -0.047561128 0.017588886
000030 ba a2 1d 3d 29 e3 47 bd 57 45 2d bd d7 44 65 3d
       0.038485266 -0.04880062 -0.042302456 0.055973854
000040 65 8b 4f 3d 4c 34 95 3d 94 ef 5b 3d ab 84 13 3d
       0.050670046 0.072853655 0.053695276 0.036015194
000050 01 dd 6f bd 63 5c b9 3c d2 4b 82 3c b4 e0 8d 3d
       -0.058560375 0.022627061 0.015905295 0.06927624
000060 6a d7 98 3d 06 30 dd 3b 6f 63 fe bc 04 8e 3a 3c
       0.07462962 0.0067501096 -0.031053273 0.011386398
000070 4c 8d bb bc 6a 7e 2e bd 42 a1 52 bc 6c 5f 9b bd
       -0.022894524 -0.042601027 -0.01285583 -0.0758656
000080 05 c7 2c bd 4b c2 b2 3c 85 46 0c 39 8c 55 02 bd
       -0.042181987 0.021821162 0.00013377711 -0.031819865
000090 86 f2 c1 bc db e0 2a 3d 2a e2 d0 bb b8 e2 67 3d
       -0.023675214 0.041718345 -0.006374617 0.0566127
0000a0 84 4a 0e 3d c1 28 57 3d 03 ba 26 bc 2a 51 26 bd
       0.034739032 0.0525291 -0.010176185 -0.040604748
0000b0 76 18 2f 3d e2 d6 25 3d dd a9 34 3d de e4 16 3d
       0.042747937 0.04048813 0.044107307 0.03683936
0000c0 6d 31 25 3d 29 d5 90 bc 04 85 2b bd 7f e7 7b 3d
       0.04033034 -0.017679768 -0.0418749 0.06150007
0000d0 bf 24 7f bd 1f da 99 bd 58 8e 24 bc f0 e7 72 bd
       -0.062290903 -0.075123064 -0.010043703 -0.059303224
0000e0 ff 0c 77 3c 63 b3 6e bd 95 3d 72 bc 7c 40 e2 3c
       0.015078782 -0.058276545 -0.01478519 0.02761864
0000f0 bb f7 cc bc a1 87 ef bc 88 fb 7d 3d 8b ee 64 bc
       -0.02502047 -0.029239478 0.062007457 -0.013972889
000100 73 89 92 3d 65 7e 81 bd 6c e1 8e bd 8d 9d 6a 3d
       0.071551226 -0.06322936 -0.069765896 0.05727916
000110 68 af 51 bd 91 71 09 bd cd 68 80 3c a8 40 5d 3d
       -0.05119267 -0.03355557 0.015674973 0.05401674
000120 ab 32 92 3d f6 00 e3 bc 4e 1f 86 3d 46 ba 54 3d
       0.071385704 -0.02771042 0.0654894 0.051935457
000130 56 c1 8d bd a4 56 2a bd 87 8c e4 ba 67 cc 77 3c
       -0.069216415 -0.041586533 -0.00174369 0.015124417
000140 2b 74 eb 3c b6 ef 3b bb a6 89 a1 3b 80 62 89 bd
       0.028741917 -0.0028676814 0.004929739 -0.067082405
000150 ed 68 1d bc f1 ec 1a bd ac c0 08 3d 2e b0 17 bc
       -0.009607536 -0.03782362 0.03338687 -0.009258313
000160 9f 45 17 3d 7c 53 40 3c 45 6d df bb 94 86 58 3d
       0.03693163 0.011738654 -0.006818446 0.05286272
000170 10 74 11 3d d1 49 81 3c 73 c6 14 3d 1b 02 99 bd
       0.035511076 0.015782269 0.03632207 -0.07471105
000180 38 1f 53 3d 62 1f 84 3d f7 9d e8 3c ce 89 8f 3d
       0.051543444 0.06451298 0.028395636 0.07008706
000190 06 dc 63 bd f1 f2 72 3d 20 69 59 bd 96 4a 20 3d
       -0.055629753 0.05931372 -0.05307877 0.03913363
0001a0 e8 54 35 3d 8e 49 90 bd d4 4f 13 3d 83 e3 82 3d
       0.044270426 -0.070452794 0.035964802 0.06391051
0001b0 75 94 8f bd ff 95 52 bd 44 5d 64 3a a8 e3 9c bc
       -0.07010738 -0.05141258 0.00087114074 -0.019151524
0001c0 db fb 20 bd fb 12 02 bc d5 c1 e1 3c 73 e4 9a bd
       -0.039302688 -0.007939096 0.027558247 -0.075631045
0001d0 0e 77 97 3d d7 13 73 bd 23 5f 2b bc 64 5a 9a bd
       0.07395755 -0.059345093 -0.010459694 -0.07536772
0001e0 cd 5f 9f bc 68 ab 8e bd e9 1e e3 3c a1 94 96 3d
       -0.019454861 -0.06966287 0.0277247 0.073525675
0001f0 de 43 21 bc 8b 1f 68 bd b3 17 60 bc ee 83 48 3d
       -0.009842841 -0.056670707 -0.013677525 0.048953943
000200 23 20 44 bd 9b 17 7f 3d 00 3f 4d 3c 41 b6 67 bd
       -0.04788221 0.06227837 0.012527227 -0.056570295
000210 42 e7 2e 3c 96 57 5e 3d 70 01 9f 3d a7 9f 23 3d
       0.010675253 0.054282747 0.07763946 0.03994718
000220 da 89 75 3d ac 58 93 bd b3 e1 e5 bc d3 37 3f bc
       0.05994592 -0.07194647 -0.028061723 -0.011671024
000230 8a 9a ec 3c 85 4f 49 bd 4c 42 50 3d 3f 5f 8f 3d
       0.028882284 -0.0491481 0.050844476 0.070005886
000240 b3 c1 24 3d 89 f6 6c 3d b5 9a d9 bc 04 da 31 3d
       0.04022379 0.0578523 -0.026563028 0.043420807
000250 1e b0 7c bd 66 16 cf bc d8 a8 3b bd 40 d5 72 3d
       -0.061691396 -0.025279235 -0.04581532 0.059285402
000260 6b 0a 0c 3c a5 d6 e7 bc bf b9 55 3c 7b 1e c9 3c
       0.008547406 -0.028300593 0.013044774 0.024550667
000270 c5 2e 17 bd f7 69 16 3c 48 45 98 bd de 18 b1 3c
       -0.036909837 0.009180537 -0.07435089 0.021618303
000280 11 96 a5 bc 63 3e bb bc 73 91 8e bd 45 9f f8 bc
       -0.020213159 -0.022856897 -0.06961336 -0.030349383
000290 c3 ee 97 bd f8 56 93 3d 8f 8b 67 b9 40 3c e7 3c
       -0.07418587 0.07194322 -0.00022081866 0.028226972
0002a0 3b 00 98 3c fb 2d 00 3c 14 e7 05 bd eb 32 30 bd
       0.018554797 0.007823463 -0.032691076 -0.04301731
0002b0 75 44 78 3d ff 83 02 bd 2e 85 7c bd 4a f1 78 bd
       0.06061216 -0.031864163 -0.061650448 -0.060776986
0002c0 e4 78 87 bd 16 b0 92 3d e7 97 e1 ba 03 d9 43 bc
       -0.06614855 0.07162492 -0.0017211408 -0.011953595
0002d0 a7 df 2e 3b bf d5 30 bd 39 a1 6e 3c 25 3c bc 3b
       0.00266836 -0.043172594 0.014564806 0.0057444745
0002e0 94 55 82 bc 2b 93 84 3d 4d 04 4f bc c4 ec 92 3d
       -0.015909947 0.064733826 -0.012635303 0.07174066
0002f0 0a a1 23 bc e7 ea 83 bd 3e d7 83 3d 87 6d 8e 3d
       -0.009987125 -0.064412884 0.064375386 0.069544844
000300 2d e1 8e 3d f8 ab 50 bd 13 f3 12 3d 84 0f 4b 3d
       0.069765426 -0.050945252 0.035876345 0.049575344
000310 10 dd 86 bd 9b 0b 76 bd a5 d5 ba 3c 18 10 8b bd
       -0.06585133 -0.06006966 0.022806952 -0.06790179
000320 85 ef 8f bb 4f e1 21 3d 3b ba 8c bd 90 c6 8f 3b
       -0.0043925666 0.03952151 -0.06871458 0.004387684
000330 a1 5f 81 3c 1c 42 cf 3c 1b 64 79 bd 41 3c 71 bd
       0.01579267 0.025300078 -0.060886484 -0.058895353
000340 6c a9 86 bd 8a ea 03 3d 9b ea 1d 3c af 38 f1 3c
       -0.065752834 0.032206096 0.009638454 0.029445974
000350 21 ec c5 bc 77 e4 75 3c 9c 60 d2 3c b8 b8 76 bc
       -0.024160447 0.015008084 0.025680833 -0.015058689
000360 3e 40 8f bd 89 d0 05 bd d1 96 12 bb ac bf 62 3d
       -0.06994675 -0.032669578 -0.0022367726 0.055358574
000370 1e 7b a2 3d aa bb f0 3c ec 28 bf bb 5b 5b 04 bd
       0.07933639 0.02938636 -0.0058337357 -0.032313686
000380 65 86 50 bd cb b5 d4 3a e0 16 1f bd 49 67 89 3d
       -0.05090942 0.0016228495 -0.038840175 0.06709153
000390 2c 99 91 3d c6 94 94 3d 9b be 95 3d 4f 71 ec 3b
       0.07109293 0.07254939 0.07311746 0.007215656
0003a0 d4 36 44 bd 83 b1 91 bd a3 09 90 bd f2 a2 4c 3d
       -0.04790385 -0.07113936 -0.07033088 0.049960084
0003b0 69 18 50 3d 5e 83 80 bc a1 9e 80 bd e4 93 3e 3d
       0.05080453 -0.01568764 -0.06280256 0.04652776
0003c0 48 30 ce bc b0 fa 97 bd 1b 9f 45 3d b9 d3 01 3d
       -0.025169507 -0.07420862 0.048247438 0.031696055
0003d0 44 fb be bc 09 1f c5 bc 5b f8 4d bd f3 86 9a bd
       -0.023313172 -0.02406265 -0.05028568 -0.07545271
0003e0 b1 e1 68 3d 7b 02 8c 3d 2d e1 f5 bc d2 7a 56 3d
       0.05685586 0.068364106 -0.030014599 0.052363224
0003f0 7a be 95 3d 99 8a 8e 3d b7 70 24 bd d0 8d 7e 3d
       0.07311721 0.06960029 -0.040146556 0.06214696

item_embedding.weight f4 [1682, 64]
000000 6e 8a 63 3d ab 19 3e bc 78 ed 4a 3c 77 d5 64 3d
       0.05555194 -0.011602799 0.0123857185 0.05586764
000010 8c ad 10 bc e9 63 5f 3c 52 60 7c bb 9a f7 2e 3d
       -0.008830439 0.01363466 -0.003850956 0.0427166
000020 a9 2f 60 bd e1 7b ae bc 10 93 b4 3b ee 31 18 bc
       -0.054732952 -0.021299304 0.0055106953 -0.009289248
000030 fe 58 ea 3a ed 0f 24 3d bd 8f 32 3d 49 8d 3f bd
       0.0017879305 0.04005425 0.04359411 -0.0467656
000040 59 74 af 3c d5 63 12 3a 66 75 5a 3b f0 ac eb bb
       0.021417784 0.0005584334 0.0033334135 -0.0071922466
000050 af 9e 25 bd d2 ad 45 3d 52 88 5e 3d f0 5f 4b 3d
       -0.040434536 0.04826147 0.054329224 0.04965204
000060 f4 fb 44 bd 24 48 43 bd 33 89 0d bd e8 98 45 3d
       -0.048091844 -0.04767622 -0.03455467 0.048241526
000070 b9 8b a1 3c 25 05 17 bd b4 31 ad 3c a4 82 93 3c
       0.019719945 -0.03687014 0.021141864 0.01800663
000080 35 de 84 bc c8 ea 1c 3d 12 0c 38 3d 3f ad 69 bd
       -0.016219238 0.038309842 0.044933386 -0.057049986
000090 a8 36 1f bd da 97 a2 3c 5e 0b 82 3c b7 b8 2b 3d
       -0.038870484 0.0198478 0.01587456 0.041924205
0000a0 f1 e8 3d 3d 6d e5 7e bc cf f3 7a bb af 33 71 3d
       0.04636473 -0.015557629 -0.0038292294 0.05888718
0000b0 0d e4 c2 39 59 b2 7b 3c 53 31 27 3d bb 4b c2 3c
       0.00037172475 0.015362346 0.040818524 0.023717752
0000c0 1c 0d 19 bd a0 59 e8 3c a2 4c 9e bc 22 35 b6 3c
       -0.037366018 0.028363049 -0.01932365 0.022242133
0000d0 04 08 40 3c 83 62 0d bd e0 2e 51 3b c4 f0 13 bd
       0.011720661 -0.034517776 0.0031918809 -0.036118284
0000e0 8d 2e f1 3b 85 dd 1a bc 8b d9 48 3d f9 26 2e bd
       0.0073602856 -0.009452228 0.04903559 -0.042517636
0000f0 65 db 0d bd a2 f0 8c 3c b6 9e 61 3d 41 7d be bc
       -0.03463306 0.017204586 0.055083 -0.023253085
000100 78 83 1f 3d 92 0f 47 3d 28 9e 55 3d 6d 44 5c ba
       0.038943738 0.048598833 0.052152783 -0.000840253
000110 56 8a 0d bd dd e3 01 bd 03 88 09 3d df 57 f2 bc
       -0.034555756 -0.031711448 0.033576977 -0.029582916
000120 2b 32 4c bd 20 6d bb bc 33 d1 a4 3c 37 69 5c bd
       -0.04985253 -0.022879183 0.020119285 -0.05381128
000130 aa 20 03 bd 0f 15 30 bc 33 b6 12 bd 59 05 0e bd
       -0.032013573 -0.010747208 -0.03581829 -0.03467307
000140 8c ea 5a bd 03 20 11 3d 9a 57 40 bc 68 13 e6 3c
       -0.053446338 0.03543092 -0.011739636 0.028085425
000150 ca 95 0f bd 3b bf 67 3d f4 c7 1d 3d 46 63 24 3c
       -0.03505496 0.056578856 0.03852077 0.010033434
000160 b3 02 f0 bb 73 b7 04 3c 08 56 ea bc 2e 97 dd 3b
       -0.0073245405 0.008100378 -0.028605476 0.006762407
000170 8d 34 f5 bc 84 26 af ba ed 39 e9 bc aa 80 0f 3c
       -0.029932285 -0.0013362919 -0.028470004 0.008758703
000180 a6 96 31 3d 0d e2 4d 3d b8 81 45 3c 5c 9d 1d 3c
       0.04335656 0.050264407 0.012054853 0.009620037
000190 53 23 57 3b 10 3f 93 3c 65 2b 84 bc 68 1a 51 bc
       0.0032827451 0.017974406 -0.016133973 -0.012762643
0001a0 4f d2 ec 3c a6 91 ef ba 98 56 5c 3c 93 94 8c 3c
       0.028908877 -0.001827766 0.01344838 0.01716069
0001b0 27 3f d1 bb 0a 83 07 3b 5f 97 0b 3d aa 40 17 3d
       -0.006385702 0.002067747 0.034079906 0.036926903
0001c0 ba cd 5f 3d ba a4 ad bc 31 64 3e bd 3f 5c 67 3d
       0.054639556 -0.021196712 -0.04648227 0.056484457
0001d0 84 c3 54 bd b2 57 2b bd 74 19 72 bc 19 42 01 bd
       -0.05194427 -0.04183168 -0.014776576 -0.031557176
0001e0 2d 86 4e 3c f6 6d b7 bc af 24 37 bd 97 3f 4a 3d
       0.012605232 -0.0223913 -0.04471272 0.04937705
0001f0 65 0c 09 3d c1 6a 66 bd 85 5b 30 bd 55 9c 9d 3c
       0.033459086 -0.056254152 -0.04305603 0.019239584
000200 dd 43 78 3c 52 a4 46 3d 32 33 aa 3c ec 8f 61 bc
       0.015152899 0.04849655 0.020776365 -0.013767224
000210 6d 6c 80 bc 5f ef c3 bb e2 44 f7 bc 12 cc fd bc
       -0.015676701 -0.005979463 -0.030184213 -0.030981097
000220 b6 65 1b bd 23 6b e4 bb 43 ec 25 bd 65 ab 53 3d
       -0.037938796 -0.0069707795 -0.04050852 0.051677126
000230 8b 13 c3 bc 6d 3b 31 3d 6f 97 20 3d 43 93 47 3d
       -0.02381303 0.043269563 0.03920692 0.048724424
000240 47 4e fd 3c 61 68 8a bc 67 5d 2a 3d 9d 48 34 3d
       0.030921115 -0.016895475 0.04159298 0.044014562
000250 39 c3 7d bb ee 7d 45 bc 52 84 2a 3d bf 0d 11 bc
       -0.0038721098 -0.01205395 0.041630097 -0.008853375
000260 b9 da 80 3b 6d f1 9a bb b3 d9 a5 bc c6 fb 0b 3d
       0.003932324 -0.004728487 -0.020245409 0.034175657
000270 97 50 06 3d b8 55 bc 3c 37 e2 00 bd ae eb b2 3c
       0.0327917 0.022990093 -0.031465735 0.021840896
000280 32 a3 6f bc 51 8d 06 3d 3a b3 03 3d 9e c2 00 bd
       -0.014626311 0.032849614 0.032153346 -0.0314356
000290 a8 96 43 bd 63 ea 20 3d af 12 62 3c bc 9d 58 bc
       -0.0477511 0.03928603 0.0137984 -0.013221201
0002a0 48 56 08 bd 4f ea 1f bd 93 20 de 3b df c9 10 bd
       -0.03328541 -0.039041813 0.0067787855 -0.03534877
0002b0 c0 1b f0 3c be 90 12 bd 6d 4d 31 3d e7 ae b5 ba
       0.029310107 -0.03578257 0.04328673 -0.0013861329
0002c0 a4 e7 db bc c3 a3 11 bd c7 4f a8 bc 4e 0d 29 3c
       -0.026843853 -0.035556566 -0.020545853 0.0103181135
0002d0 1b 78 4f 3d 97 6e 42 bd c4 e7 06 bd d4 27 44 3d
       0.05065165 -0.047468748 -0.032935873 0.047889546
0002e0 49 f1 24 3d c4 52 75 3c 7f d1 4f bb f0 11 29 bd
       0.04026917 0.014973346 -0.0031710563 -0.041276872
0002f0 d5 68 45 bd e1 64 be 3c 4b 3c c5 bb 4d 3f 16 bc
       -0.04819568 0.023241462 -0.0060191504 -0.0091703655
000300 11 d2 58 3d 3a 43 02 bd cf 3f 60 3d 18 79 3d 3d
       0.05293471 -0.031802393 0.054748353 0.046258062
000310 76 c2 14 bd 6b 93 96 3c c8 ea 6b 3d 3b c8 15 3d
       -0.036318265 0.018380841 0.05759695 0.036567908
000320 e4 8c 4f 3d 35 33 6c 3c f4 e2 71 3d 20 13 10 bd
       0.050671473 0.014416506 0.05905433 -0.03517449
000330 d2 b8 d9 bc 0c b2 4e bd ea 46 05 3c 49 d2 71 3d
       -0.026577387 -0.050462767 0.008134583 0.059038434
000340 4a 31 dc 3c af 13 09 bd e6 d0 30 bd 85 13 2d 3c
       0.026878972 -0.033466037 -0.04316797 0.010563736
000350 3f 62 12 bc b2 95 1a 3d 26 4e 00 bd d7 64 3f bd
       -0.0089345565 0.037740417 -0.03132453 -0.046727028
000360 03 11 30 bb 6c 7f 3d ba a2 77 23 bd 8a 78 33 b9
       -0.0026865609 -0.0007228765 -0.039909013 -0.00017115675
000370 01 eb 50 3d ba 05 50 bc 81 ce ca 3c 8d 8b 74 3c
       0.051005367 -0.012696678 0.024756672 0.01492585
000380 ed 56 73 3d 5c 38 74 3d 4b 77 03 bd 60 63 9d bc
       0.05940907 0.05962406 -0.03209619 -0.019212425
000390 72 7a e4 3c 99 59 22 3d c5 ba 52 3d 95 53 49 3d
       0.027890418 0.03963623 0.05144765 0.049151976
0003a0 2d 0c 8c bb 29 2e 63 bd 6f 5f cf bc 97 5e c1 bc
       -0.0042739124 -0.055463944 -0.025314061 -0.023604674
0003b0 07 80 2c 3d 8e 5d 02 3d 50 86 e2 3c bc be 4a 3d
       0.042114284 0.031827502 0.027651936 0.049498305
0003c0 99 5d 15 3c b2 2e ed 3b 7b 49 66 3c 49 b5 2b 3d
       0.009116554 0.0072382325 0.014055605 0.041920934
0003d0 2b 7e 42 bd 6b 92 3c bc 73 a9 0f bd 09 d7 68 3d
       -0.047483604 -0.011509518 -0.03507371 0.0568457
0003e0 5d 3a 56 3b a5 ef b6 3c 71 9e 0f bc 5e a0 34 3d
       0.0032688596 0.022331068 -0.008765803 0.04409825
0003f0 bd 2d 31 bd 42 cb 41 3d 30 f0 4f bd 76 b3 f0 3c
       -0.04325651 0.047312982 -0.05076617 0.029382449
