models/09112021_2329_mf_Movielens-100k.pt (torch, 673127 bytes, 2 tensors)

user_embedding.weight f4 [943, 64]
-0.059740428 -0.060356826 0.046540122 -0.064523906 -0.043561727 0.050499115 0.015468955 0.046216357
-0.012956144 -0.03718889 -0.029133733 -0.040672 0.0002701566 0.06606954 -0.07800013 -0.07522434
-0.013338989 -0.06635426 -0.036575083 -0.06452675 -0.032232367 -0.060766935 0.037323773 -0.023370469
0.07413643 0.056389477 0.06707097 0.030958246 0.049787942 -0.04547645 0.07243543 0.06328416
0.00594208 0.06244559 -0.049899057 0.024917848 0.050903674 -0.046768732 0.04649905 0.041137584
-0.00041005207 0.046571855 0.07677296 0.039708566 -0.0770141 -0.04627828 0.026371228 -0.012322002
-0.049113374 -0.025041346 0.061710075 -0.07735729 0.07397274 -0.03575275 0.020095889 -0.05357539
-0.02806657 0.015494808 -0.021337163 -0.06888996 -0.038209833 0.002222034 -0.016983833 -0.028113222
-0.0035725026 -0.07409905 0.060079604 0.053576794 0.04045771 -0.017097047 -0.050671205 0.05481516
0.010709494 0.07182795 0.05331726 -0.0460798 0.06526975 0.0725308 -0.033681832 -0.04999135
-0.020831816 0.06816511 0.06355663 -0.058176205 -0.031774707 0.024396796 -0.0064105545 -0.051315583
0.0027021714 0.07325385 -0.07320946 0.07296051 0.072269246 0.06543616 -0.04708545 -0.006337807
-0.05854414 0.07400836 -0.019921562 -0.07543182 0.056784805 0.064557046 -0.035937965 0.036110036
-0.01345374 -0.051783063 0.068641976 0.046984587 -0.0312753 0.0056310967 0.05195923 0.041725297
-0.038014367 -0.022795789 0.029378192 -0.024269352 0.04420779 -0.06927944 0.03638767 -0.053663176
0.0757761 0.01730392 0.076008834 0.05757716 0.0050957976 -0.039794546 -0.039744478 -0.072394155
0.04203521 -0.03498056 -0.034576535 0.043490816 -0.06720593 0.03361996 0.07895718 -0.029617053
0.06901153 -0.07486111 -0.013032088 -0.003852027 -0.04364603 0.047044963 0.021917723 0.054091852
0.030275011 -0.0015920978 0.04746499 -0.008286398 0.06844028 -0.024881661 -0.019274684 -0.007397322
-0.0023602825 0.0067726746 -0.06648831 -0.04375053 0.013809896 -0.0014876256 -0.017171709 -0.06235339
-0.022867598 -0.018880049 0.052793138 0.0204549 0.05262218 -0.040242333 0.033594605 -0.00737916
-0.038887724 0.05805361 -0.030083394 -0.033358768 -0.06674712 -0.013336074 0.04308612 0.020812694
0.021266993 -0.06654567 -0.01476952 -0.033774905 0.034271337 0.06585743 -0.031882003 -0.068451166
-0.065906934 -0.03580376 -0.068624616 0.07702239 0.00028103866 -0.04387544 0.068135954 -0.027298111
0.049672578 -0.054459363 0.06691624 0.024325619 -0.015582266 -0.019717341 0.032939333 0.03427674
-0.01231593 0.050647467 0.04626606 0.055509046 0.0065558963 0.06357472 -0.017038524 0.015550409
0.01494695 0.052873336 0.014751739 -0.053072352 0.07853247 -0.006442261 -0.008419321 -0.0048115286
0.070402 0.013835899 -0.04182273 0.038158618 -0.04925689 -0.04833242 -0.039830644 -0.07037159
-0.07631215 -0.058540523 0.07590464 -0.032757875 0.042562556 0.044970978 -0.022687888 0.049036175
0.050214346 0.04989362 -0.06797557 0.031773552 0.073411696 0.034086168 0.01891469 -0.032798145
0.0046217064 0.06964732 -0.05828321 -0.03625941 -0.038649812 0.022913557 0.009080585 -0.022028098
0.065402 0.033933174 -0.07222271 0.061888654 0.019890346 0.07606085 -0.059019435 0.017965758
00000000: 61b2 74bd b838 77bd dba0 3e3d 1c25 84bd
00000010: c86d 32bd 29d8 4e3d 8071 7d3c 5d4d 3d3d
00000020: 0246 54bc 6153 18bd dea9 eebc af97 26bd
00000030: cea3 8d39 784f 873d 88be 9fbd 380f 9abd
00000040: c68b 5abc bee4 87bd c1cf 15bd 9a26 84bd
00000050: 1606 04bd c0e6 78bd d0e0 183d 6d73 bfbc
00000060: d7d4 973d a7f8 663d 815c 893d 269c fd3c
00000070: 71ee 4b3d 8445 3abd 0759 943d 209b 813d
00000080: c8b5 c23b f2c6 7f3d f462 4cbd 8420 cc3c
00000090: 5f80 503d 9290 3fbd ca75 3e3d e27f 283d
000000a0: 42fc d6b9 21c2 3e3d 243b 9d3d 73a5 223d
000000b0: 92b9 9dbd 4b8e 3dbd 7908 d83c 39e2 49bc
000000c0: 1b2b 49bd 8223 cdbc b4c3 7c3d 806d 9ebd
000000d0: 057f 973d 7a71 12bd 22a0 a43c de71 5bbd
000000e0: ddeb e5bc efdd 7d3c 46cb aebc 2e16 8dbd
000000f0: ea81 1cbd 8b9f 113b ae21 8bbc b34d e6bc
00000100: a620 6abb 3ec1 97bd 0816 763d 5773 5b3d
00000110: fcb6 253d 1b0f 8cbc 9c8c 4fbd dc85 603d
00000120: e076 2f3c 881a 933d 3363 5a3d 2cbe 3cbd
00000130: 26ac 853d 078b 943d f6f5 09bd bbc3 4cbd
00000140: 7ca7 aabc 269a 8b3d fa29 823d 2c4a 6ebd
00000150: 3226 02bd cadb c73c a10f d2bb 4a30 52bd
00000160: ea16 313b 1d06 963d d7ee 95bd 526c 953d
00000170: e601 943d 6503 863d acdc 40bd 61ad cfbb
00000180: fbcb 6fbd b291 973d 8b32 a3bc ff7b 9abd
00000190: 2f97 683d 7c36 843d b033 13bd 1ee8 133d
000001a0: 136d 5cbc 7a1a 54bd 2a94 8c3d e972 403d
000001b0: 871a 00bd 1085 b83b 34d3 543d 25e8 2a3d
000001c0: f4b4 1bbd 3cbe babc 89aa f03c 85d0 c6bc
000001d0: 3a13 353d 61e2 8dbd 3d0b 153d ebcd 5bbd
000001e0: 8030 9b3d f3c0 8d3c 85aa 9b3d 07d6 6b3d
000001f0: a6fa a63b 9bff 22bd 1bcb 22bd 6343 94bd
00000200: 1d2d 2c3d c747 0fbd 20a0 0dbd 6d23 323d
00000210: 43a3 89bd 15b5 093d 4db4 a13d 769f f2bc
00000220: eb55 8d3d c850 99bd 8a84 55bc 4a72 7cbb
00000230: 2ec6 32bd 38b2 403d cc8c b33c 6b8f 5d3d
00000240: 4d03 f83c f0ad d0ba a66a 423d acc3 07bc
00000250: 6b2a 8c3d a0d4 cbbc f1e5 9dbc 3c65 f2bb
00000260: f8ae 1abb 50ed dd3b 062b 88bd c133 33bd
00000270: e742 623c 6ffc c2ba afab 8cbc 4566 7fbd
00000280: d454 bbbc 55aa 9abc 9e3d 583d 0991 a73c
00000290: 5b8a 573d 25d5 24bd 7f9a 093d e1cc f1bb
000002a0: bc48 1fbd 9fc9 6d3d 7371 f6bc 34a3 08bd
000002b0: b7b2 88bd 8c7f 5abc 127b 303d 627f aa3c
000002c0: 1e38 ae3c 1949 88bd dbfb 71bc 8e57 0abd
000002d0: 1a60 0c3d 43e0 863d b496 02bd 2030 8cbd
000002e0: 37fa 86bd f7a6 12bd 108b 8cbd eabd 9d3d
000002f0: 5f58 9339 bcb6 33bd dd8a 8b3d 4aa0 dfbc
00000300: 7975 4b3d c810 5fbd 620b 893d 8546 c73c
00000310: c34c 7fbc 4386 a1bc 65eb 063d c465 0c3d
00000320: c1c8 49bc b873 4f3d 7b81 3d3d 745d 633d
00000330: d8d2 d63b 7633 823d 6094 8bbc 25c7 7e3c
00000340: 0de4 743c b691 583d 47b1 713c 6562 59bd
00000350: a2d5 a03d 9a19 d3bb 31f1 09bc 07aa 9dbb
00000360: ec2e 903d f7af 623c 504e 2bbd 364c 1c3d
00000370: 98c1 49bd 37f8 45bd 7525 23bd fb1e 90bd
00000380: 8b49 9cbd 30c8 6fbd e473 9b3d 1f2d 06bd
00000390: 1356 2e3d 7d33 383d f3db b9bc 28da 483d
000003a0: 8fad 4d3d 415d 4c3d c736 8bbd fc24 023d
000003b0: df58 963d f09d 0b3d fbf2 9a3c 5957 06bd
000003c0: af71 973b 41a3 8e3d 60ba 6ebd bf84 14bd
000003d0: 444f 1ebd 36b5 bb3c bcc6 143c 4574 b4bc
000003e0: 7cf1 853d 83fd 0a3d 80e9 93bd f57e 7d3d
000003f0: 14f1 a23c cac5 9b3d 5dbe 71bd ed2c 933c

item_embedding.weight f4 [1682, 64]
0.018278016 0.011362217 0.005127927 0.04202946 0.02621418 -0.04957737 -0.056553125 0.05962546
-0.034420054 0.00856714 -0.020880038 -0.039402835 0.0003901885 0.015331715 -0.0025080242 0.021330504
0.043427944 -0.006238157 -0.019473119 -0.055748608 -0.029290205 0.007005023 -0.0006050247 -0.030865422
-0.037181128 0.02517715 -0.039565958 -0.048205618 -0.012611411 -0.0014899591 0.03830241 0.03405331
-0.030322406 -0.025813617 0.028296368 0.0036440021 -0.015414031 0.043310072 -0.030849002 0.0421451
-0.043693572 0.0022489345 0.032238547 0.057797465 -0.0315398 0.010084173 0.048606794 0.0026679137
0.03823 -0.017624063 0.0377378 -0.017604604 -0.052239664 0.026205262 -0.055332948 0.033751804
-0.017471537 -0.043433595 -0.04807081 0.026075624 -0.024254438 -0.030193651 0.048409164 -0.03802619
0.037534364 -0.03296887 0.037285823 0.026008667 -0.048935503 -0.004611953 0.0124286935 0.012776165
0.015043826 -0.03258815 0.04864752 0.009422185 -0.05305031 0.032076254 0.051203497 0.059494186
8.7682725e-05 -0.043366574 0.05882617 -0.05914181 -0.014688013 0.030511335 0.024905805 0.039405387
0.030307395 0.009722925 -0.048454426 -0.003190187 -0.022428527 0.04745997 0.022004323 0.025819158
-0.01951918 0.01532621 -0.056613263 -0.042975266 0.0071864366 -0.031535514 0.0031095804 0.052747406
0.0061367387 0.047598224 -0.0499186 -0.0040100617 0.055405427 0.040825658 -0.036174558 -0.042748976
0.006361989 -0.049856223 -0.016550787 0.031124067 0.00681099 0.036470946 0.0151850395 0.01651825
-0.047372825 0.046498142 0.033469096 0.054845378 -0.030051231 -0.0063758804 -0.025922904 -0.059054513
-0.015335426 0.05597991 0.023241483 0.04459063 0.02667393 0.013168524 0.007983599 0.00807077
-0.041990127 0.03230905 -0.017838122 0.049376607 -0.03348813 -0.020733338 -0.038994268 -0.009599491
-0.027840791 0.0017484888 0.018247157 -0.043814585 0.02076363 0.0054768836 0.031633567 0.017091902
0.05225947 0.020512981 0.021711562 0.0048421687 0.004122829 -0.027898682 -0.02152965 -0.058177363
0.033023443 -0.008683422 -0.05740699 0.028112024 -0.054876182 -0.018338574 -0.0172806 -0.0016240737
0.026252886 -0.052775223 -0.026164677 0.015590242 0.030562237 0.056502648 -0.032607466 0.017173164
0.054220814 0.004262885 0.05362861 0.005098203 0.042725805 0.05644676 0.022989586 0.04523208
-0.03299367 -0.019734051 -0.055127162 0.0037960755 -0.05216892 -0.03447961 0.00471309 0.034079704
0.051352803 -0.025714228 0.022802018 0.051645547 0.011457352 -0.02803193 -0.03730546 -0.0017225272
0.011357066 0.029172793 -0.014962489 0.045168184 0.036178924 0.014786398 -0.010705172 0.0066678813
-0.0008649653 -0.026136214 0.031917844 -0.04310353 -0.03384945 0.04363119 -0.04697027 0.045590553
0.025928916 0.025372209 -0.044578947 -0.053006716 0.00091734703 -0.01809605 -0.0060620517 -0.047579914
0.005429981 0.03225199 0.021792753 0.0064442386 0.02665003 -0.03225217 -0.048899774 0.0038929272
0.02518333 0.05889648 0.023557961 -0.009889443 -0.017511694 0.014253219 -0.025322791 0.01636402
-0.033792652 -0.0077988096 -0.043304898 -0.04505552 0.05086875 0.03004016 -0.03872899 -0.051703878
0.048895113 0.009313558 0.054969702 0.028489409 -0.012275955 0.0024194724 -0.007401755 -0.016895918
00000000: c7bb 953c 9828 3a3c 2b08 a83b 1527 2c3d
00000010: 1fbf d63c a411 4bbd 40a4 67bd d439 743d
00000020: 0bfc 0cbd 315d 0c3c 9d0c abbc de64 21bd
00000030: 3792 cc39 e031 7b3c aa5d 24bb 4fbd ae3c
00000040: 80e1 313d 7469 ccbb 1786 9fbc a758 64bd
00000050: 03f2 efbc 648a e53b 859a 1eba 7bd9 fcbc
00000060: 3d4b 18bd 4f40 ce3c ea0f 22bd 4173 45bd
00000070: 17a0 4ebc bb4a c3ba fde2 1c3d 7c7b 0b3d
00000080: b266 f8bc 1477 d3bc c9cd e73c 36d0 6e3b
00000090: 228b 7cbc e765 313d 0cb7 fcbc 57a0 2c3d
000000a0: 08f8 32bd dc62 133b 910c 043d 09bd 6c3d
000000b0: e12f 01bd 1638 253c eb17 473d 2ad8 2e3b
000000c0: 0f97 1c3d 5760 90bc f492 1a3d 8837 90bc
000000d0: 42f9 55bd 6bac d63c cda4 62bd 553f 0a3d
000000e0: 7820 8fbc 6de7 31bd e6e5 44bd 8c9c d53c
000000f0: 3eb1 c6bc ad58 f7bc b048 463d 5ac1 1bbd
00000100: a2bd 193d 5e0a 07bd 05b9 183d 2110 d53c
00000110: 9870 48bd de1f 97bb b8a1 4b3c 1f53 513c
00000120: 617a 763c 277b 05bd 9f42 473d 825f 1a3c
00000130: 484b 59bd 6462 033d c2ba 513d 2db0 733d
00000140: 4ee2 b738 26a1 31bd b6f3 703d af3e 72bd
00000150: fea5 70bc e8f2 f93c 4207 cc3c 8b67 213d
00000160: 3747 f83c e74c 1f3c 2678 46bd 7512 51bb
00000170: 08bc b7bc 6365 423d 6942 b43c b382 d33c
00000180: b0e6 9fbc c91a 7b3c 4fe3 67bd d506 30bd
00000190: 337c eb3b 622b 01bd 1aca 4b3b aa0d 583d
000001a0: b216 c93b 5bf6 423d 7277 4cbd d666 83bb
000001b0: cdf0 623d ce38 273d c62b 14bd 8d19 2fbd
000001c0: 3b78 d03b 0a36 4cbd 8495 87bc e6f7 fe3c
000001d0: ba2e df3b 8f62 153d acca 783c 4851 873c
000001e0: 020a 42bd d674 3e3d e416 093d 8ca5 603d
000001f0: 002e f6bc c3ec d0bb 455c d4bc 25e3 71bd
00000200: 7041 7bbc 314b 653d ec64 be3c aaa4 363d
00000210: 4983 da3c cbc0 573c a4cd 023c 433b 043c
00000220: d7fd 2bbd 7f56 043d 4121 92bc 203f 4a3d
00000230: d92a 09bd f6d8 a9bc 74b8 1fbd 2f47 1dbc
00000240: 5f12 e4bc 8c2d e53a 107b 953c ec76 33bd
00000250: 7d18 aa3c 6e77 b33b 3392 013d 5104 8c3c
00000260: 070e 563d d70a a83c 72dc b13c 0eab 9e3b
00000270: cc18 873b c78b e4bc f35e b0bc 634b 6ebd
00000280: 9743 073d e944 0ebc 9823 6bbd 304b e63c
00000290: d9c5 60bd c73a 96bc 0b90 8dbc dfde d4ba
000002a0: 4b10 d73c d52a 58bd 4e57 d6bc 376e 7f3c
000002b0: a85d fa3c 526f 673d 688f 05bd bcae 8c3c
000002c0: a516 5e3d acaf 8b3b aca9 5b3d d40e a73b
000002d0: 4101 2f3d b834 673d a854 bc3c 4645 393d
000002e0: 5f24 07bd 4ea9 a1bc 05cd 61bd 94c7 783b
000002f0: 14af 55bd 7e3a 0dbd 4470 9a3b 2997 0b3d
00000300: 5157 523d a5a6 d2bc 4ccb ba3c 488a 533d
00000310: 9eb7 3b3c 38a3 e5bc 9ccd 18bd 6cc6 e1ba
00000320: fd12 3a3c c8fb ee3c 3a25 75bc 4602 393d
00000330: 5a30 143d a642 723c bf64 2fbc 3e7e da3b
00000340: d7be 62ba 9d1b d6bc 49bc 023d 548d 30bd
00000350: b9a5 0abd 9eb6 323d e663 40bd 29bd 3a3d
00000360: e168 d43c 61d9 cf3c 6a98 36bd 921d 59bd
00000370: 1e7a 703a 2b3e 94bc 2da4 c6bb 28e3 42bd
00000380: fbed b13b aa1a 043d b786 b23c 312a d33b
00000390: 2a51 da3c da1a 04bd 214b 48bd 7b20 7f3b
000003a0: 454d ce3c 6f3d 713d a0fc c03c 5507 22bc
000003b0: af74 8fbc 5586 693c be71 cfbc d60d 863c
000003c0: 2a6a 0abd 288d ffbb 7a60 31bd 238c 38bd
000003d0: c05b 503d c816 f63c 4aa2 1ebd 72c7 53bd
000003e0: 3e46 483d e597 183c e927 613d 9f62 e93c
000003f0: 1621 49bc 0390 1e3b 6c8a f2bb 4f69 8abc
