models/13112021_0032_ngcf_Movielens-100k.pt (torch, 741575 bytes, 10 tensors)

GC_Linear_list.0.weight f4 [64, 64]
0	0xbd772f9c	-0.06034814
1	0x3d4d2055	0.050079662
2	0x3cd78071	0.026306363
3	0x3d87525d	0.066075064
4	0x3be5e4e4	0.0070158113
5	0xbc85d40e	-0.016336467
6	0xbdc10923	-0.09425571
7	0xbd898e95	-0.067166485
8	0xbdf89f56	-0.12139766
9	0xbb7a4c92	-0.0038192612
10	0xbc2c8278	-0.010529153
11	0xbdd63501	-0.104593284
12	0x3d02c666	0.03192749
13	0x3dc983e4	0.09839609
14	0xbc00f24d	-0.007870269
15	0x3cc07496	0.023493093
16	0x3da8f502	0.082498565
17	0x3d223d19	0.03960905
18	0xbb8d180e	-0.004305846
19	0xbb0dfce4	-0.0021665627
20	0x3c1bf14b	0.009517978
21	0xbde06e48	-0.109585345
22	0x3dcbe1ac	0.09955153
23	0x3deb602a	0.11492951
24	0xbdca7322	-0.09885241
25	0xbd3e28cc	-0.046425626
26	0xbcd29030	-0.02570352
27	0xbda138fc	-0.07872197
28	0x3dd67de0	0.104732275
29	0xbd62426a	-0.05523912
30	0x3d3843e6	0.044986628
31	0x3dbf71ff	0.09347915
32	0x3d886181	0.066592224
33	0xbd922790	-0.07136452
34	0xbcdf82c4	-0.027284034
35	0x3dc10f7b	0.09426781
36	0xbda662dc	-0.08124325
37	0xbbdc98a4	-0.0067320634
38	0x3d983a60	0.07433009
39	0x3dc89f58	0.097960174
40	0x3df6ba11	0.12047208
41	0xbc2ec6cf	-0.010667517
42	0x3dc0185d	0.09379647
43	0xbd958bc8	-0.07302052
44	0x3c70ec16	0.014704725
45	0x3de6115b	0.11233779
46	0xbd63c190	-0.055604517
47	0x3dc84d3f	0.097803585
48	0x3da5e14e	0.08099614
49	0xbcc3b5ea	-0.023890454
50	0xbd9459ca	-0.072436884
51	0x3ddd9a84	0.10820487
52	0x3bd66c6c	0.0065436866
53	0xbd5cf76f	-0.05394691
54	0x3ccb1a59	0.024792837
55	0x3d84cd12	0.064844266
56	0x3d8779fa	0.06615062
57	0x3c2acd8a	0.010424981
58	0x3d840a89	0.06447322
59	0xbdb2d024	-0.08731106
60	0xbdc977d7	-0.09837311
61	0xbd8a9a46	-0.067677066
62	0xbd8cf01e	-0.06881736
63	0x3dd01fae	0.101622924
64	0x3d9beff9	0.076141305
65	0x3c414e77	0.011798493
66	0x3dd52816	0.104080364
67	0xbb899a9d	-0.0041993395
68	0x3dff896f	0.12477385
69	0xbddf6485	-0.109078445
70	0xbdf0b5e6	-0.117534444
71	0xbd839cd5	-0.06426398
72	0x3c946f39	0.018119441
73	0xbdb48b53	-0.088156365
74	0xbd9a7bed	-0.07543168
75	0x3db6f577	0.089335375
76	0xbdf1549a	-0.117837146
77	0xbe00a52d	-0.1256301
78	0xbbf80a09	-0.0075695557
79	0x3cacfe72	0.021117423
80	0xbd34ee67	-0.04417267
81	0xbd556864	-0.052101508
82	0xbd8618a8	-0.065476716
83	0xbe002b26	-0.1251646
84	0x3ce8df6c	0.028426848
85	0x3dab0c00	0.08351898
86	0xbce04d8f	-0.027380733
87	0x3d02dbd8	0.03194794
88	0xbdc890b0	-0.09793222
89	0x3df6501a	0.12026997
90	0xbdf5ef7a	-0.12008567
91	0xbddb6968	-0.10713464
92	0x3d128d34	0.035779193
93	0x3d28e285	0.04123165
94	0xbdee679c	-0.11640856
95	0xbdc82020	-0.09771752
96	0x3d67b082	0.056564815
97	0xbde121cb	-0.109927736
98	0x3dfbcce0	0.12294936
99	0xbe07e614	-0.13271362
100	0xbdc16ebe	-0.094449505
101	0xbb5ddf4a	-0.0033855014
102	0x3d1370b9	0.035996173
103	0xbd2d7d4f	-0.04235583
104	0x3b1edcac	0.0024240417
105	0x3d881bc5	0.066459216
106	0x3d4d88a4	0.05017914
107	0x3d988a34	0.07448235
108	0x3d9b1a3d	0.07573364
109	0xbd54b446	-0.051929735
110	0xbd7fa536	-0.062413417
111	0xbdefac49	-0.11702783
112	0xbd293e4d	-0.04131918
113	0x3dbaeb0d	0.09126864
114	0x3dbab6bc	0.09116885
115	0x3db87a2d	0.09007678
116	0xbde6d182	-0.11270429
117	0x3de21480	0.11039066
118	0x3d575835	0.052574355
119	0xbdf06af5	-0.117391504
120	0xbd320026	-0.043457173
121	0xbcdb13cc	-0.026742838
122	0x3d1ec76b	0.0387644
123	0x3e076fb1	0.132262
124	0xbd175c70	-0.03695339
125	0x3d721323	0.05910028
126	0xbdcaf303	-0.09909632
127	0xbdb5572a	-0.08854516
128	0xbd899cbe	-0.06719349
129	0x3dc067f6	0.09394829
130	0x3d88d656	0.06681506
131	0xbd96a0a1	-0.07354856
132	0xbdeeca7b	-0.11659714
133	0x3bd873d1	0.0066056033
134	0x3de30dd2	0.110866204
135	0xbda13e7d	-0.07873247
136	0x3dfba804	0.12287906
137	0x3d182f67	0.03715458
138	0x3cd68fe6	0.026191663
139	0xbddd9bbf	-0.10820722
140	0xbdb31dab	-0.08745893
141	0x3de02d7d	0.10946176
142	0x3d654bbb	0.055980425
143	0xbc0c827f	-0.008576035
144	0xbb7165df	-0.0036834402
145	0xbde207a4	-0.110366136
146	0x3d46ce66	0.04853668
147	0x3df194a7	0.11795931
148	0xbd2c9a5e	-0.042139404
149	0x3d439d22	0.047757275
150	0x3dda5948	0.1066156
151	0xbdc6596a	-0.09685023
152	0xbcc344c1	-0.023836495
153	0x3d1f3f6b	0.03887884
154	0x3df4523e	0.11929749
155	0x3ce2abf1	0.027669879
156	0xbd88f03b	-0.06686445
157	0x3b162bf7	0.0022914389
158	0xbc128d35	-0.008944799
159	0x3d5cb986	0.053887866
160	0xbd8fc8de	-0.07020734
161	0x3d439b96	0.0477558
162	0xbd139152	-0.03602726
163	0x3d1667ce	0.03672009
164	0xbd336db2	-0.043805785
165	0xbd8f65d6	-0.070018455
166	0xbdaa857c	-0.083262414
167	0xbdb9e809	-0.0907746
168	0xbdcd0612	-0.100109234
169	0x3d47858a	0.048711337
170	0xbdf55539	-0.119791456
171	0xbdd3d1da	-0.103427604
172	0xbce8d787	-0.028423084
173	0x3d762b93	0.06010015
174	0xbdc0c5d1	-0.094127305
175	0xbbcfdb7b	-0.006343303
176	0xbdaac851	-0.083389886
177	0x3d7c0854	0.06153138
178	0x3b144b6a	0.0022627958
179	0xbdb990f4	-0.09060851
180	0xbd477c3c	-0.048702464
181	0xbdbe5c23	-0.092949174
182	0xbdb14ea3	-0.08657577
183	0xbd471c0f	-0.048610743
184	0xbda94abd	-0.08266208
185	0x3decc043	0.115601085
186	0xbdcba21d	-0.0994303
187	0x3d92f91a	0.071764186
188	0xbdea45ec	-0.11439118
189	0xbd7d8e59	-0.06190333
190	0xbc78b908	-0.015180834
191	0xbe008ba9	-0.12553276
192	0xbd677f1d	-0.05651771
193	0x3d5277ce	0.051383786
194	0xbdf4a857	-0.11946171
195	0x3ce5e067	0.028061105
196	0x3d27f2a4	0.041002885
197	0x3c8874ab	0.016657194
198	0x3de73229	0.11288864
199	0xbc52a52f	-0.012856766
200	0x3d419e31	0.047270004
201	0xbdb5a36c	-0.08869061
202	0xbc8ef362	-0.017450038
203	0x3dc6fcea	0.09716208
204	0xbcce8fcb	-0.02521505
205	0x3d437006	0.047714256
206	0xbdc8386b	-0.09776386
207	0xbcc732ff	-0.024316309
208	0x3d9c5e9b	0.07635232
209	0xbd9bf41c	-0.076149195
210	0xbdb0f827	-0.08641081
211	0x3ccf8697	0.025332732
212	0x3e027dd0	0.12743306
213	0x3d76931f	0.0601989
214	0xbdc6496b	-0.09681972
215	0x3b25e012	0.0025310558
216	0x3dffaf21	0.12484575
217	0xbd9a3e95	-0.07531468
218	0xbdbe502d	-0.09292636
219	0xbdb0d06d	-0.08633504
220	0xbcd0f39d	-0.025506789
221	0xbc032873	-0.008005249
222	0x3d54dacd	0.051966477
223	0x3db0e478	0.08637327
224	0x3d76011e	0.06005966
225	0x3d63332e	0.05546873
226	0xbc68ff23	-0.014220986
227	0x3de7961e	0.113079295
228	0xbca5883b	-0.020206561
229	0xbdeaeb4f	-0.11470663
230	0x3cc943e9	0.024568515
231	0xbd355f89	-0.044280563
232	0xbdebae27	-0.11507826
233	0x3c946d39	0.018118488
234	0xbde5b28f	-0.11215698
235	0xbcd7d1b4	-0.026345111
236	0xbd25b38d	-0.040454436
237	0xbe01d5f4	-0.12679273
238	0x3df2b160	0.11850238
239	0x3dba193f	0.090868466
240	0x3dd8b617	0.10581606
241	0x3d884749	0.066542216
242	0x3cd24d3c	0.025671594
243	0xbdf1452d	-0.11780772
244	0x3d043997	0.032281484
245	0x3ccbc2b8	0.024873123
246	0x3d609d56	0.054837547
247	0xbd2ee653	-0.042700123
248	0x3de2ecb3	0.11080303
249	0xbd3a39c8	-0.04546526
250	0x3e081447	0.13288985
251	0x3dd27e07	0.10277944
252	0x3dc6eb6a	0.097128704
253	0x3c571836	0.013128331
254	0xbdbe833c	-0.09302375
255	0x3d844747	0.064589076

GC_Linear_list.0.bias f4 [64]
0	0xbc59e56f	-0.01329933
1	0x3d454eb3	0.048170757
2	0xbd7f5766	-0.06233921
3	0x3da9cb4a	0.082907274
4	0xbd98b8c7	-0.074571185
5	0xbdb85843	-0.090012096
6	0x3deef336	0.116674826
7	0x3dd0f0f6	0.1020221
8	0x3b94519b	0.0045263297
9	0x3ca8feab	0.020629248
10	0xbd892f79	-0.06698508
11	0x3dd7bef9	0.10534472
12	0xbd6bec3d	-0.05759834
13	0x3d911276	0.07083599
14	0x3b2599a4	0.002526858
15	0x3d92c5f2	0.07166661
16	0x3cb5741e	0.022150096
17	0xbd94ac9d	-0.07259486
18	0x3d9ee4a8	0.077584565
19	0x3ddb253e	0.10700463
20	0x3cec7706	0.028865349
21	0xbd299180	-0.041398525
22	0xbdc21ed7	-0.094785385
23	0x3dd3ea82	0.10347463
24	0x3dc54f42	0.09634258
25	0xbd97c413	-0.07410445
26	0x3df4e14a	0.11957033
27	0xbd9c8883	-0.07643225
28	0xbdf558d8	-0.11979836
29	0xbc4f290f	-0.0126440665
30	0x3d96e85a	0.07368536
31	0xbdf2e26d	-0.118595935
32	0x3b6261b8	0.0034543108
33	0xbdcdc169	-0.10046656
34	0x3ce55f34	0.027999498
35	0xbd1864fd	-0.037205685
36	0x3d8748a6	0.066056535
37	0x3c966022	0.018356387
38	0x3cf48629	0.029849129
39	0x3dc929da	0.09822436
40	0xbdcb0fbd	-0.09915111
41	0xbca1f143	-0.019768363
42	0xbc518898	-0.012788914
43	0x3bf29965	0.00740354
44	0xbd95251b	-0.07282468
45	0x3dcd6dbd	0.100306965
46	0x3dfb44f7	0.122690134
47	0xbdddf5e5	-0.10837916
48	0x3de90232	0.11377372
49	0x3db773e4	0.08957651
50	0xbded6886	-0.11592202
51	0x3d5b7563	0.053578746
52	0x3d9b13ec	0.07572159
53	0x3d7dbf15	0.06194981
54	0x3db69754	0.08915582
55	0xbdf7e5f4	-0.12104407
56	0xbd876090	-0.06610215
57	0xbcb27777	-0.02178548
58	0x3de4b3a8	0.11167079
59	0xbad7da41	-0.0016468243
60	0x3da3317c	0.07968423
61	0xbdc4d341	-0.09610606
62	0x3dc754e9	0.09732992
63	0x3cf3278f	0.029681949

GC_Linear_list.1.weight f4 [64, 64]
0	0xbd76c4ab	-0.06024615
1	0x3ce1c54d	0.0275599
2	0x3dc92d1a	0.098230556
3	0xbd4357b5	-0.047691066
4	0x3d93e3e2	0.072211996
5	0x3de75e9f	0.112973444
6	0x3ca40a47	0.020024432
7	0x3df3d873	0.11906519
8	0xbd8ca1c7	-0.06866794
9	0xbb611b4c	-0.0034348546
10	0x3d7b9c0b	0.06142811
11	0x3ce341dd	0.027741367
12	0x3ce92107	0.028458131
13	0xbdc63cb3	-0.09679546
14	0xbc83a217	-0.016068501
15	0xbd7892e9	-0.06068698
16	0xbc03c837	-0.00804334
17	0xbdb64e1b	-0.08901616
18	0x3d864c22	0.0655749
19	0xbd90a3e1	-0.070625074
20	0x3d35233b	0.04422305
21	0x3d9634a4	0.07334259
22	0xbcd48781	-0.02594352
23	0xbdb36c45	-0.08760885
24	0x3e02ad31	0.1276138
25	0x3cdde082	0.027084593
26	0x3dac6f1d	0.08419631
27	0x3d0e9e40	0.034818888
28	0x3be4f999	0.006987762
29	0xbd822a2f	-0.06355702
30	0x3d22fa4c	0.039789483
31	0xbdc89fb8	-0.09796089
32	0xbd7a3785	-0.061088104
33	0xbd82f031	-0.06393469
34	0x3dc88ecf	0.097928636
35	0xbde23bdf	-0.11046576
36	0x3cf40d04	0.029791363
37	0xbd9de4eb	-0.07709678
38	0x3d95a990	0.07307732
39	0xbddcc54d	-0.1077982
40	0xbc9b97b4	-0.018993236
41	0xbdadfc52	-0.08495392
42	0xbbd52df5	-0.0065057226
43	0xbd8c0232	-0.06836356
44	0x3dad8b0e	0.08473788
45	0xbdc121d2	-0.09430279
46	0xbde94cd3	-0.11391606
47	0x3dc496dc	0.09599087
48	0x3be01003	0.0068378462
49	0xbdbd1245	-0.09232
50	0xbd739b11	-0.059474055
51	0xbddf1991	-0.10893548
52	0x3dc55d4a	0.09636934
53	0xbd668b3d	-0.05628513
54	0xbcaf1d42	-0.021376256
55	0x3de9e555	0.11420695
56	0x3dedbb0b	0.11607941
57	0xbdaf947c	-0.08573243
58	0x3d86446d	0.0655602
59	0xbdc4861c	-0.09595892
60	0x3ac84210	0.0015278477
61	0xbd88f44c	-0.06687221
62	0x3d8850d3	0.06656041
63	0x3dfcbcb4	0.1234068
64	0xbdfe220d	-0.124088384
65	0xbdd7cf2c	-0.10537562
66	0xbe001c6c	-0.12510842
67	0xbc9fa10e	-0.019485977
68	0x3d02afff	0.031906124
69	0x3d57b8dd	0.052666534
70	0x3c28f748	0.010312863
71	0x3d983b8e	0.07433234
72	0x3dbba056	0.09161441
73	0x3d20023f	0.039064642
74	0x3ba6559d	0.005076124
75	0xbc6669a0	-0.014063269
76	0x3c935001	0.017982485
77	0x3df8b807	0.121444754
78	0x3d5782d8	0.052615017
79	0xbc9667bc	-0.018360011
80	0xbd988e80	-0.07449055
81	0x3dc2f161	0.095186956
82	0x3dc62a55	0.09676043
83	0x3c142f73	0.009044516
84	0x3d5d277c	0.053992733
85	0xbd1036dc	-0.035208568
86	0xbde0b246	-0.10971503
87	0x3ce66146	0.028122555
88	0x3dad91a2	0.08475043
89	0xbd020ede	-0.03175246
90	0x3dda78bb	0.10667559
91	0x3d86d186	0.06582932
92	0x3ddb1648	0.10697609
93	0xbda8d531	-0.08243788
94	0x3df10029	0.11767609
95	0x3d6fddc1	0.05856109
96	0xbdf9370c	-0.121687025
97	0xbd04ef40	-0.03245473
98	0xbd49bff6	-0.049255334
99	0x3d1c4f2e	0.03816145
100	0xbde65728	-0.112470925
101	0x3dca0cdc	0.09865734
102	0x3dd47469	0.10373766
103	0x3da84938	0.0821709
104	0x3d2c86d6	0.042120777
105	0x3d0bb71a	0.034110166
106	0x3dc44d48	0.09585053
107	0xbdcf2f2b	-0.101164185
108	0x3de7ace9	0.11312277
109	0x3caef75e	0.021358188
110	0xbd35ed58	-0.0444158
111	0xbd1b7b74	-0.03795953
112	0xbdcff36b	-0.1015385
113	0x3dc569ed	0.09639344
114	0x3bf1ee26	0.007383126
115	0xbda4300f	-0.08016979
116	0x3d9a15e8	0.075237095
117	0x3c777da9	0.015105643
118	0xbcdc3758	-0.026881859
119	0xbd73283f	-0.059364554
120	0xbde36f4a	-0.11105211
121	0xbd0bdb9b	-0.03414498
122	0xbdd0fc37	-0.10204356
123	0xbde1001d	-0.1098635
124	0x3d7cf9a0	0.0617615
125	0x3d26c62e	0.040716343
126	0xbd96928d	-0.07352171
127	0x3cc046d8	0.023471281
128	0xbcfa02ce	-0.030518916
129	0xbd057dce	-0.03259068
130	0xbe001dc1	-0.1251135
131	0xbdf486b9	-0.11939759
132	0xbdebfcbd	-0.115228154
133	0x3cc82e61	0.024436178
134	0xbad58a08	-0.0016291747
135	0xbdaf7dba	-0.08568902
136	0x3d055011	0.03254706
137	0xbdaed3f8	-0.085365236
138	0xbc0df635	-0.008664657
139	0xbd0deb5b	-0.03464828
140	0x3d0d5a2e	0.03450983
141	0xbc519d30	-0.012793824
142	0x3da3be27	0.07995253
143	0x3b8c3c4f	0.0042796503
144	0x3ddf8347	0.10913711
145	0x3d5e8932	0.05433006
146	0xbd720270	-0.059084356
147	0xbdd8b555	-0.10581461
148	0x3db78e91	0.08962739
149	0xbd417da1	-0.04723895
150	0xbd4ee675	-0.05051275
151	0x3cb32e7f	0.021872757
152	0x3d8380a2	0.06421019
153	0xbd472209	-0.048616443
154	0x3dacdc15	0.08440415
155	0xbc001fc1	-0.007820071
156	0xbd75ab2b	-0.05997769
157	0xbdc17746	-0.09446578
158	0x3da07110	0.07834065
159	0x3dc1ddac	0.09466109
160	0x3c92abf4	0.01790426
161	0xbdfa7b00	-0.12230492
162	0xbc55053c	-0.013001736
163	0xbdb89e0a	-0.090145186
164	0xbc9f0cac	-0.019415222
165	0xbcaca3b1	-0.021074148
166	0xbae6664e	-0.0017578097
167	0x3cbc23e7	0.022966338
168	0xbcd3d046	-0.025856148
169	0x3d82917e	0.06375407
170	0xbd35e480	-0.044407368
171	0xbb3b5428	-0.0028584097
172	0x3d7cca35	0.061716277
173	0x3d17675e	0.036963813
174	0xbda67b9e	-0.08129047
175	0xbba852a1	-0.0051368033
176	0xbdfc3d51	-0.12316383
177	0xbde51029	-0.11184723
178	0xbb64ddad	-0.0034922168
179	0x3da4f6ff	0.08054923
180	0x3d3119ea	0.043237604
181	0x3d4029e3	0.046914946
182	0xbd51bef7	-0.05120751
183	0x3d16bcde	0.03680121
184	0x3db56322	0.08856799
185	0x3d76654a	0.06015519
186	0xbd905ffd	-0.07049558
187	0x3c53cffa	0.012928003
188	0xbdac215b	-0.084047996
189	0xbdf35e15	-0.11883179
190	0x3c3c7c69	0.011504271
191	0xbd4f22ac	-0.050570175
192	0x3dc88d7e	0.097926125
193	0xbd9743ed	-0.07386003
194	0x3dd84007	0.10559087
195	0xbd439d87	-0.04775765
196	0xbdab8ba6	-0.08376245
197	0x3d9dd1ca	0.0770603
198	0xbd8593be	-0.0652232
199	0x3dea27c6	0.114333674
200	0xbd490963	-0.049081217
201	0x3dbd481c	0.092422694
202	0x3d9419b7	0.07231467
203	0xbccd118f	-0.025032787
204	0xbd8bc037	-0.068237714
205	0xbdd565f5	-0.104198374
206	0x3dfd29d4	0.12361494
207	0x3d5f4c22	0.054515965
208	0xbdce46ff	-0.10072135
209	0xbd1a9b4c	-0.03774576
210	0x3d011c6a	0.03152124
211	0xb9e480f5	-0.0004358363
212	0x3c8ef09c	0.017448716
213	0xbdb04a49	-0.08607919
214	0xbda3d64f	-0.079998605
215	0x3beb58dd	0.007182224
216	0x3c019520	0.007909089
217	0xbddf4773	-0.109023
218	0x3cc0636d	0.02348491
219	0xbda20e13	-0.07912841
220	0xbbb2c24b	-0.0054552904
221	0xba8a2d86	-0.0010542131
222	0xbda50dd1	-0.08059276
223	0x3ca2345f	0.019800363
224	0x3de2f341	0.11081553
225	0x3d2200f6	0.039551698
226	0x3dcb4f5f	0.09927248
227	0xbd7e56e2	-0.062094577
228	0xbd57570b	-0.052573245
229	0xbd5cbbe2	-0.053890117
230	0x3d4d3794	0.05010183
231	0xbddf6f67	-0.1090992
232	0xbd25e4d3	-0.040501427
233	0x3da1e8a5	0.079057015
234	0x3d5b305a	0.05351291
235	0xbc8f5725	-0.017497608
236	0xbdf628f5	-0.12019531
237	0xbd3b1f78	-0.045684308
238	0x3ca182b9	0.019715654
239	0x3abd9088	0.0014462629
240	0xbd682c4e	-0.056682877
241	0xbda0809c	-0.0783703
242	0xbdb3ab7b	-0.08772942
243	0xbc9a29a6	-0.018818688
244	0xbdf064d4	-0.117379814
245	0xbd9235fb	-0.07139202
246	0x3de3fbc2	0.11132003
247	0xbda25eeb	-0.079282604
248	0x3d394b03	0.045237552
249	0x3d14c6c7	0.03632238
250	0x3bee3205	0.0072691464
251	0x3def00f4	0.11670104
252	0x3c88dbce	0.016706374
253	0x3db768af	0.08955514
254	0x3dc2a97f	0.09504985
255	0xbd3fc9f9	-0.046823476

GC_Linear_list.1.bias f4 [64]
0	0xbd8f8e85	-0.07009605
1	0xbd32bb0a	-0.043635406
2	0xbd156585	-0.03647377
3	0xbdf534a8	-0.11972934
4	0x3d55f5aa	0.052236237
5	0xbd86284d	-0.065506555
6	0xbc883203	-0.01662541
7	0xbde8ba96	-0.113637134
8	0x3cc726a0	0.02431041
9	0xbdbe5545	-0.092936076
10	0x3dfc918b	0.123324476
11	0x3cf20fda	0.029548574
12	0x3d4d830c	0.050173804
13	0x3d34b10b	0.044114154
14	0xbdbfb7af	-0.09361207
15	0x3cedd755	0.029033342
16	0xbd312c97	-0.043255415
17	0x3d8b8be9	0.06813795
18	0x3d4e04ea	0.050297655
19	0xbc84df77	-0.016219838
20	0x3c2d93b5	0.010594298
21	0x3c7995a3	0.01523343
22	0x3d83b763	0.064314626
23	0xbde353c5	-0.11099962
24	0xbd564636	-0.052313052
25	0xbcb52881	-0.02211404
26	0x3c908197	0.017639918
27	0x3d9898fa	0.07451053
28	0x3c40af8e	0.0117606055
29	0xbdc3a38d	-0.09552679
30	0x3d80c3bd	0.06287334
31	0xbc538368	-0.012909748
32	0xbd5d80c7	-0.05407789
33	0xbd518ae5	-0.05115785
34	0xbdb127c6	-0.08650164
35	0xbdd2f451	-0.10300506
36	0x3dca5f86	0.09881501
37	0x3ddd80c2	0.10815574
38	0x3d6633cd	0.056201745
39	0x3ca3a59d	0.019976432
40	0xbd4780df	-0.048706885
41	0x3db12229	0.08649094
42	0x3dcac2f0	0.099004626
43	0xbd200f43	-0.039077055
44	0x3dc87b0e	0.09789096
45	0x3df8b5d1	0.12144054
46	0x3d9de907	0.07710462
47	0xbd1ee738	-0.038794726
48	0x3dc46c1c	0.09590933
49	0x3dc3a2de	0.09552549
50	0x3dbd239c	0.092353076
51	0x3dcca666	0.099926755
52	0x3d0ef1e3	0.03489865
53	0xbdeec51d	-0.1165869
54	0xbda4ef8a	-0.08053501
55	0xbdb3b3a0	-0.08774495
56	0xbd0ab5e4	-0.03386487
57	0xbd3e1ba6	-0.046413086
58	0x3d27c6ed	0.040961195
59	0xbd0726b4	-0.032995895
60	0xbdd4cee4	-0.10391024
61	0x3d7e8601	0.062139515
62	0x3c655b17	0.013998768
63	0x3ca565e6	0.02019019

Bi_Linear_list.0.weight f4 [64, 64]
0	0x3db8050d	0.08985338
1	0x3dac96f2	0.08427228
2	0x3dac5b0e	0.08415805
3	0xbdb75427	-0.08951598
4	0x3d0f71ef	0.035020765
5	0x3cb246b6	0.021762233
6	0xbda0549d	-0.07828639
7	0xbd6044fd	-0.054753292
8	0xbdce8a38	-0.10084957
9	0x3db5d709	0.08878905
10	0xbdec7683	-0.11546042
11	0xbd6dc3e1	-0.058048133
12	0x3dfd0089	0.12353618
13	0x3db33ffd	0.08752439
14	0xbc26339c	-0.010144141
15	0x3d5234be	0.05131983
16	0xbc816ae2	-0.015798036
17	0x3d2ef40c	0.04271321
18	0xbce4c5f0	-0.027926415
19	0x3d8f11f2	0.06985845
20	0x3cb84c90	0.022497445
21	0xbc739678	-0.0148674175
22	0x3cc5f63a	0.024165262
23	0xbc355a34	-0.011068869
24	0x3df31671	0.11869515
25	0xbd8fc115	-0.07019249
26	0x3c56c8e5	0.01310942
27	0xbcbddc11	-0.023176225
28	0xbd9a6156	-0.075380966
29	0x3d279a29	0.040918503
30	0xbdf99d32	-0.12188186
31	0x3d39b824	0.045341626
32	0x3de74300	0.11292076
33	0x3db9b890	0.09068406
34	0xbd8cd406	-0.06876378
35	0xbcf89c5a	-0.030347992
36	0xbdef5140	-0.11685419
37	0x3da0fc96	0.07860677
38	0xbdebd3bd	-0.11514995
39	0xbde87cff	-0.11351966
40	0xbbfbe195	-0.0076868036
41	0x3d77090f	0.060311373
42	0xbd6ad3f4	-0.05733104
43	0xbd5d07e6	-0.05396261
44	0x3d7b999f	0.0614258
45	0x3ce7e469	0.028307157
46	0x3ddf2ea6	0.10897569
47	0x3dc566d3	0.09638753
48	0x3d89174e	0.06693898
49	0x3c96aac9	0.018391984
50	0xbd39ad00	-0.045331
51	0x3d76e292	0.060274668
52	0x3b05b961	0.0020404684
53	0xbdf9f52b	-0.12204965
54	0xbcb9242f	-0.022600261
55	0xbc0bd851	-0.008535461
56	0x3de63b1f	0.11241745
57	0xbde4ef65	-0.111784734
58	0x3dcf053a	0.10108419
59	0x3cb684f8	0.022280201
60	0xbdf0918f	-0.11746513
61	0xbd8163b4	-0.06317845
62	0xbc4054c3	-0.011738959
63	0xbdae8382	-0.08521177
64	0x3d39cb22	0.04535974
65	0xbd817253	-0.06320634
66	0xbdd42a60	-0.10359645
67	0xbcaccc7b	-0.021093598
68	0x3de27530	0.11057508
69	0x3d4aa428	0.049472958
70	0x3d02042e	0.031742267
71	0xbce42d98	-0.027853772
72	0x3d301575	0.042989213
73	0x3bb9f6c0	0.005675167
74	0x3dbef99f	0.09324955
75	0x3c2a8cb1	0.01040952
76	0x3ddeaf51	0.10873283
77	0x3d197350	0.037463486
78	0xbcd29e03	-0.025710111
79	0xbda71a3d	-0.081593014
80	0x3d43e674	0.0478272
81	0xbda236f7	-0.0792064
82	0xbd035c77	-0.032070603
83	0xbcf7fe91	-0.030272754
84	0x3dbe2aa8	0.0928548
85	0xbd8b5f3b	-0.06805273
86	0xbd70829a	-0.0587183
87	0x3dcf8a50	0.10133803
88	0xbda3b094	-0.07992664
89	0xbdf7bf09	-0.12096984
90	0xbd3faa0d	-0.046793032
91	0xbdd0ffea	-0.10205062
92	0x3d1a3fc7	0.03765848
93	0xbdbdb324	-0.09262684
94	0x3dbdffb7	0.09277289
95	0x3d580bdd	0.05274569
96	0x3d02e9a1	0.031961087
97	0x3d9ce15e	0.07660173
98	0x3d67c63a	0.056585528
99	0xb9adbeaa	-0.00033139187
100	0xbdf986ef	-0.1218394
101	0x3d957c2e	0.07299076
102	0xbde5f46f	-0.11228263
103	0xbd6a26cc	-0.057165906
104	0xbd95906e	-0.073029384
105	0xbd6e4aca	-0.058176793
106	0x3d88327d	0.06650255
107	0x3da86fee	0.08224474
108	0x3df694e6	0.12040119
109	0xbd8a0095	-0.06738392
110	0x3dc77351	0.09738792
111	0x3b94cc09	0.0045409244
112	0xbde7f306	-0.1132565
113	0xbd9db924	-0.077013284
114	0xbdfc731c	-0.12326643
115	0xbc82d43c	-0.015970342
116	0xbd9ac34d	-0.07556782
117	0x3d98e2ec	0.07465157
118	0x3dbb808f	0.0915538
119	0xbdddf7d0	-0.10838282
120	0x3df1f43c	0.11814162
121	0x3db3f2b2	0.08786525
122	0xbdfa7359	-0.12229032
123	0x3ddc193b	0.10747
124	0xbd9b5879	-0.07585234
125	0xbc621b8b	-0.013800512
126	0x3df740c3	0.12072899
127	0x3d0df766	0.034659766
128	0x3dd4a9c6	0.10383944
129	0x3b978dce	0.0046250587
130	0x3dd48ec6	0.10378794
131	0xbd68b7f7	-0.056816068
132	0x3be206ba	0.0068977745
133	0xbc3aeb91	-0.0114087025
134	0xbcd9a6bd	-0.026568765
135	0x3de3c3f6	0.11121361
136	0xbd9a3d82	-0.07531263
137	0x3db57cfa	0.08861728
138	0x3dfaad9a	0.12240143
139	0xbd15cf46	-0.036574624
140	0xbd747067	-0.059677508
141	0xbc0ba517	-0.008523247
142	0x3d617fa7	0.05505338
143	0xbd36d77f	-0.044639107
144	0xbd516e9f	-0.051130887
145	0x3cb657d2	0.022258673
146	0x3dd1367f	0.102154724
147	0x3d9c41b2	0.07629718
148	0xbdec5965	-0.11540488
149	0xbc834928	-0.016026095
150	0xbde684cb	-0.11255797
151	0x3d2f9d2f	0.04287451
152	0xbd90894e	-0.07057439
153	0x3d5f80b8	0.054566115
154	0x3d934077	0.0719003
155	0xbddea572	-0.108714
156	0x3ab17927	0.0013540135
157	0xbdb1464a	-0.08655985
158	0x3dafefca	0.08590658
159	0x3d9bb2c8	0.07602459
160	0x3c74f97e	0.014952062
161	0x3b4dda7d	0.0031410747
162	0xbc86f0bf	-0.016472219
163	0xbde2ebec	-0.11080155
164	0x3cf1526c	0.029458247
165	0xbd7ad003	-0.06123353
166	0xbcb75c68	-0.02238293
167	0xbd9e244a	-0.07721765
168	0x3d6cbb1c	0.05779563
169	0xbdee610f	-0.11639606
170	0x3c900381	0.017579796
171	0xbd81a8b2	-0.06331004
172	0x3d644386	0.055728458
173	0x3d605eb3	0.054777812
174	0xbdb0df1f	-0.08636307
175	0xbd0bae40	-0.034101725
176	0x3c163ffa	0.009170527
177	0x3c257d45	0.010100667
178	0xbd0a6ee3	-0.033797156
179	0x3de508ee	0.11183344
180	0xbdc039b7	-0.09386008
181	0xbdca215d	-0.09869645
182	0x3cd8a7b5	0.026447156
183	0x3df0f93e	0.11766289
184	0x3dc3e209	0.09564597
185	0x3ceadd17	0.028669877
186	0x3d8ddee2	0.06927277
187	0xbd54ffca	-0.052001752
188	0xbc559209	-0.013035306
189	0xbd7d4479	-0.06183288
190	0xbdccc3ff	-0.09998321
191	0xbd851507	-0.06498151
192	0x3d739543	0.05946852
193	0x3d2148f1	0.039376203
194	0x3c2bb151	0.010479287
195	0xbdeaf683	-0.114728
196	0xbd8b04ce	-0.06788026
197	0x3db0aea6	0.086270615
198	0x3dddfdfa	0.10839458
199	0x3d95a980	0.0730772
200	0x3ab852d8	0.0014062775
201	0x3dc07f39	0.09399266
202	0x3db86f10	0.090055585
203	0x3c308a0f	0.010775103
204	0xbdcf7024	-0.10128811
205	0x3cfc457a	0.030794848
206	0xbdccb6d1	-0.09995807
207	0x3babf0e4	0.0052472223
208	0x3d86f23e	0.06589173
209	0x3de8b247	0.11362129
210	0x3dd1ad82	0.10238172
211	0x3d9de211	0.07709134
212	0x3d888807	0.0666657
213	0x3d95c6be	0.07313298
214	0xbcc52fd3	-0.024070656
215	0x3d8d61c1	0.06903411
216	0x3ce9b5ce	0.028529074
217	0xbdd49ea4	-0.10381821
218	0x3d37d5a1	0.044881467
219	0xbdb01d41	-0.0859933
220	0x3d7509b6	0.059823714
221	0x3d60ea70	0.054911077
222	0xbd915d1b	-0.070978366
223	0x3c84802b	0.016174396
224	0xbd5322fd	-0.05154704
225	0xbd809d18	-0.06279963
226	0x3ac04a98	0.0014670668
227	0xbdbebfc9	-0.09313924
228	0xbb932c6b	-0.004491379
229	0xbc8d2035	-0.017227272
230	0x3dd4d352	0.10391869
231	0xbd4a6dfb	-0.04942129
232	0x3de2a0d7	0.11065834
233	0x3dd45087	0.10366922
234	0x3dab758c	0.0837203
235	0xbdec35b8	-0.115336835
236	0x3cac493c	0.021031015
237	0x3b274cd2	0.0025527966
238	0xbd905a63	-0.0704849
239	0xbdbb7ec1	-0.09155036
240	0xbcf94a48	-0.030430928
241	0xbdf6efb3	-0.12057438
242	0xbd66f7ed	-0.056388784
243	0x3cc96903	0.024586206
244	0xbd37e1eb	-0.044893187
245	0xbd097c47	-0.033565786
246	0x3d632d1b	0.055462938
247	0x3cf9dd4a	0.030501027
248	0xbd95338f	-0.07285225
249	0xbd091508	-0.033467323
250	0x3dde86fc	0.1086559
251	0xbd7431cb	-0.0596178
252	0xbd8b0bff	-0.067893974
253	0xbd72b8ed	-0.05925839
254	0x3de52d38	0.111902654
255	0x3c975391	0.018472465

Bi_Linear_list.0.bias f4 [64]
0	0xbc7c2357	-0.015389285
1	0xbddbb43d	-0.10727737
2	0x3da6ec53	0.08150544
3	0xbd82014c	-0.063479036
4	0x3d4d7c80	0.05016756
5	0x3d9b7354	0.075903565
6	0xbb55a270	-0.003259804
7	0x3dea7d46	0.11449675
8	0x3c88fb7b	0.016721478
9	0x3d53a40f	0.05167013
10	0x3b6d4235	0.0036202793
11	0xbc102653	-0.0087982
12	0x3d4235f5	0.04741474
13	0xbd27dda2	-0.04098285
14	0x3dd70ac0	0.10500097
15	0xbde1ec54	-0.11031404
16	0x3d22803d	0.03967308
17	0xbd69d48b	-0.057087462
18	0x3d55f257	0.052233066
19	0x3d9d376e	0.07676588
20	0x3bb5fa38	0.00555351
21	0xbc8db6de	-0.017299112
22	0xbcc00cd1	-0.023443611
23	0x3b68f37a	0.0035545514
24	0x3d685ba8	0.056728035
25	0x3d237a3b	0.03991149
26	0xbd1f93fd	-0.038959492
27	0x3d869d88	0.065730155
28	0x3d4aa6dc	0.049475536
29	0xbd042798	-0.032264322
30	0x3d2aef35	0.04173203
31	0x3a5b0951	0.0008355575
32	0xbd212766	-0.039344214
33	0x3c639068	0.01388941
34	0x3cd69d9e	0.026198205
35	0x3c830c05	0.015996942
36	0xbddddb1e	-0.10832809
37	0xbbed57f1	-0.0072431494
38	0x3db2de21	0.08733774
39	0x3d4aa849	0.049476895
40	0xbdbf8169	-0.09350855
41	0xbd5cd0a4	-0.053909913
42	0xbca9305d	-0.020652944
43	0xbd19ca3a	-0.037546374
44	0x3dde9e69	0.10870058
45	0xbded2cc1	-0.11580802
46	0xbcdb3f2c	-0.026763521
47	0x3d90ec77	0.07076352
48	0xbbd04dce	-0.0063569313
49	0x3d82a85a	0.06379767
50	0xbd9c85c8	-0.07642704
51	0x3df39718	0.11894053
52	0x3d84ba2e	0.064808235
53	0x3de9a5d2	0.11408581
54	0x3b8c2922	0.0042773644
55	0xbd8ac28a	-0.06775387
56	0xbd8a7472	-0.067604914
57	0xbd93ca43	-0.07216313
58	0xbda89063	-0.082306646
59	0xbdd22d7d	-0.102625825
60	0xbccffd68	-0.025389388
61	0xbc17f217	-0.009274027
62	0xbcf3d325	-0.029763767
63	0x3b388bc0	0.002815947

Bi_Linear_list.1.weight f4 [64, 64]
0	0xbc44e461	-0.01201734
1	0x3dd68eea	0.104764774
2	0x3ce98eed	0.028510535
3	0xbd32e4f7	-0.04367539
4	0xbdd2a999	-0.102862544
5	0x3d898797	0.06715315
6	0x3dc55a21	0.09636331
7	0x3d1314a5	0.03590836
8	0xbdd6b8be	-0.104844555
9	0xbc924047	-0.017852915
10	0xbdf1d6b2	-0.11808528
11	0xbd91d33b	-0.07120367
12	0xbd83fc4c	-0.06444606
13	0xbdaa1b69	-0.08306009
14	0x3d119df3	0.035551023
15	0x3ac03579	0.0014664374
16	0x3cacb26f	0.021081178
17	0x3dcf0221	0.10107828
18	0x3e031830	0.12802196
19	0xbc7cac9f	-0.015422015
20	0x3d6f30d3	0.05839617
21	0xbc8260d9	-0.015915321
22	0x3caebb2b	0.021329483
23	0x3daa6ede	0.083219275
24	0x3d82c0f3	0.063844584
25	0x3df83f31	0.12121428
26	0xbc220ab1	-0.009890244
27	0xbd64e85d	-0.05588566
28	0xbcb19289	-0.021676319
29	0x3de122ea	0.109929875
30	0x3dc8c30d	0.09802828
31	0xbd945949	-0.07243592
32	0xbd15d34e	-0.03657847
33	0x3dd500a3	0.10400512
34	0x3d9058ed	0.07048211
35	0x3d178c7a	0.036999203
36	0xbc1c2dd7	-0.009532413
37	0xbd92f81d	-0.0717623
38	0xbdef32ac	-0.11679587
39	0xbdb7e377	-0.08978932
40	0x3da1c751	0.07899345
41	0xbd2ad762	-0.04170931
42	0xbdac01e3	-0.08398797
43	0x3d9c434c	0.07630023
44	0x3dea435c	0.11438629
45	0xbde2984f	-0.11064207
46	0xbdc81eb7	-0.097714834
47	0xbd3de89a	-0.046364404
48	0xbd0b1ed3	-0.033964943
49	0xbc7947b1	-0.0152148465
50	0x3d734915	0.05939587
51	0xbcab28f7	-0.020893557
52	0x3dc959e1	0.09831596
53	0xbda55a49	-0.08073861
54	0x3d407a48	0.046991616
55	0x3deca2f4	0.11554518
56	0xbbea3b0e	-0.007148153
57	0x3dd9b34f	0.106299035
58	0x3c9662b2	0.018357608
59	0xbd921ec8	-0.07134777
60	0x3d22e7fa	0.03977201
61	0xbac526fd	-0.0015041527
62	0x3db1234d	0.08649311
63	0x3c61cd63	0.013781878
64	0x3d4366f4	0.047705606
65	0xbc98fcdb	-0.018675258
66	0x3d880251	0.06641067
67	0x3d914cdf	0.0709474
68	0x3dce49be	0.10072659
69	0x3dfec0ae	0.124390945
70	0x3de194d1	0.110147126
71	0xbdb66c54	-0.08907381
72	0xbc8ddc98	-0.017317101
73	0x3cbbc7ec	0.022922479
74	0x3d8e3a9c	0.069447726
75	0x3d9d06d9	0.07667322
76	0x3daa317a	0.08310218
77	0x3df040d1	0.11731113
78	0x3c66a9b0	0.014078543
79	0x3dcdf60d	0.10056696
80	0xbdab6f57	-0.08370846
81	0x3d9bdaa7	0.07610064
82	0x3d8e8ef0	0.06960857
83	0xbd82d0f1	-0.06387509
84	0xbc9a1686	-0.018809568
85	0x3d9e2258	0.07721394
86	0xbd0e1acb	-0.03469352
87	0xbd9b7114	-0.07589927
88	0xbdc1311f	-0.09433197
89	0x3cfd550c	0.030924343
90	0x3cba8871	0.022770138
91	0x3cf953bc	0.030435435
92	0xbd7408e0	-0.059578776
93	0x3d8c6e76	0.06857006
94	0x3d9dd2bb	0.07706209
95	0x3d890f9d	0.06692431
96	0xbd875f21	-0.06609941
97	0x3c97a679	0.018511998
98	0xbcd1ca7d	-0.02560925
99	0xbdb9f43f	-0.09079789
100	0x3d7f2fa5	0.062301297
101	0x3d2a9a06	0.041650794
102	0x3d8ea46f	0.06964957
103	0xbded0787	-0.11573701
104	0x3cc48b0f	0.02399209
105	0x3978e32e	0.00023735754
106	0xbc839d37	-0.016066177
107	0xbdb9a1a5	-0.090640344
108	0x3dde7007	0.10861211
109	0x3db08478	0.086190164
110	0xbcdf3812	-0.027248416
111	0x3c80e0be	0.015732165
112	0xbca33cb4	-0.019926406
113	0xbd603dae	-0.054746322
114	0x3df82118	0.12115687
115	0x3de7b48d	0.11313734
116	0x3cfecd58	0.031103775
117	0x3d0f3d18	0.034970373
118	0x3d0e81e8	0.034791857
119	0xbdf2170c	-0.11820802
120	0xbddca22c	-0.10773119
121	0x3db03b4b	0.08605059
122	0x3dc90cbf	0.09816884
123	0xbda882aa	-0.08228047
124	0xbcf6ed3d	-0.03014242
125	0xbd39325d	-0.045214046
126	0x3d7fb7af	0.062431034
127	0x3dd123bf	0.10211896
128	0x3db71772	0.08940019
129	0xbd889573	-0.0666913
130	0xbdae4e0c	-0.0851098
131	0x3ce9e570	0.028551787
132	0x3d56c9c3	0.05243851
133	0x3bcff980	0.0063468814
134	0x3d8c692a	0.06855996
135	0xbd22551d	-0.03963195
136	0xbd387917	-0.045037355
137	0xbdc2860c	-0.09498224
138	0xbbea2566	-0.0071455715
139	0x3dcb9f1d	0.09942458
140	0x3d09200e	0.033477835
141	0xbc3b4293	-0.011429447
142	0x3b91c972	0.004449063
143	0x3dba39d7	0.09093063
144	0x3db2d604	0.087322265
145	0x3dea4965	0.1143978
146	0xbdaab0dd	-0.08334515
147	0xbddd7e5f	-0.10815119
148	0x3de850fb	0.11343571
149	0x3df79bda	0.12090273
150	0x3d9265e6	0.07148342
151	0xbdf8778d	-0.121321775
152	0x3db8931c	0.09012434
153	0x3cbc9ecd	0.02302494
154	0x3d118f48	0.035537034
155	0xbd72df26	-0.059294842
156	0xbd8edf2c	-0.069761604
157	0xbc9923f4	-0.018693902
158	0x3d45db1a	0.048304655
159	0x3d9c4df8	0.07632059
160	0x3d5c8532	0.053837962
161	0x3c399cba	0.01132887
162	0xbd4a2d92	-0.049359865
163	0x3c77e3e9	0.015130022
164	0x3c716eb7	0.014735869
165	0x3c91dc33	0.017805194
166	0x3dbad267	0.09122162
167	0x3de10ef8	0.10989183
168	0xbc120b30	-0.0089138
169	0xbdd14b78	-0.10219473
170	0xbd9c2b16	-0.076254055
171	0xbb6788ef	-0.0035329422
172	0xbd08d1b1	-0.033403102
173	0xbd275980	-0.04085684
174	0xbbc176f7	-0.0059040743
175	0xbdc7e101	-0.09759713
176	0x3de1ae15	0.11019532
177	0x3d9bd735	0.07609407
178	0xbdb56cb9	-0.08858628
179	0xbdb3c082	-0.08776952
180	0xbdb1c51f	-0.08680176
181	0xbb1ec5cd	-0.0024226785
182	0x3d795c3c	0.060878977
183	0x3cebc82b	0.028781971
184	0x3dc35f5c	0.09539673
185	0x3bbfce7e	0.005853473
186	0x3ca57570	0.0201976
187	0x3d8a011f	0.06738495
188	0x3db1e4cf	0.0868622
189	0x3d720465	0.059086222
190	0x3df8bffd	0.12145994
191	0x3de2ec09	0.110801764
192	0x3dfc291f	0.12312531
193	0x3d383b0d	0.04497819
194	0xbd8cfa70	-0.06883705
195	0xbdaab3cc	-0.08335075
196	0x3dc760df	0.097352736
197	0xbdbdf2f0	-0.09274852
198	0xbda8a60e	-0.082347974
199	0x3c9eff17	0.019408746
200	0xbdeb6974	-0.11494723
201	0x3de8f40b	0.113746725
202	0xbdbefe81	-0.093258865
203	0xbd0b15c5	-0.033956308
204	0x3b9dcdc7	0.0048157903
205	0x3cc3a046	0.023880135
206	0x3d07ed55	0.03318532
207	0x3deeaa94	0.11653629
208	0xbd04a59c	-0.0323845
209	0xbc43d4e0	-0.011952609
210	0x3dddff3c	0.10839698
211	0xbd2eb5f2	-0.042653985
212	0x3d0597cf	0.03261548
213	0xbdad2044	-0.0845342
214	0xbdf3ca88	-0.11903864
215	0xbc710955	-0.014711698
216	0x3da62e81	0.08114339
217	0xbcc24ff4	-0.023719765
218	0xbd293c2e	-0.041317157
219	0xbd8f96d8	-0.07011193
220	0x3df4905b	0.11941596
221	0x3de661c1	0.11249114
222	0xbd8e8d43	-0.06960537
223	0xbd9e9b8f	-0.07744514
224	0x3da686a2	0.08131148
225	0xbd826d93	-0.06368556
226	0xbd45f74b	-0.04833154
227	0xbd89060d	-0.06690607
228	0x3dbe7100	0.09298897
229	0x3dc74d5a	0.097315505
230	0x3cff4a65	0.031163404
231	0x3da2787b	0.07933136
232	0x3cfb47d8	0.030673906
233	0xbdb8e08d	-0.09027205
234	0x3c387e7a	0.011260623
235	0xbd066f8b	-0.03282122
236	0xba4e269b	-0.0007864029
237	0x3db297bc	0.08720347
238	0xbdc3fd74	-0.09569827
239	0xbd2734f2	-0.040821977
240	0xbde537ff	-0.11192321
241	0xbd0edb07	-0.03487685
242	0xbd1a38ac	-0.037651703
243	0xbde824b4	-0.113351256
244	0xbd85869c	-0.06519815
245	0x3c8716a1	0.016490282
246	0xbd8771c1	-0.06613494
247	0x3de1b102	0.1102009
248	0x3dbf5373	0.093420886
249	0xbd0c5df1	-0.034269277
250	0x3a24f937	0.00062932394
251	0xbcbb211c	-0.022842936
252	0xbdf698ac	-0.120408386
253	0x3dc4f5fd	0.09617231
254	0x3cf11c61	0.029432477
255	0x3d0b7285	0.03404476

Bi_Linear_list.1.bias f4 [64]
0	0x3b1b8b8d	0.0023734302
1	0x3dad4d69	0.084620304
2	0x3db23e99	0.08703346
3	0x3de8976e	0.11357008
4	0x3ce7392b	0.028225502
5	0xbd3ede92	-0.04659898
6	0xbd95dd08	-0.07317549
7	0xbcf2ee3b	-0.029654613
8	0xbc94ae9b	-0.018149665
9	0x3de00a53	0.10939469
10	0x3d1ec8d2	0.038765736
11	0x3c787e43	0.015166822
12	0xbdacad35	-0.08431474
13	0x3d40156f	0.04689544
14	0xbd025013	-0.031814646
15	0x3d7ad283	0.061235916
16	0xbdae2ea1	-0.085049875
17	0x3dfbd9e8	0.12297422
18	0xbdd3590a	-0.10319717
19	0x3dfa46de	0.12220548
20	0xbca98af4	-0.02069614
21	0xbbde893c	-0.006791262
22	0x3c48d8d2	0.012258725
23	0xbdb922fd	-0.090398766
24	0xbd7781f8	-0.060426682
25	0xbdf45ebc	-0.11932132
26	0xbdc413be	-0.09574078
27	0x3cbf1e0b	0.023329755
28	0x3df60f2b	0.12014612
29	0x3dab9e53	0.08379807
30	0x3d630605	0.055425663
31	0x3d8addfb	0.06780621
32	0x3dfbf1d6	0.12301986
33	0xbd5fa229	-0.054598007
34	0xbe006d6c	-0.12541741
35	0x3dec3626	0.115337655
36	0xbd02526a	-0.031816877
37	0x3db6ee42	0.08932163
38	0x3de15fd6	0.110046074
39	0x3d3fff4f	0.04687434
40	0x3c7907ab	0.015199582
41	0x3db1faf1	0.086904414
42	0x3d4c10a9	0.049820576
43	0x3dcf93dc	0.10135624
44	0xbd07aabd	-0.033121813
45	0xbded7f43	-0.11596539
46	0xbd62e6ff	-0.055396076
47	0xbb691f8a	-0.0035571777
48	0xbdab59cf	-0.08366739
49	0x3d2a0bcb	0.041515153
50	0x3c0c7cc4	0.008574668
51	0x3df29ddc	0.118465155
52	0xbd860e84	-0.065457374
53	0xbddc76ad	-0.10764823
54	0xbd8f7b7e	-0.07005976
55	0x3d16e339	0.03683779
56	0xbcfdbaba	-0.030972827
57	0x3da1c760	0.07899356
58	0xbdff047d	-0.12452028
59	0x3d257254	0.040392235
60	0xbde942fc	-0.113897294
61	0xbdd309fc	-0.10304639
62	0x3cbbcca5	0.02292473
63	0xbb794bc0	-0.0038039535

user_embedding.weight f4 [943, 64]
0	0xbd23b872	-0.039970823
1	0xbcfbe955	-0.03075091
2	0xbccc096d	-0.024906838
3	0x3b06a532	0.0020545241
4	0xbc0e3c8e	-0.00868143
5	0xbcf54d30	-0.029944032
6	0xbc0c3983	-0.008558634
7	0xbd47810d	-0.048707057
8	0xbd79fce8	-0.061032206
9	0x3afec52c	0.0019437424
10	0xbd13c7e9	-0.03607932
11	0x3c6a74a3	0.014310035
12	0x3cebbea2	0.028777424
13	0xbd57c6a5	-0.052679677
14	0x3d5af586	0.053456806
15	0xbcd64a01	-0.026158335
16	0x3d19d673	0.03755803
17	0x3d62cbcb	0.055370133
18	0x3d7d704a	0.061874665
19	0xbd4c5f3d	-0.049895514
20	0xbd174e87	-0.036940124
21	0x3c4a15cf	0.012334301
22	0x3bd9c1cd	0.0066454173
23	0x3ce3717e	0.027764078
24	0x3d0667d6	0.03281387
25	0x3d92ce5e	0.07168268
26	0x3d0b9113	0.0340739
27	0x3d198b50	0.037486374
28	0xbd7f6c28	-0.062359005
29	0x3d13e08a	0.03610281
30	0xbd036b4a	-0.03208474
31	0x3d90ab12	0.07063879
32	0xbcf64859	-0.030063795
33	0x3d8187ac	0.063247055
34	0x3d837ad7	0.06419914
35	0x3d889e89	0.06670863
36	0x3c201a2c	0.009771865
37	0x3d19d12f	0.03755301
38	0x3d8408e4	0.06447008
39	0xbd84659b	-0.06464692
40	0x3d983008	0.07431036
41	0xbc9fd952	-0.019512806
42	0x3d60fca4	0.054928437
43	0xbd6e043e	-0.058109514
44	0x3c09a8b7	0.008402041
45	0x3c829930	0.015942186
46	0xbc23735a	-0.009976232
47	0xbd8fd8c7	-0.07023769
48	0xbd484cbe	-0.048901312
49	0x3d6ffded	0.058591772
50	0xbc845264	-0.016152568
51	0x3c1cd8c6	0.009573167
52	0xbd2be95f	-0.041970607
53	0xbd46f1c6	-0.048570417
54	0xbd91a9d9	-0.07112474
55	0x3d1c2e4f	0.0381301
56	0xbaa92606	-0.0012905009
57	0xbd8bf6f5	-0.06834213
58	0xbd3e1809	-0.04640964
59	0xbd52a186	-0.051423572
60	0x3a928e21	0.0011181274
61	0x3d7c2a59	0.061563823
62	0x3d2318d6	0.039818607
63	0x3c40146c	0.011723619
64	0xbd00625d	-0.031343807
65	0xbbeda912	-0.007252821
66	0x3b791f89	0.0038013181
67	0x3d7e493c	0.06208156
68	0x3d40e41f	0.047092553
69	0xbd8e3a51	-0.06944717
70	0xbd0a9c38	-0.033840388
71	0x3d1f039c	0.0388218
72	0x3c9e0acb	0.019292256
73	0x3d09ae4a	0.03361348
74	0xbca03416	-0.019556087
75	0xbd6f0ffa	-0.058364846
76	0xbcb37524	-0.021906443
77	0xbc8beefb	-0.017081728
78	0xbd76d2a6	-0.060259484
79	0x3d255e8a	0.040373363
80	0xbcd5bce3	-0.026091045
81	0xbbbb5fb7	-0.005718197
82	0x3d8f00e5	0.069825925
83	0x3a86df0f	0.0010289865
84	0xbd2e49df	-0.042550918
85	0xbd64a8e9	-0.055825148
86	0x3c41f62a	0.011838475
87	0xbbeb9833	-0.0071897744
88	0x3ba175ef	0.004927389
89	0x3d8af33d	0.06784675
90	0xbd558f5d	-0.052138675
91	0xbd683fb4	-0.056701377
92	0xbce1b280	-0.027550936
93	0xbd7b1d79	-0.061307404
94	0xbd63f96e	-0.055657797
95	0x3d008c48	0.031383783
96	0xbc09961e	-0.008397607
97	0x3d96a0a6	0.0735486
98	0x3d269ced	0.040677
99	0x3d826a9e	0.06367992
100	0x3d49f693	0.049307417
101	0x3c46ecbf	0.012141406
102	0x3cf094f5	0.029367903
103	0xbd3e7f4b	-0.046508115
104	0x3c0cff58	0.008605801
105	0x3cfa5322	0.030557219
106	0x3b73d9be	0.0037208642
107	0xbd804adf	-0.062642805
108	0x3d8931b6	0.06698935
109	0x3cbfdcb2	0.023420665
110	0xbb18db08	-0.0023323912
111	0x3d6cf85d	0.057854045
112	0x3b5c556f	0.0033620258
113	0xbd8824c0	-0.066476345
114	0xbd858723	-0.06519916
115	0xbcfcd856	-0.030864876
116	0x3d36ab27	0.044596817
117	0x3c11d02e	0.008899732
118	0xbd02629e	-0.03183233
119	0x3d99a662	0.07502438
120	0x3d63789c	0.055534944
121	0x3d4e8d8c	0.05042796
122	0xbcc51784	-0.024059065
123	0x3cf036ae	0.029322948
124	0x3d2383c0	0.03992057
125	0x3d9278f6	0.07151978
126	0xbd228e55	-0.03968652
127	0xbd8d6b52	-0.06905235
128	0xbcfe25c5	-0.03102387
129	0xbd98fc27	-0.07469969
130	0xbd4fd8c0	-0.05074382
131	0x3cae7137	0.02129422
132	0xbd82dea3	-0.06390121
133	0x3d9593ca	0.07303579
134	0x3cd2648e	0.025682714
135	0xbd868c48	-0.06569725
136	0x3d62ae5a	0.055342056
137	0x3d434c2d	0.04768007
138	0xbc5056e7	-0.012716032
139	0xbd94c2cc	-0.07263717
140	0xbb4d27e1	-0.0031304287
141	0x3c06c611	0.008225934
142	0x3d5a37de	0.053275935
143	0xbc1adc8d	-0.0094519975
144	0xbd655c41	-0.055996183
145	0xbd3af9ac	-0.045648262
146	0xbd1a914a	-0.037736215
147	0xbd0d2dee	-0.03446763
148	0x3bf11260	0.007356927
149	0xbd9343b6	-0.07190649
150	0x3d6112cc	0.054949567
151	0xbcc58ab0	-0.024113983
152	0xbc8acdfd	-0.016943926
153	0x3c859d0d	0.01631024
154	0x3b54b67e	0.0032457407
155	0xbd0a28e3	-0.0337304
156	0x3cc00186	0.023438226
157	0x3d72b8c7	0.05925825
158	0xbd420252	-0.047365494
159	0xbd2d7b83	-0.042354118
160	0x3ce2bdff	0.027678488
161	0x3cba84f8	0.022768483
162	0x3b0e3987	0.002170177
163	0x3d2a7cd8	0.041622967
164	0xbd6c22df	-0.057650443
165	0xbd36c8d6	-0.044625126
166	0x3c923c87	0.017851127
167	0xbcda2b23	-0.026631897
168	0x3d51b61c	0.051199064
169	0xbd83ce70	-0.06435859
170	0x3d73b5f0	0.05949968
171	0xbd83ab54	-0.064291626
172	0xbb1af49f	-0.002364434
173	0x3c48f5a0	0.012265593
174	0x3cfcaad9	0.030843185
175	0x3cec671b	0.028857758
176	0xbd88ea20	-0.06685281
177	0xbd7a60c6	-0.061127447
178	0x3d737aa4	0.05944313
179	0x3c272b13	0.010203141
180	0x3c19b01f	0.009380369
181	0x3d55c35a	0.052188255
182	0x3c7e0ec8	0.015506454
183	0x3d7f040d	0.062259723
184	0x3bde2975	0.0067798444
185	0xbd665dfb	-0.05624197
186	0xbd89e145	-0.0673242
187	0xbd392ca9	-0.045208607
188	0xbd8ab80e	-0.06773387
189	0xbd83b701	-0.064313896
190	0xbd08fec3	-0.033446085
191	0xbbe8959a	-0.007097912
192	0x3c31e97f	0.010858892
193	0x3d2c0e10	0.0420056
194	0x3d9ab664	0.075543195
195	0xbd0e56c4	-0.034750715
196	0x3c48db40	0.0122593045
197	0xbcfa2f8c	-0.03054025
198	0xbd2d4396	-0.042300783
199	0x3d402f9e	0.04692041
200	0xbcc55de0	-0.024092615
201	0xbd90f541	-0.070780285
202	0xbd8a2c13	-0.06746688
203	0xbcde0b98	-0.027105138
204	0xbca042a1	-0.019563021
205	0x3c31811e	0.010834007
206	0x3d9b85ab	0.075938545
207	0x3d7542c9	0.059878144
208	0xbce089e0	-0.027409494
209	0xbc4d404e	-0.012527538
210	0xbca62579	-0.02028154
211	0x3d7e1962	0.062035926
212	0x3c00c779	0.007860058
213	0x3cb9ae59	0.022666143
214	0xbbfba63d	-0.0076797293
215	0x3cd1f7ea	0.02563091
216	0x3d86efbf	0.06588697
217	0x3c16454e	0.009171797
218	0x3d97baaa	0.0740865
219	0xbd90e833	-0.070755385
220	0xbcfc165b	-0.030772379
221	0xbc960909	-0.018314855
222	0x3d601edf	0.05471694
223	0xbd352a74	-0.04422994
224	0x3cc4890a	0.023991127
225	0x3d0b0597	0.033940878
226	0xbd62628d	-0.055269767
227	0x3d20a86f	0.03922313
228	0x3c7489ba	0.014925415
229	0xbd025b70	-0.031825483
230	0x3d18d08a	0.037308253
231	0x3d631f43	0.055449735
232	0xbd94b511	-0.07261098
233	0x3bec673e	0.007214456
234	0xbd46fd9a	-0.048581697
235	0xbd3972d6	-0.04527553
236	0x3c714cb7	0.014727763
237	0xbd5bad68	-0.05363217
238	0x3d1ae853	0.037819218
239	0x3ce1495f	0.027500806
240	0xbc4d170b	-0.012517701
241	0x3bc9322e	0.006140015
242	0xbcb36f2b	-0.021903595
243	0xbd96c9bd	-0.07362697
244	0x3d1f5a2a	0.038904347
245	0x3a5bfeb3	0.000839214
246	0x3d312383	0.043246757
247	0xbc94ff1f	-0.018188057
248	0x3d47d2fb	0.04878519
249	0x3d85f7e6	0.065414235
250	0x3ce69dcd	0.028151417
251	0xbc14edc9	-0.0090898955
252	0xbc3aff28	-0.011413373
253	0x3c02aa6d	0.007975203
254	0x3d851f1d	0.06500075
255	0x3c88afbe	0.016685363

item_embedding.weight f4 [1682, 64]
0	0xbcfecf8e	-0.03110483
1	0x3d0f86f9	0.03504083
2	0x3c818d0e	0.01581433
3	0xbd04c169	-0.032411013
4	0xbd26ba69	-0.04070512
5	0xbd03755b	-0.03209434
6	0x3c42ee37	0.011897615
7	0x3c2755e2	0.010213347
8	0xbc9f4147	-0.019440306
9	0x3cae483c	0.021274678
10	0xbd48db12	-0.049037047
11	0x3bddde44	0.006770881
12	0xbd19cf7d	-0.037551392
13	0x3d02ffa9	0.031982098
14	0xbd5e21d2	-0.054231472
15	0xbd1514a2	-0.03639663
16	0xbd148be3	-0.03626622
17	0xba958916	-0.0011408653
18	0x3d2daedc	0.042403087
19	0x3d76efa8	0.060287148
20	0xbceeafce	-0.029136565
21	0x3cf8ce1d	0.03037172
22	0x3d6599c0	0.05605483
23	0x3c851a60	0.016247928
24	0xbcbfbfbf	-0.023406861
25	0x3d39388f	0.045219954
26	0xbd28070c	-0.041022345
27	0x3ce7cccd	0.028295899
28	0x3c5779be	0.013151584
29	0xbd320577	-0.043462243
30	0xbcf734c4	-0.030176528
31	0x3a235b73	0.00062315835
32	0x3ce018a1	0.027355494
33	0x3d719608	0.05898097
34	0xbcfed3c7	-0.031106843
35	0x3be1fabe	0.006896346
36	0xbc9ea41e	-0.019365367
37	0xbd0d99b1	-0.0345704
38	0x3d7198b7	0.05898353
39	0xbc92a4e0	-0.017900884
40	0xba4d2358	-0.0007825396
41	0x3cddca4a	0.027073998
42	0xbd615629	-0.05501381
43	0xbd479731	-0.04872817
44	0xbd427303	-0.047472965
45	0x3d727939	0.05919764
46	0xbc22951f	-0.009923249
47	0xbd15f50a	-0.03661064
48	0x3c451924	0.01202992
49	0x3cbc219d	0.022965247
50	0x3d232a4f	0.03983527
51	0x3ca12098	0.019668862
52	0xbd587a2a	-0.05285088
53	0xbd1c3b26	-0.038142346
54	0xbcb6fdb8	-0.02233778
55	0xbba9fafa	-0.0051873894
56	0xbd1d5add	-0.038416732
57	0xbd27f9e3	-0.041009795
58	0xbd2a443f	-0.04156899
59	0x3ccd99bf	0.025097726
60	0x3d682798	0.056678385
61	0x3d722acf	0.059122857
62	0xbc37040f	-0.011170401
63	0x3bef6ad4	0.007306436
64	0xbd5fa855	-0.054603893
65	0xbc467405	-0.012112622
66	0xbb691760	-0.003556691
67	0xbc273c7a	-0.01020729
68	0x3d3b1b37	0.04568025
69	0x3d47ea57	0.04880747
70	0xbd4463d4	-0.047946766
71	0xbc191065	-0.009342288
72	0x3c94c985	0.018162498
73	0xbae37fba	-0.0017356791
74	0x3d17d7fd	0.037071217
75	0x3b7bde1b	0.0038431946
76	0xbd32f7a3	-0.043693196
77	0x3cc7f62d	0.024409378
78	0xbd079ec9	-0.033110414
79	0xbd60067e	-0.05469369
80	0xbc466c84	-0.012110833
81	0x3d5dc92b	0.054146927
82	0x3d1adf79	0.037810776
83	0xbd43c2c6	-0.047793172
84	0xbbc7c78c	-0.006096786
85	0x3d1a46f1	0.03766531
86	0x3c960923	0.018314904
87	0x3cf1ff17	0.029540582
88	0x3d15f2e5	0.036608595
89	0x3ca7fac7	0.020505322
90	0x3cfbacda	0.03072207
91	0xbd49fdb1	-0.049314205
92	0x3c886b26	0.016652655
93	0x3d275305	0.040850658
94	0xbd454ef0	-0.048170984
95	0xbcb5e713	-0.022204911
96	0x3c980d64	0.018561073
97	0xbcc6ff13	-0.02429155
98	0xbc3127ee	-0.010812743
99	0x3cd48a6e	0.025944915
100	0xbcca6640	-0.02470696
101	0x3c23e80f	0.010004058
102	0xbd5c89b0	-0.053842247
103	0xbd22e067	-0.039764788
104	0xbbac9ef4	-0.005267972
105	0xbd58275b	-0.052771907
106	0x3cc2e262	0.023789588
107	0x3d156c66	0.03648033
108	0x3cc59ab6	0.024121623
109	0x3ca83af6	0.020535927
110	0x3d02e7cb	0.031959336
111	0xbd3c09df	-0.04590785
112	0x3cc5ab02	0.024129394
113	0xbd5a772e	-0.053336315
114	0xbb947106	-0.004530075
115	0x3cfb87f0	0.030704468
116	0xbbb12a24	-0.005406635
117	0xbcdaab9b	-0.026693156
118	0xbbfcbb32	-0.007712745
119	0x3d727e02	0.0592022
120	0xbc4be5a4	-0.012444887
121	0x3d3e1df5	0.046415288
122	0xbb6f5533	-0.0036519289
123	0xbbb889a2	-0.0056316415
124	0xbd703be9	-0.058650885
125	0x3cbaad35	0.02278767
126	0x3d4f0e22	0.050550587
127	0xbc13dc62	-0.009024711
128	0xbc186f1e	-0.009303836
129	0x3c8816cf	0.016612438
130	0xbce39a6b	-0.027783593
131	0x3d6dc221	0.058046464
132	0x3cb19fe9	0.021682696
133	0x3bb6fff4	0.005584711
134	0x3d4e5c11	0.05038077
135	0x3caeac3c	0.021322362
136	0xbcf980db	-0.03045695
137	0x3cfdfb2b	0.031003555
138	0x3d106e7b	0.035261612
139	0xbc327193	-0.010891336
140	0x3c625cb2	0.013816046
141	0x3cef5b6d	0.0292184
142	0x3cc2195b	0.023693731
143	0xbd70a853	-0.058754276
144	0xbd51a679	-0.05118415
145	0x3d04b704	0.0324011
146	0xbd4c3f1c	-0.049864873
147	0x3d0a4c64	0.033764258
148	0xbd0a9e12	-0.033842154
149	0x3d00f82d	0.03148668
150	0xbba35f16	-0.0049857004
151	0xbd38118f	-0.04493862
152	0xbc606b91	-0.013697521
153	0xbcaa664c	-0.020800732
154	0x3d0ef8dd	0.034905303
155	0xbd104598	-0.03522262
156	0xbd11b9b2	-0.035577483
157	0x3af7e6f6	0.0018913436
158	0x3d6ef48a	0.05833868
159	0x3ca9f5ea	0.020747144
160	0xb963c7a4	-0.00021722779
161	0xbc3d7037	-0.011562399
162	0x3d297aa0	0.04137671
163	0x3caec2ff	0.021333216
164	0xbcdd3a3e	-0.027005311
165	0x3d4dbac9	0.05022696
166	0xbca117dc	-0.019664697
167	0x3d658ab5	0.056040484
168	0x3c3712fe	0.011173962
169	0x3ce67862	0.028133575
170	0xbcd6d876	-0.026226263
171	0xbc74bac7	-0.014937109
172	0x3d21dad9	0.03951535
173	0xbbb0eb04	-0.00539911
174	0x3b505292	0.0031787497
175	0xbd37e3a0	-0.044894814
176	0xbd3afccd	-0.045651246
177	0xbcdb84f6	-0.0267968
178	0x3c201967	0.009771681
179	0x3d6f796c	0.058465406
180	0x3d098790	0.033576548
181	0xbc820642	-0.015872125
182	0xbd5c9e97	-0.05386218
183	0x3d650a04	0.055917755
184	0xbba15c9c	-0.00492437
185	0x3d702b23	0.05863489
186	0xbc801c09	-0.015638368
187	0x3d07c178	0.03314349
188	0x3d4cfcee	0.0500459
189	0x3d07729d	0.033068288
190	0xbbb22eee	-0.0054377234
191	0xbd5f689e	-0.05454313
192	0xbce89490	-0.028391153
193	0xbd01c0bd	-0.03167795
194	0x3cb648e8	0.022251561
195	0x3d63d53b	0.055623274
196	0x3c5049f5	0.012712945
197	0x3b4ff6eb	0.0031732868
198	0xbc8e8521	-0.017397465
199	0xbc6e46aa	-0.014543215
200	0x3c581553	0.013188678
201	0x3d13ac96	0.036053263
202	0x3cace35e	0.02110451
203	0x3c20d2ef	0.0098159155
204	0xbb9d694c	-0.004803812
205	0xbc91666f	-0.01774904
206	0x3d08ca90	0.033396304
207	0x3cc37428	0.023859099
208	0x3cc715ed	0.024302447
209	0x3d328f92	0.04359395
210	0x3d4fa48e	0.05069404
211	0xbcd72995	-0.026264945
212	0x3d12852e	0.03577154
213	0x3bafc0d0	0.005363561
214	0x3d5eba47	0.054376867
215	0x3d1ea29b	0.03872929
216	0xbd1ae074	-0.03781171
217	0x3c36b7b3	0.011152196
218	0x3d1b8f1f	0.037978288
219	0x3d604b3b	0.054759245
220	0xbc5c2f18	-0.013438962
221	0xbc9d8820	-0.019229949
222	0xbd5c6dfb	-0.053815823
223	0x3ca7352d	0.020411098
224	0xbbc9b700	-0.0061558485
225	0xba639894	-0.00086820987
226	0x3ca44f4f	0.020057349
227	0xbcedc160	-0.029022872
228	0x3ce59ea7	0.028029753
229	0x3d240be7	0.040050413
230	0x3c42a169	0.0118793035
231	0xbd50853e	-0.05090832
232	0xbbfe87d2	-0.007767656
233	0xbd25c25f	-0.04046857
234	0x3d76eaf5	0.060282666
235	0xbd5036c0	-0.050833464
236	0x3d29f2d9	0.041491363
237	0xbcd15c7c	-0.025556795
238	0x3d2c401a	0.04205332
239	0x3d307710	0.043082297
240	0xbd352a51	-0.04422981
241	0xbc811f86	-0.015762102
242	0x3c5c4456	0.013444027
243	0xbd24d1f3	-0.040239286
244	0xbc757e82	-0.014983775
245	0xbc827248	-0.015923634
246	0xbd0ad905	-0.033898372
247	0x3cf653c8	0.030069247
248	0x3d3d6b63	0.04624499
249	0xbb9c1b8c	-0.004764026
250	0x3d6c63b8	0.057712287
251	0xbcc1c55e	-0.023653682
252	0xbbf4957c	-0.007464109
253	0xbc853dc0	-0.016264796
254	0x3d4f73f9	0.05064771
255	0x3d37764b	0.044790547
