models/15112021_2350_mf_Movielens-100k.pt (torch, 85159 bytes, 2 tensors)

user_embedding.weight f4 [943, 8]
000000 5c a0 2a 3e f9 f4 5c 3e f4 57 b9 bd da cb 84 be
       0.16662735 0.21577825 -0.09049979 -0.25936776
000010 83 27 23 3e 0c 3b 4e be 8b a8 84 be 4d a8 32 3e
       0.15933041 -0.20139712 -0.25909838 0.17447014
000020 7b 1f d1 3e 17 02 99 3e 67 43 3d be 72 82 9e be
       0.4084433 0.29884407 -0.18482743 -0.30958897
000030 75 be 18 3e 9a 06 f5 be 68 f9 1e bf 64 87 ee 3e
       0.14916404 -0.478566 -0.62099314 0.4658767
000040 c6 ef 96 3e c7 24 26 3e f4 a5 4e 3e 06 9a b7 be
       0.29479808 0.16224967 0.20180494 -0.35859698
000050 88 ae 96 bd 11 24 11 bf ba fd ad be 3c b9 d6 3e
       -0.07357508 -0.5669566 -0.3398264 0.41938198
000060 df 43 aa 3e 8e 58 10 3e 2b 8d a3 3e 8f ab d5 be
       0.33254907 0.14096281 0.3194364 -0.4173245
000070 92 50 83 bd 35 b7 00 bf d6 6d d8 be 66 bf 10 3f
       -0.06411852 -0.5027955 -0.42271298 0.5654205
000080 ee 5b a7 3e 96 87 de 3e 9e 24 5f be a7 f5 8c be
       0.32687324 0.4346282 -0.21791312 -0.27531168
000090 2f 7a a5 3e 33 44 15 be 4a 4a cb be 73 b8 87 3e
       0.3231978 -0.14576797 -0.39705116 0.2650791
0000a0 11 50 07 3f bc a3 0b 3e b7 20 34 be f5 37 a7 be
       0.52856547 0.13636678 -0.17590605 -0.3265988
0000b0 34 e1 36 3e 10 7c 84 be 51 32 be be 53 88 d8 3d
       0.17859346 -0.25875902 -0.37147763 0.10572877
0000c0 07 11 45 3e d2 80 0f 3e c6 1b 7b bd e6 a8 1d bd
       0.19244777 0.14013985 -0.061305784 -0.038491152
0000d0 76 fb 92 3e 77 11 fc bd d4 ed 92 be 3d dd 9e 3d
       0.28707474 -0.12308019 -0.28697073 0.077570416
0000e0 6c 65 de 3e 69 ac 0d 3f 90 6c 8b 3e 77 46 89 be
       0.43436754 0.553412 0.27231264 -0.26811573
0000f0 fc 31 4b 3e 01 c2 cb be b4 e2 da be 81 59 61 3e
       0.19843286 -0.3979645 -0.42751086 0.220068
000100 96 c3 b5 3e cd 3c ff 3e 62 05 81 be ce c0 a7 be
       0.35500783 0.49851075 -0.2519942 -0.32764286
000110 f2 21 85 bd 8d 03 06 bf 41 53 f3 be ea bd 7e 3e
       -0.06500615 -0.5234917 -0.47524455 0.24877134
000120 25 6d d1 3e de d4 8f 3e fb ae 4d bd ce 23 66 be
       0.40903583 0.28092092 -0.050215703 -0.22474596
000130 b1 19 3e 3e 2f 2e 04 be 6a 17 84 be fa b6 30 3e
       0.18564488 -0.12908243 -0.25799114 0.172573
000140 57 08 90 3e d0 8c 59 3e 6f 64 19 be c1 dd 83 be
       0.28131363 0.21245122 -0.14979719 -0.25755122
000150 19 b2 0a 3e 71 e8 2a be 0c c1 be be 74 5f cf 3d
       0.13544501 -0.16690232 -0.37256658 0.10125628
000160 a0 99 f1 3e e8 94 bd 3e 46 e6 59 be cc 45 79 be
       0.4718752 0.3702767 -0.21279249 -0.24343032
000170 24 ac 2f 3e 82 58 3e be 55 af d9 be 8d 42 ce 3e
       0.1715551 -0.1858845 -0.4251658 0.4028515
000180 af b7 89 3e 67 01 2d 3e c6 f3 99 bd 13 fd 3d be
       0.26897952 0.16895066 -0.07517199 -0.18553571
000190 23 9e 53 3e e3 cd 9c be 62 9f a5 be aa 88 99 3d
       0.20665793 -0.3062583 -0.32348162 0.0749677
0001a0 81 c0 9e 3e 46 fc 78 3e 77 9d 58 be ae 0f bf be
       0.31006244 0.24314985 -0.21153818 -0.3731665
0001b0 96 1c 72 3e 50 ca ad be 1a da 10 bf 63 1b 70 3e
       0.23643717 -0.33943415 -0.56582797 0.23447947
0001c0 e7 19 85 3e 92 78 7b 3e ce 60 b0 be ee 77 02 bf
       0.25996324 0.24557713 -0.34448856 -0.5096425
0001d0 4b aa 0a 3e fe a4 b4 be 05 e5 b8 be eb 10 9e 3e
       0.13541524 -0.3528213 -0.36112228 0.30872282
0001e0 05 73 e7 3e f8 94 53 3e da c3 d1 bc 1d 66 f9 ba
       0.4520494 0.20662296 -0.025606085 -0.0019027625
0001f0 a9 d9 6d 3e 11 5c cb be a9 fd a9 be 69 e5 b3 3d
       0.23227562 -0.3971868 -0.3320134 0.08783991
000200 f3 ba d0 3e fa 49 05 3f 0c 7e f7 be 0e 25 ff be
       0.4076763 0.52066004 -0.48338354 -0.49832958
000210 f9 88 a7 3e e9 e9 03 bf bb 1a 08 bf 0b 2f f7 3e
       0.3272169 -0.51528794 -0.5316579 0.48278078
000220 ff 5a ae 3e 16 5e a6 3e f0 bc aa bd 88 dd 03 3d
       0.340538 0.32493657 -0.08336818 0.03219369
000230 df 50 55 3e 1d a0 5b be 86 7c a6 be 22 c0 90 3e
       0.20831631 -0.21447797 -0.3251688 0.28271586
000240 d6 38 a8 3e 59 5c b3 3e 5e 89 9c bd 28 da 9a be
       0.32855862 0.35031393 -0.07643388 -0.30244565
000250 58 cf e4 3e 65 4a c3 be 42 d5 cc be 56 14 ba 3e
       0.4468944 -0.38142696 -0.40006453 0.3634364
000260 ce 3c 22 3f c0 16 06 3f 8e 63 b4 be 14 3e ee be
       0.6337403 0.52378464 -0.35232204 -0.46531737
000270 2d 59 cc 3e 03 60 e8 be 18 7d 15 bf f0 69 86 3e
       0.39911786 -0.4538575 -0.58394 0.262527
000280 ea e1 38 bd 5d ac 4e 3e a8 0b 71 be 73 43 ec bd
       -0.045137323 0.20182939 -0.23539603 -0.115363024
000290 87 ec 01 3e 34 ae 9f bd e1 0b 31 be 3f 2f a1 3d
       0.12687884 -0.077968985 -0.17289688 0.078703396
0002a0 e5 5b bf 3e f4 cc c2 3e 00 8a 88 be c3 0e 24 be
       0.37374797 0.38046992 -0.26667786 -0.16021256
0002b0 c7 35 3b 3e e2 a8 05 be 26 4e d7 be 36 a4 13 3e
       0.18282233 -0.13052705 -0.4205181 0.1441811
0002c0 da 68 59 3e de 70 8f 3e 3d 5a 94 bc da 9e 89 be
       0.21231404 0.28015798 -0.018109435 -0.26879007
0002d0 82 01 bc 3e 19 b8 ac be e0 64 ad be 42 a0 63 3d
       0.367199 -0.33734205 -0.33866024 0.055572756
0002e0 8e 73 0d 3f 7a e9 dc 3e eb f1 49 be 05 9f af be
       0.5525445 0.43146878 -0.1972119 -0.3430101
0002f0 cc 89 9c 3e cc b9 be be d4 bf 09 bf 7c 61 20 3e
       0.3057388 -0.37251127 -0.5380833 0.15662187
000300 cd 79 89 3e b1 a4 e0 3e 2d a8 37 be 15 07 7d be
       0.2685074 0.4387565 -0.17935248 -0.24709733
000310 fd 79 9e 3e a0 f8 d5 be 1a d9 b2 be 84 60 21 3e
       0.30952445 -0.41791248 -0.3493126 0.15759474
000320 1d ca df 3e 48 63 8c 3e 4c af a6 be 81 e1 07 bf
       0.43708888 0.27419496 -0.32555616 -0.53078467
000330 61 20 c6 3e 60 4a b1 be d8 ee f2 be ca ff d2 3e
       0.38696578 -0.34627056 -0.47447848 0.41210777
000340 57 ea a7 3e 4a ca c9 3e 26 9f fd be 6d 47 15 bf
       0.32795975 0.39412147 -0.49535483 -0.5831211
000350 8c 63 11 3f f5 63 08 bf d2 13 c7 be d4 28 bd 3e
       0.5679252 -0.5327752 -0.3888231 0.36945212
000360 7a 03 a6 3e a2 d3 94 3e b3 e3 cd 3d fc 12 90 bd
       0.32424527 0.29067713 0.10053196 -0.07034871
000370 22 3d 29 3e cb a4 67 bd 4f 8f 64 be 3d 24 28 3e
       0.16527227 -0.056553643 -0.22320293 0.16420074
000380 1c 87 ca 3e 01 ef 20 3e 79 fb 5a 3e 31 3f 07 bf
       0.39556205 0.15716173 0.21384992 -0.528308
000390 d8 27 6a 3e c2 ae bf be 04 0f fd be c9 a6 d0 3e
       0.22866762 -0.37438017 -0.4942552 0.40752247
0003a0 d7 5f 01 3f ef 1d 9c 3e 8b 94 16 3d 09 7a f9 be
       0.50536865 0.30491588 0.036762755 -0.48725918
0003b0 16 b0 94 3e e2 04 ae be 67 9f fb be 6d 18 84 3e
       0.29040593 -0.339881 -0.49145052 0.25799885
0003c0 20 9e fa 3e 19 dd d1 3e 5f cb b1 bc 12 d9 02 bf
       0.48948765 0.40988997 -0.02170342 -0.51112473
0003d0 5e 77 95 3e de 46 88 be c7 fc 9f be b6 95 3b 3e
       0.29192632 -0.26616567 -0.3124754 0.18318829
0003e0 26 b3 c1 3e 5e 58 0d 3f 11 d8 b2 be 42 29 0d bf
       0.37831992 0.5521296 -0.3493047 -0.5514108
0003f0 53 45 bb 3e 5b 3d d0 be dd f1 07 bf 0a 86 07 3f
       0.36576328 -0.4067181 -0.5310343 0.529389

item_embedding.weight f4 [1682, 8]
000000 c1 53 60 3f 17 74 5b 3f 95 9b 01 bf d3 ce 52 bf
       0.876278 0.85724014 -0.50628024 -0.8234684
000010 04 90 24 3f f2 31 34 bf a6 2c 64 bf f6 b4 4c 3f
       0.6428225 -0.7038871 -0.8913063 0.79963624
000020 dd ae 84 3c b3 4f 96 3d 89 4c 55 be ff a2 2c 3d
       0.016196663 0.0733942 -0.20829977 0.042147633
000030 d4 b3 af 3c 78 40 e2 3b 50 55 85 bc f8 4b 5e be
       0.021448053 0.006904658 -0.016276032 -0.21708667
000040 e1 17 0a bd fb e7 79 3d c9 8a 56 be 80 ec 19 be
       -0.03371418 0.06101225 -0.2095138 -0.15031624
000050 43 61 ba 3c c4 f6 2d 3d f4 95 45 3d 24 ac cb 3d
       0.022751456 0.042471662 0.04823871 0.099449426
000060 6c 48 c2 3e e8 de 95 3e a8 22 b3 be 08 28 aa bd
       0.37945879 0.29271626 -0.34987378 -0.083084166
000070 9b 29 6a 3e 41 10 2c bd f2 58 ce be 81 63 9b 3e
       0.22867434 -0.04200769 -0.40302235 0.30349353
000080 f8 13 66 3d ab 7f 38 3c 03 fa fc 3d 20 72 de 3d
       0.056171387 0.011260907 0.123523735 0.10861611
000090 73 47 2e 3e 56 d5 8e 3c 34 71 84 be 73 93 24 bd
       0.17019443 0.01743571 -0.25867617 -0.04017968
0000a0 89 01 ab be 8d 23 b7 bd 9e dc 04 bd 7a 86 8a 3e
       -0.3339961 -0.08942328 -0.03243696 0.27055722
0000b0 f0 07 1c bd 0b bf c1 3d 52 53 a3 3d 8f a1 22 be
       -0.038093507 0.09460267 0.079748765 -0.15881942
0000c0 9c 33 3b 3f b6 47 44 3f 44 f7 d2 be b7 e5 50 bf
       0.73125625 0.7667192 -0.41204274 -0.8160052
0000d0 95 5a fc 3e 00 3a 5c bf 42 ee 6e bf 49 5f 06 3f
       0.4928786 -0.86026 -0.933323 0.52489144
0000e0 d0 35 a6 3e 4f 29 a8 3e 87 e5 9d 3b ce ae c6 bd
       0.3246293 0.32844016 0.0048186216 -0.0970131
0000f0 d1 31 a3 3e cc 23 b4 be b1 76 b0 be 4f 22 42 3e
       0.31873944 -0.3518356 -0.34465554 0.189584
000100 5c 9e 20 3f 6a e7 20 3f 8a e8 0c bf 67 5a 25 bf
       0.6274164 0.6285311 -0.55042326 -0.6459107
000110 70 a2 cf 3e b0 c8 47 bf d6 27 42 bf c3 68 40 3f
       0.40553617 -0.780406 -0.75842035 0.75159854
000120 97 74 90 bd fd 2a 25 bd 31 8f 83 bd b7 78 7e bd
       -0.07053488 -0.0403242 -0.06423796 -0.06212684
000130 03 3e 28 3e a8 d1 45 3d 30 31 c2 bd 87 35 b9 3d
       0.16429906 0.048295647 -0.09482038 0.09043413
000140 2f b7 06 3f 17 2a 0a 3f 62 1c c4 3d 1a f8 aa be
       0.52623266 0.53970474 0.09575726 -0.3339241
000150 f7 de d9 3e 41 3d 0c bf b8 b2 0a bf 5a c0 8c 3e
       0.4255292 -0.54780966 -0.54178953 0.27490503
000160 1d ee 0a 3f cf 8f f0 3e 99 7c b0 bd 1d 56 74 be
       0.5426958 0.46984717 -0.08617515 -0.23860975
000170 bf 8a 86 3e a3 4d be be 6c 80 07 bf aa 82 19 3e
       0.2627773 -0.37168607 -0.5293033 0.1499125
000180 24 40 a9 3e c8 38 56 3e 12 54 c2 be 18 29 e1 be
       0.33056748 0.20920098 -0.37954766 -0.43976665
000190 0d 8d 6b 3e 28 37 a5 be 55 cb e8 be 6d f3 9f 3e
       0.23003025 -0.32268643 -0.4546763 0.31240407
0001a0 91 97 d3 3e 9f a0 c2 3e a1 27 c0 be 6f 00 2b bf
       0.41326573 0.3801317 -0.37530234 -0.66797537
0001b0 2d 0b 82 3e 74 70 01 bf 46 96 2c bf 3b 79 f9 3e
       0.2539915 -0.50562215 -0.674168 0.48725304
0001c0 fd 99 17 3f f5 49 27 3f 25 39 3f bf 02 e0 14 bf
       0.5921934 0.65347224 -0.7469657 -0.5815431
0001d0 4d 52 c7 3e 8d ee e9 be c4 8f 31 bf 03 fb ef 3e
       0.38929978 -0.45689812 -0.69359994 0.46871194
0001e0 37 f0 64 be 7c 70 0c 3c cb 98 94 3d d2 f8 22 3d
       -0.2235726 0.00857174 0.072557054 0.039788075
0001f0 b1 f0 58 be 46 7e 65 3d 8b fd f3 3d b5 13 df 3b
       -0.21185566 0.056028627 0.11913594 0.006807769
000200 3d d5 38 bd 12 84 98 3d 74 4e 0c bb 36 f1 f1 3c
       -0.045125235 0.074470654 -0.0021409066 0.029533964
000210 12 7c 2e 3e d5 26 37 bd 7b 3d 7f bc 90 61 bb bd
       0.17039517 -0.044714767 -0.015578623 -0.09149468
000220 3e 56 bf be 91 8b b5 be 64 0e c6 3c dc f6 8d 3e
       -0.37370485 -0.35458043 0.024176784 0.277274
000230 b5 8a 8c be 2c 2c be 3e 63 cf b1 3e 35 0a 8b be
       -0.27449575 0.37143075 0.34728536 -0.27156225
000240 b3 6d 24 3e ee 02 13 bc ba 91 5f be ec 47 18 be
       0.16057472 -0.008972866 -0.21832934 -0.14871186
000250 5d 13 6b 3e 24 97 4b be a3 31 bd be 59 6b 08 3e
       0.22956605 -0.19881874 -0.36951932 0.133222
000260 84 cd 96 bd ff 16 a9 3b 97 57 ba be e3 09 82 bb
       -0.07363418 0.005160212 -0.3639495 -0.0039684637
000270 73 d5 59 3e 52 55 db bd f9 09 a8 bb 26 9d 54 3d
       0.2127283 -0.10709633 -0.005128142 0.05190768
000280 44 77 02 3e 2b 66 a4 3d 84 91 7a be fe 8c 22 bc
       0.12740809 0.080272995 -0.24469572 -0.0099213105
000290 0e 42 ad 3d c5 51 41 bd 13 40 0b be 5d 8e ba 3d
       0.084598646 -0.047197122 -0.13598661 0.09109185
0002a0 c0 8e 29 3f 8f ed 00 3f bf 81 cb bd 6f 1f de be
       0.66233444 0.50362486 -0.099368565 -0.43383357
0002b0 ea a1 c7 3e e4 0e 18 bf 2e 29 da be ec a3 ea 3e
       0.38990718 -0.5939772 -0.42609543 0.45828187
0002c0 6b 9f 92 3e 95 7f f4 3d 7d 91 50 3d 82 79 3a be
       0.2863725 0.11938397 0.05092 -0.18210414
0002d0 44 a9 7f 3e f3 df 96 be 00 2f 3b be f4 50 1f bb
       0.24966913 -0.29467735 -0.18279648 -0.0024309726
0002e0 16 63 b0 3e 04 1e c5 3e 10 8e c7 be 06 4b 97 be
       0.34450597 0.38499463 -0.38975573 -0.29549426
0002f0 31 05 9d 3e 71 79 c8 be 8c e4 a7 be 00 fd 99 3e
       0.30668023 -0.39155152 -0.32791555 0.30075836
000300 ab d9 0d 3f a8 89 de 3e 73 08 3a bf c8 4e 26 bf
       0.5541026 0.43464398 -0.7266914 -0.6496396
000310 59 b8 26 3f 54 80 0b bf 87 24 54 bf 75 f2 f1 3e
       0.6512504 -0.5449269 -0.82868236 0.47255293
000320 20 d8 93 bd ca 4e 40 be 17 dd 81 3b 17 09 75 3d
       -0.07218957 -0.18780056 0.0039631235 0.059823122
000330 d0 ba 27 3d f1 06 e1 3d 04 98 d9 3d 89 92 1d be
       0.040949643 0.10987652 0.10624698 -0.1538793
000340 32 ea 0f be c6 cc dd 3c 31 dc 38 3e 70 81 c3 3e
       -0.14054182 0.027075183 0.18052746 0.3818469
000350 cb 46 9a bc 47 c1 6d 3e d5 35 85 3d 58 11 8b be
       -0.018832585 0.2321826 0.06504408 -0.2716167
000360 c6 ec 1c 3f a5 eb fe 3e 3e 04 3f bd 96 e7 b4 be
       0.6129879 0.49789158 -0.046634905 -0.35332936
000370 c2 c8 0e 3f f1 77 9d be 4c d5 f4 be c1 74 e8 3d
       0.5577508 -0.3075557 -0.47818983 0.11350394
000380 1c 9e 40 bc 63 02 81 3e 3e 91 62 be 7b 6f 80 bd
       -0.011756446 0.25197133 -0.22125718 -0.06271263
000390 42 1d 2c 3e 9b 16 cd 3d b7 c7 2b be aa a5 5d bc
       0.16808036 0.10014077 -0.16775404 -0.013528267
0003a0 d5 b4 6a be e2 49 9a be 72 1b 35 3e 73 6f 39 3e
       -0.22920544 -0.30134493 0.17686251 0.18108921
0003b0 3d 34 d4 bd e6 76 06 3e 41 85 91 3e 01 ad 44 be
       -0.10361526 0.13131294 0.28421977 -0.19206621
0003c0 c4 4e 9a 3e 7b 6c c0 3d 5b fa 7f 3c 06 1f 68 bd
       0.30138218 0.09395691 0.015623654 -0.05667021
0003d0 8e 49 92 3d 93 92 b3 bd 85 77 d0 bd 59 17 64 3b
       0.07142936 -0.08768191 -0.101790465 0.0034803955
0003e0 9c 00 ca 3c 67 26 1b 3c 1c 32 a7 3c 37 bf 9a 3e
       0.024658494 0.009469605 0.020409636 0.3022401
0003f0 07 70 0a 3e 04 e3 1f 3d 19 b6 6a bd d9 4f 76 bc
       0.13519298 0.03903486 -0.057302568 -0.015033686
