models/15112021_2312_lr_gccf_Movielens-100k.pt (torch, 88135 bytes, 10 tensors)

Linear_list.0.weight f4 [8, 8]
0.08987373 -0.23933437 0.17313543 -0.32046634 0.33884904 0.1800634 -0.3439388 0.050346255
0.22552577 -0.14878327 -0.33012357 -0.07863703 0.08883545 -0.2832992 0.30997857 -0.17700677
-0.3391923 -0.10194525 0.016498685 -0.16252692 0.28666398 0.20565215 0.12292117 -0.32248232
-0.07232842 0.13240024 -0.31910095 0.16005108 0.2923406 0.18022391 0.21126631 0.23599187
0.1328145 0.23452619 -0.096859396 0.009350896 -0.015468061 -0.12353304 -0.34587705 0.1870766
0.22390881 0.12290779 0.28539762 0.11873013 0.114631236 0.1564655 0.251646 -0.09893787
-0.22150171 0.1484094 -0.046494097 0.3377612 -0.3237466 0.2996162 -0.14878634 0.2265512
-0.0139550865 0.2797406 -0.23245108 -0.15535964 0.31629947 -0.220909 -0.09293848 -0.22128478
00000000: b80f b83d 1214 75be 6a4a 313e 2a14 a4be
00000010: 9f7d ad3e 8a62 383e bf18 b0be e037 4e3d
00000020: 3af0 663e a45a 18be f505 a9be 740c a1bd
00000030: 5cef b53d 980c 91be 83b5 9e3e 4341 35be
00000040: 9daa adbe acc8 d0bd 4028 873c 756d 26be
00000050: 9fc5 923e 7a96 523e 18be fb3d 671c a5be
00000060: ec20 94bd ee93 073e 3361 a3be 6ee4 233e
00000070: abad 953e 9e8c 383e 3256 583e daa7 713e
00000080: 8600 083e a227 703e 385e c6bd 8034 193c
00000090: c06d 7dbc e4fe fcbd cc16 b1be 0291 3f3e
000000a0: 5a48 653e 14b7 fb3d a31f 923e c828 f33d
000000b0: c8c3 ea3d 7e38 203e bfd7 803e f09f cabd
000000c0: 58d1 62be a2f8 173e 9870 3ebd 09ef ac3e
000000d0: 1dc2 a5be 4b67 993e 725b 18be 0afd 673e
000000e0: e0a3 64bc 293a 8f3e a807 6ebe 9916 1fbe
000000f0: 01f2 a13e f835 62be 8856 bebd 7a98 62be

Linear_list.0.bias f4 [8]
0.18499586 -0.27235174 -0.074528664 0.20977566 -0.09535903 0.0065386593 -0.13325147 -0.29246655
00000000: 8e6f 3d3e b071 8bbe 7ca2 98bd 6ecf 563e
00000010: 984b c3bd 4042 d63b 1373 08be 2dbe 95be

Linear_list.1.weight f4 [8, 8]
0.34376696 -0.1750426 -0.3475939 0.09702179 0.21491012 -0.12183449 0.09151712 0.18743744
-0.20319876 0.023145795 -0.22770037 -0.09898576 -0.26978362 0.3070595 -0.08536187 0.27590075
-0.043574452 0.12520245 0.15488872 0.040183872 -0.17583513 -0.34734046 0.3069031 0.062034816
-0.18144318 0.21978328 0.2705777 -0.1647431 0.040279627 0.08501756 -0.13169503 0.17546222
-0.014306247 0.26648316 0.20119217 -0.20354648 0.0047926307 0.23647222 -0.1536938 0.26819757
0.16795453 -0.06783724 0.31079277 -0.15986823 -0.25330323 0.033281803 -0.11830132 0.1155076
-0.17366768 0.28054217 -0.26214597 -0.1970288 0.0064015687 0.07445562 -0.2321574 -0.15855248
-0.2566432 -0.15742294 0.27098027 -0.24135914 -0.23360291 0.22952923 0.33444956 -0.341291
00000000: 3902 b03e 5e3e 33be d4f7 b1be 5cb3 c63d
00000010: 6611 5c3e 5c84 f9bd 546d bb3d 9aef 3f3e
00000020: 5613 50be 409c bd3c 492a 69be 0cb9 cabd
00000030: 1421 8abe e736 9d3e 34d2 aebd dd42 8d3e
00000040: 207b 32bd 1235 003e 269b 1e3e d897 243d
00000050: 200e 34be 9cd6 b1be 6722 9d3e 3818 7e3d
00000060: 3ecc 39be de0e 613e 2989 8a3e 6ab2 28be
00000070: 40fc 243d b01d ae3d 10db 06be 5eac 333e
00000080: c064 6abc 7b70 883e 5205 4e3e 7d6e 50be
00000090: 800b 9d3b c625 723e e861 1dbe 3151 893e
000000a0: 46fc 2b3e 40ee 8abd 3b20 9f3e 7fb4 23be
000000b0: f6b0 81be 8052 083d f647 f2bd 408f ec3d
000000c0: f1d5 31be 39a3 8f3e ff37 86be ebc1 49be
000000d0: 40c4 d13b 307c 983d abba 6dbe 955b 22be
000000e0: bd66 83be 7b33 21be edbd 8a3e da26 77be
000000f0: 9a35 6fbe b609 6b3e f93c ab3e b2bd aebe

Linear_list.1.bias f4 [8]
0.35292694 -0.074225575 0.10021517 -0.21442015 -0.2594363 -0.3252468 0.08935982 0.27229688
00000000: d7b2 b43e 9403 98bd 9c3d cd3d f590 5bbe
00000010: d6d4 84be c086 a6be 4802 b73d 7f6a 8b3e

Linear_list.2.weight f4 [8, 8]
0.054958552 -0.08529177 0.1224395 0.23626861 -0.29368806 -0.07883015 0.32455578 -0.34519926
-0.28340018 -0.24799955 -0.30872533 0.042629927 0.11407766 0.24101827 0.22412238 0.2739682
-0.08624622 -0.034059554 -0.25516632 -0.28234607 0.31829438 0.21976492 -0.22205724 0.030031264
0.19809112 0.11835703 -0.30066225 -0.15864794 0.30100134 0.10399401 0.107981 0.32923815
0.16455737 -0.02085638 0.3227091 0.34582856 0.32041022 0.30733296 -0.24180755 0.29992458
-0.15808582 0.35336968 -0.10816638 -0.3159426 -0.28750896 0.12649941 0.13293317 0.24063787
0.23710206 0.16262016 0.17596033 0.3100606 0.09557578 -0.08679715 0.30941752 0.2714369
0.17731872 -0.13620685 -0.18774723 0.08580226 -0.1801696 -0.22697692 0.07733554 0.20405063
00000000: 381c 613d 74ad aebd 90c1 fa3d 66f0 713e
00000010: 485e 96be b471 a1bd 2d2c a63e f5bd b0be
00000020: d419 91be 98f3 7dbe 3f11 9ebe b89c 2e3d
00000030: 8ca1 e93d 7ecd 763e 5680 653e 8f45 8c3e
00000040: dca1 b0bd 0882 0bbd 29a5 82be aa8f 90be
00000050: 7bf7 a23e 0e0a 613e f962 63be 2004 f63c
00000060: 66d8 4a3e 2c65 f23d 67f0 99be 9b74 22be
00000070: d91c 9a3e d0fa d43d 2425 dd3d e791 a83e
00000080: ba81 283e 00db aabc 213a a53e 7110 b13e
00000090: cf0c a43e bf5a 9d3e 669c 77be b78f 993e
000000a0: 40e1 21be dfec b43e 5686 ddbd 3ac3 a1be
000000b0: 6034 93be 1089 013e a21f 083e c669 763e
000000c0: e2ca 723e e685 263e f22e 343e 43c0 9e3e
000000d0: 3cbd c33d b4c2 b1bd f96b 9e3e c7f9 8a3e
000000e0: 0a93 353e cf79 0bbe cf40 40be 18b9 af3d
000000f0: 617e 38be a36c 68be 1862 9e3d a6f2 503e

Linear_list.2.bias f4 [8]
0.33449265 -0.1528712 0.3386325 0.063776016 -0.2537363 -0.25995815 0.1310941 0.27764365
00000000: 9f42 ab3e 458a 1cbe 3d61 ad3e 009d 823d
00000010: b9e9 81be 3c19 85be 883d 063e 4f27 8e3e

Linear_list.3.weight f4 [8, 8]
-0.29717994 0.14639589 -0.074623615 0.048896104 -0.34426817 0.16925696 -0.2199075 0.32503065
-0.03418544 0.15246448 -0.026362896 -0.007809758 -0.06474975 0.19805482 -0.10994372 0.12814847
-0.20379944 -0.17682904 0.3208787 -0.24092922 0.24106237 -0.005878985 -0.25726622 0.32916757
0.028629124 0.020690322 0.044714212 0.1905975 0.04375854 -0.2343288 -0.22175758 0.18014428
-0.039901465 -0.19555256 0.20094994 -0.27115908 -0.25562152 0.1945261 0.003290236 0.09619212
0.20526895 -0.20771733 0.33895907 0.32817814 -0.34913343 -0.06503883 -0.065419674 -0.1305075
-0.21679264 0.15147862 -0.08937955 -0.26769814 -0.11739044 0.20505813 -0.0108195245 0.01495862
-0.2694354 -0.2876356 0.33515778 -0.29240623 -0.019355088 -0.08600861 0.21971592 -0.21912104
00000000: f827 98be cee8 153e 44d4 98bd 4847 483d
00000010: eb43 b0be b251 2d3e 6f2f 61be 6b6a a63e
00000020: 0806 0cbd a61f 1c3e 00f7 d7bc 00e9 ffbb
00000030: 849b 84bd e2ce 4a3e 2c2a e1bd 5a39 033e
00000040: cdb0 50be ac12 35be 374a a43e 26b6 76be
00000050: 0ed9 763e 80a4 c0bb 66b8 83be a788 a83e
00000060: a087 ea3c c07e a93c 4026 373d fe2b 433e
00000070: 283c 333d e4f3 6fbe 6b14 63be be77 383e
00000080: b86f 23bd ee3e 48be d2c5 4d3e 5dd5 8abe
00000090: d3e0 82be da31 473e 00a1 573b 6000 c53d
000000a0: 0632 523e dab3 54be 0b8c ad3e f706 a83e
000000b0: 9ec1 b2be 1433 85bd c0fa 85bd c2a3 05be
000000c0: e4fe 5dbe 361d 1b3e a00c b7bd bb0f 89be
000000d0: 666a f0bd c2fa 513e 6044 31bc 0015 753c
000000e0: 70f3 89be f944 93be cd99 ab3e 45b6 95be
000000f0: 908e 9ebc 4825 b0bd 36fd 603e 4461 60be

Linear_list.3.bias f4 [8]
0.29234746 -0.14318098 -0.1643413 0.16203424 0.09314838 0.074718535 -0.0010362267 0.24385503
00000000: 91ae 953e 099e 12be 1649 28be 4eec 253e
00000010: 94c4 be3d 0806 993d 00d2 87ba 22b5 793e

user_embedding.weight f4 [943, 8]
0.3950046 -0.38689682 0.3775085 0.39433873 0.38263837 -0.3319697 0.34423432 0.44011334
0.39617294 -0.45781425 0.34996876 0.37176073 0.37382078 -0.41528073 0.5147145 0.44953397
0.37261644 -0.40891328 0.43593654 0.34764543 0.3661561 -0.33110103 0.4307766 0.35510042
0.3686258 -0.26326612 0.31610274 0.3178737 0.26776946 -0.21555226 0.30903822 0.27333272
0.22527191 -0.22087026 0.19796534 0.19501488 0.24372786 -0.23299463 0.23862238 0.21969129
0.38442785 -0.5154522 0.4770436 0.58267033 0.52800864 -0.4166136 0.4402659 0.5341317
0.18369138 -0.23712328 0.26601213 0.27662265 0.28109848 -0.2547004 0.17778969 0.27096394
0.40245017 -0.34897158 0.4244684 0.42099577 0.43744338 -0.42366126 0.3465854 0.4768111
0.5486755 -0.51410556 0.510283 0.549048 0.5337459 -0.48372644 0.48240775 0.51141614
0.23436794 -0.24500646 0.26922742 0.27514306 0.24348171 -0.25471172 0.24131621 0.24840425
0.31030425 -0.28822222 0.3649973 0.34932536 0.3183388 -0.37243512 0.30785382 0.3588126
0.2551378 -0.25086558 0.27602363 0.3516807 0.33718926 -0.3029549 0.2805021 0.32200795
0.36317977 -0.38143936 0.35152966 0.31669638 0.31626317 -0.35921484 0.33985427 0.38576546
0.3281929 -0.31423092 0.50233275 0.4027385 0.41679993 -0.3200904 0.40253946 0.4262993
0.5692843 -0.55489206 0.47738189 0.52134466 0.4821309 -0.48779327 0.5862827 0.48254946
0.35663325 -0.417847 0.47823226 0.34565926 0.45261213 -0.40374726 0.32319236 0.41616952
0.52575266 -0.49123502 0.52713895 0.5038342 0.5293751 -0.51757556 0.58900684 0.55058056
0.3628238 -0.36742204 0.35118538 0.39699885 0.3949071 -0.4270456 0.36773273 0.38674083
0.5605081 -0.5581961 0.6103692 0.577392 0.6117105 -0.6017262 0.60121685 0.5964332
0.5079213 -0.4845614 0.49823117 0.4944762 0.4775514 -0.5025928 0.4932993 0.49179575
0.080135554 -0.06405269 0.057765037 0.081307925 0.03992884 -0.019577384 0.035222113 0.022223063
0.364803 -0.33494565 0.35896203 0.36344728 0.46463498 -0.3923773 0.3327362 0.41271836
0.47833583 -0.3040183 0.44392952 0.4365618 0.45482352 -0.48866045 0.41183463 0.51205176
0.45602405 -0.29447567 0.4500097 0.41849154 0.43860307 -0.3967706 0.46166605 0.42738786
0.17810985 -0.21869524 0.22033022 0.2329913 0.27098167 -0.18795499 0.23561455 0.25121635
0.47749984 -0.4730064 0.3946831 0.47489965 0.40661216 -0.46158084 0.613172 0.41560525
0.48508617 -0.46835425 0.43880445 0.46522796 0.44991407 -0.45067337 0.4597923 0.4382759
0.18336004 -0.26675457 0.41350347 0.2829747 0.25926068 -0.3607355 0.2917293 0.32918805
0.59766275 -0.4826463 0.48728666 0.55683094 0.46931547 -0.5289627 0.56266844 0.46873644
0.50754327 -0.47059327 0.5160491 0.49687517 0.43877262 -0.5091413 0.47761235 0.43095353
0.25214565 -0.44600216 0.40027142 0.43878737 0.48070624 -0.41101736 0.32288817 0.31754294
0.5113908 -0.5430212 0.64104396 0.5014307 0.5184929 -0.58403754 0.5628808 0.50227016
00000000: 0b3e ca3e 5717 c6be cb48 c13e c4e6 c93e
00000010: 2de9 c33e eff7 a9be 7b3f b03e 8956 e13e
00000020: 2ed7 ca3e a166 eabe 1b2f b33e 6c57 be3e
00000030: 7065 bf3e ad9f d4be 54c4 033f 5129 e63e
00000040: 95c7 be3e 155d d1be 1333 df3e 95fe b13e
00000050: d078 bb3e 1386 a9be c08e dc3e b9cf b53e
00000060: 85bc bc3e d1ca 86be 38d8 a13e 57c0 a23e
00000070: 1419 893e bbb9 5cbe 423a 9e3e 44f2 8b3e
00000080: aead 663e d02b 62be 6db7 4a3e fbb1 473e
00000090: cc93 793e 2596 6ebe 6d59 743e c1f6 603e
000000a0: bad3 c43e adf4 03bf 0f3f f43e e229 153f
000000b0: 932b 073f 614e d5be 886a e13e dbbc 083f
000000c0: 9819 3c3e 72d0 72be be32 883e 7ca1 8d3e
000000d0: 24ec 8f3e 1768 82be 800e 363e c9bb 8a3e
000000e0: f30d ce3e 67ac b2be ec53 d93e c28c d73e
000000f0: 94f8 df3e 21ea d8be a473 b13e 9620 f43e
00000100: ff75 0c3f 6c9c 03bf e8a1 023f 698e 0c3f
00000110: 92a3 083f feaa f7be 26fe f63e 2bec 023f
00000120: 26fe 6f3e f9e2 7abe 2dd8 893e 8ddf 8c3e
00000130: 4553 793e 9369 82be 991b 773e af5d 7e3e
00000140: 33e0 9e3e dd91 93be ede0 ba3e c6da b23e
00000150: 4efd a23e d1af bebe 049f 9d3e 49b6 b73e
00000160: 6ca1 823e 7471 80be f852 8d3e 7e0f b43e
00000170: 12a4 ac3e e81c 9bbe f99d 8f3e 3ade a43e
00000180: b3f2 b93e 054c c3be b2fb b33e 0726 a23e
00000190: 3fed a13e 02eb b7be 6101 ae3e 0d83 c53e
000001a0: e608 a83e e0e2 a0be e198 003f be33 ce3e
000001b0: cd66 d53e e4e2 a3be a719 ce3e e743 da3e
000001c0: 9ebc 113f 680d 0ebf 666b f43e d876 053f
000001d0: dcd9 f63e 0ac0 f9be 9f16 163f b910 f73e
000001e0: a298 b63e 0bf0 d5be dcda f43e 40fa b03e
000001f0: c7bc e73e f6b7 cebe 7879 a53e 2c14 d53e
00000200: ba97 063f 2883 fbbe 94f2 063f 47fb 003f
00000210: 2085 073f d57f 04bf 27c9 163f d9f2 0c3f
00000220: 0bc4 b93e be1e bcbe 92ce b33e 6f43 cb3e
00000230: 4331 ca3e b9a5 dabe 7747 bc3e e502 c63e
00000240: 757d 0f3f f1e5 0ebf 2841 1c3f f6cf 133f
00000250: 0f99 1c3f ba0a 1abf 59e9 193f d9af 183f
00000260: 2107 023f 6f18 f8be 2818 ff3e fc2b fd3e
00000270: 9e81 f43e eca9 00bf ba91 fc3e a7cc fb3e
00000280: 1c1e a43d 0f2e 83bd 089b 6c3d c584 a63d
00000290: 6c8c 233d c060 a0bc 1045 103d 240d b63c
000002a0: 75c7 ba3e ff7d abbe dfc9 b73e c315 ba3e
000002b0: a3e4 ed3e ade5 c8be 665c aa3e d24f d33e
000002c0: 6fe8 f43e 49a8 9bbe bb4a e33e 0785 df3e
000002d0: a1de e83e b431 fabe fddb d23e d315 033f
000002e0: fc7b e93e 84c5 96be ac67 e63e 8644 d63e
000002f0: 9590 e03e 8425 cbbe 7e5f ec3e 95d2 da3e
00000300: 6e62 363e a5f1 5fbe 3f9e 613e 4595 6e3e
00000310: 1cbe 8a3e 4677 40be f144 713e 6e9f 803e
00000320: dc7a f43e e52d f2be e713 ca3e 0c26 f33e
00000330: 782f d03e 5354 ecbe d7f8 1c3f 36ca d43e
00000340: 375d f83e 21cc efbe faaa e03e 5c32 ee3e
00000350: 235b e63e a9be e6be e569 eb3e b365 e03e
00000360: bcc2 3b3e 0e94 88be bab6 d33e 0fe2 903e
00000370: d1bd 843e 53b2 b8be 8b5d 953e 568b a83e
00000380: 6d00 193f 6a1d f7be a37d f93e 798c 0e3f
00000390: 1e4a f03e 196a 07bf 0a0b 103f 39fe ef3e
000003a0: 5bee 013f 9af1 f0be cb1b 043f 6c66 fe3e
000003b0: cea6 e03e 1657 02bf 9b89 f43e f1a5 dc3e
000003c0: 3c19 813e 655a e4be 60f0 cc3e bda8 e03e
000003d0: 211f f63e de70 d2be 9951 a53e fd94 a23e
000003e0: 82ea 023f 7003 0bbf 751b 243f c35d 003f
000003f0: f3bb 043f 7c83 15bf f518 103f c794 003f

item_embedding.weight f4 [1682, 8]
0.2877891 -0.31778687 0.3140353 0.3174088 0.32660624 -0.32869563 0.3226096 0.31583062
0.06568275 -0.029609174 0.03805077 0.038843244 0.02248459 -0.08634953 0.00933784 0.031539608
0.17962702 -0.21187003 0.20326294 0.168817 0.17821456 -0.21246931 0.169465 0.1923071
0.2937019 -0.2670154 0.29344293 0.26769266 0.30168647 -0.2774186 0.2665241 0.29953587
0.1867767 -0.31524593 0.21446134 0.26599622 0.21984181 -0.2391813 0.25018123 0.23400395
0.22162284 -0.28140232 0.26385245 0.2266949 0.2022572 -0.15936418 0.30300462 0.16119061
0.3819678 -0.35232416 0.33715892 0.35541904 0.36066166 -0.36390552 0.3501022 0.34654573
0.2587887 -0.2919154 0.32246503 0.29730386 0.3380903 -0.29660493 0.3222695 0.32143962
0.41273263 -0.40592274 0.40222615 0.39517945 0.42046222 -0.4009437 0.43321845 0.4001333
0.2898821 -0.34797287 0.30420974 0.32110518 0.29899013 -0.30751604 0.29342386 0.3253177
0.24723984 -0.22132364 0.24786054 0.27565336 0.28792745 -0.25024787 0.2386034 0.2551245
0.26233828 -0.25174552 0.24865884 0.24036969 0.24927726 -0.26994762 0.24426736 0.2529238
0.2663902 -0.25185287 0.24781442 0.2477531 0.27576306 -0.23789184 0.25643584 0.26733407
0.42024502 -0.4325927 0.43854973 0.41407654 0.43374568 -0.37231407 0.4052259 0.41749033
0.38279417 -0.35443828 0.3593659 0.37241286 0.39456216 -0.37289602 0.38879272 0.36250126
0.073609844 -0.039622802 0.10768624 0.026355034 0.07851061 -0.124456264 0.07618138 0.15578727
0.10563688 -0.03825327 0.10247795 0.085215405 0.15161723 -0.06361009 0.11990016 0.15101507
-0.107646465 0.14802009 -0.1587516 -0.1433579 -0.13372774 0.15583764 -0.1355114 -0.1775081
0.3365268 -0.33775276 0.3379056 0.34454384 0.34814033 -0.32418856 0.34626386 0.33595183
0.17875175 -0.1885748 0.17226529 0.19956852 0.2091338 -0.16610967 0.18432605 0.19143723
0.20128974 -0.21691653 0.16210094 0.17978387 0.20414267 -0.2078314 0.1604729 0.21686548
0.22954401 -0.21981865 0.23042361 0.21957365 0.21763587 -0.25723326 0.21349029 0.22034588
0.20360574 -0.1856191 0.18379682 0.1946474 0.24431443 -0.17609745 0.18113874 0.21970536
0.3207561 -0.30191317 0.34222692 0.30222297 0.32466102 -0.31689757 0.36033732 0.3280294
0.32224035 -0.36584938 0.33973047 0.3711459 0.36648622 -0.31331292 0.36445072 0.35255128
0.11728663 -0.0923258 0.092868544 0.077699244 0.117855445 -0.09599829 0.1041059 0.110135704
0.22331129 -0.22880174 0.22308749 0.20746078 0.21803887 -0.2517345 0.22916636 0.24054119
0.22629733 -0.23917647 0.27243283 0.26383147 0.2999213 -0.27280378 0.25619456 0.25307152
0.24229643 -0.20180115 0.2303524 0.22076999 0.24129252 -0.18910906 0.18834035 0.19969173
-0.058846235 0.06507806 -0.042646445 -0.054561168 -0.059802968 0.07660364 -0.025911456 -0.06609817
0.22176166 -0.18125302 0.1990483 0.2389766 0.2386715 -0.25381342 0.17744306 0.2340699
0.21193779 -0.22990267 0.2200979 0.25963923 0.25604162 -0.27725136 0.24951485 0.23628493
00000000: 1859 933e f6b4 a2be 3cc9 a03e 6883 a23e
00000010: ef38 a73e cb4a a8be 162d a53e 8db4 a13e
00000020: ad84 863d f08e f2bc 20db 1b3d 181a 1f3d
00000030: 9a31 b83c 06d8 b0bd bdfd 183c ad2f 013d
00000040: 25f0 373e 75f4 58be 2924 503e 5dde 2c3e
00000050: e17d 363e 8e91 59be 3c88 2d3e 27ec 443e
00000060: 1860 963e 3eb6 88be 273e 963e 030f 893e
00000070: a676 9a3e d009 8ebe d975 883e c45c 993e
00000080: 6442 3f3e ea67 a1be c19b 5b3e a830 883e
00000090: 361e 613e f1eb 74be c117 803e bb9e 6f3e
000000a0: 19f1 623e f713 90be ab17 873e b522 683e
000000b0: 831c 4f3e 5d30 23be 6c23 9b3e 270f 253e
000000c0: 4991 c33e d563 b4be 18a0 ac3e 7cf9 b53e
000000d0: a5a8 b83e d351 babe 9840 b33e 716e b13e
000000e0: f47f 843e ef75 95be 231a a53e 3638 983e
000000f0: 2c1a ad3e 9adc 97be 8200 a53e bc93 a43e
00000100: b151 d33e 1bd5 cfbe 96f0 cd3e f654 ca3e
00000110: d346 d73e 7e48 cdbe cfce dd3e 46de cc3e
00000120: 6d6b 943e 8029 b2be 61c1 9b3e e667 a43e
00000130: 3c15 993e be72 9dbe a73b 963e 0b90 a63e
00000140: 712c 7d3e aaa2 62be 27cf 7d3e 7022 8d3e
00000150: 3a6b 933e 7d20 80be 7354 743e ae9f 823e
00000160: 3451 863e cae4 80be 6ca0 7e3e 7923 763e
00000170: 8a42 7f3e 9336 8abe 3921 7a3e 3a7f 813e
00000180: 4c64 883e dcf2 80be 10c3 7d3e fdb2 7d3e
00000190: d130 8d3e eb99 73be 8f4b 833e 03e0 883e
000001a0: 5b2a d73e ca7c ddbe 9789 e03e d701 d43e
000001b0: ea13 de3e f39f bebe c579 cf3e 4bc1 d53e
000001c0: 99fd c33e ef78 b5be cffe b73e e6ac be3e
000001d0: 0d04 ca3e 3aec bebe d70f c73e c499 b93e
000001e0: c2c0 963d 854b 22bd 9a8a dc3d 83e6 d73c
000001f0: 2cca a03d ede2 febd fc04 9c3d b386 1f3e
00000200: 2658 d83d 76af 1cbd f6df d13d 6a85 ae3d
00000210: 8c41 1b3e 0246 82bd 378e f53d b2a3 1a3e
00000220: c075 dcbd 9492 173e c88f 22be 6acc 12be
00000230: edef 08be e793 1f3e 80c3 0abe afc4 35be
00000240: 3e4d ac3e eeed acbe f601 ad3e 0d68 b03e
00000250: 733f b23e 0bfc a5be 7f49 b13e e101 ac3e
00000260: b30a 373e c119 41be 5066 303e b15b 4c3e
00000270: 2c27 563e a718 2abe f8bf 3c3e 1f08 443e
00000280: e61e 4e3e 5e1f 5ebe cafd 253e 4319 383e
00000290: c70a 513e c1d1 54be 0253 243e fc11 5e3e
000002a0: 960d 6b3e 2418 61be 2bf4 6b3e ead7 603e
000002b0: f0db 5e3e 14b4 83be 339d 5a3e 5aa2 613e
000002c0: 067e 503e ef12 3ebe 3c35 3c3e a651 473e
000002d0: 902d 7a3e e452 34be 6f7c 393e 71fa 603e
000002e0: 253a a43e 5d94 9abe 5e38 af3e f8bc 9a3e
000002f0: f839 a63e 6640 a2be 227e b83e 78f3 a73e
00000300: b0fc a43e 9c50 bbbe 27f1 ad3e d606 be3e
00000310: 15a4 bb3e 8d6a a0be 4999 ba3e 9a81 b43e
00000320: f933 f03d 4f15 bdbd dd31 be3d c820 9f3d
00000330: 325e f13d c09a c4bd 7935 d53d d48e e13d
00000340: b7ab 643e 014b 6abe 0c71 643e 9970 543e
00000350: 9545 5f3e 58e3 80be 96aa 6a3e 6e50 763e
00000360: 7dba 673e adea 74be 517c 8b3e eb14 873e
00000370: 498f 993e f0ac 8bbe ef2b 833e 9792 813e
00000380: 8e1c 783e f6a4 4ebe 80e1 6b3e 8711 623e
00000390: 6315 773e cea5 41be 4bdc 403e fd7b 4c3e
000003a0: c008 71bd a547 853d 0aae 2ebd 887b 5fbd
000003b0: f5f3 74bd 5fe2 9c3d 4344 d4bc 7a5e 87bd
000003c0: 7d15 633e 649a 39be 51d3 4b3e 48b6 743e
000003d0: 4d66 743e d5f3 81be a2b3 353e 05b0 6f3e
000003e0: 3806 593e 9b6b 6bbe 5861 613e 6fef 843e
000003f0: e317 833e e4f3 8dbe d280 7f3e adf4 713e
