models/15112021_2346_mf_Movielens-100k.pt (torch, 85159 bytes, 2 tensors)

user_embedding.weight f4 [943, 8]
-0.43216917 0.29071414 -0.3432212 0.34532857 -0.06908376 0.2735314 0.048368618 -0.000307518
-0.42901582 0.4714693 -0.27466026 0.12675014 0.059410486 0.4679757 -0.35776517 -0.4899213
-0.51897466 0.6092124 0.11657171 -0.17644891 -0.17510371 0.4564202 -0.6253631 -0.38905331
-0.34943467 0.45113012 0.027316177 0.035680253 -0.17827882 0.4982125 -0.46552137 -0.43726537
-0.37075427 0.13452923 -0.22741412 0.27629003 0.1276077 0.11778586 0.17151012 -0.16736394
-0.36993384 0.37506852 -0.25566268 0.22738972 -0.15494609 0.34456164 -0.03079523 -0.22740522
-0.21651506 0.16260293 -0.23595469 0.35597408 -0.1236141 0.32382956 0.12522839 0.082576364
-0.3494953 0.3394129 -0.38413653 0.38913944 -0.10738034 0.43132338 -0.0730157 -0.20325108
-0.54376704 0.22739 -0.042967778 0.31498083 -0.2395972 0.29182518 -0.05316298 -0.2554884
-0.27676284 0.17850854 -0.18772756 0.16902688 -0.32114267 0.4260204 -0.0025452434 -0.140546
-0.34471166 0.12793116 -0.1671505 0.29350856 -0.069540285 0.13527793 -0.033249564 -0.046041228
-0.39566442 0.29800743 -0.36887193 0.47321415 -0.19232154 0.30972636 0.16569665 -0.10886318
-0.28805497 0.23345156 -0.23467644 0.30234846 -0.12768143 0.39202973 -0.07776258 -0.27055696
-0.37578478 0.26599172 -0.30347174 0.4771444 -0.059806377 0.49005768 0.24470356 -0.043137703
-0.4828461 0.3408685 -0.19480267 0.341994 0.17584233 0.37267014 -0.17530696 -0.3783362
-0.28883967 0.26104903 -0.42506063 0.3885018 -0.22387078 0.40123993 0.049645197 -0.19808958
-0.45282146 0.4748909 -0.4891903 0.5432318 0.3018498 0.38942683 -0.18674779 -0.4419765
-0.2569616 0.23825416 -0.3753035 0.37161505 -0.36542773 0.42625695 0.018515777 0.017521728
-0.42998677 0.41860715 -0.036346734 0.2526313 -0.008947143 0.4778726 -0.14901775 -0.30303663
-0.39573416 0.115906246 -0.5218683 0.5173551 0.05334326 0.25090718 -0.015708394 -0.28213435
-0.105481885 0.1626111 -0.10538036 0.12149851 0.17755958 0.21426636 -0.029713856 -0.2859853
-0.29557046 0.3399933 -0.37106487 0.337563 0.05384123 0.39858735 -0.07565293 -0.06336064
-0.39066762 0.33898148 -0.33616143 0.4805852 0.014808803 0.43806458 0.23341002 -0.15990601
-0.57286125 0.2909214 -0.44808716 0.37096286 -0.042327836 0.31675893 -0.017982075 -0.009967723
-0.42968193 0.2885933 -0.28398412 0.49420774 0.0007236862 0.32877997 0.111229464 -0.033128094
-0.52673596 0.50408417 -0.43828568 0.31596068 0.00039371685 0.1036748 -0.3015904 -0.40685314
-0.4972365 0.44510114 -0.33677548 0.29143277 0.29331994 0.21392772 0.12991703 -0.26048094
-0.46371147 0.22843498 -0.43587685 0.43749377 -0.14014032 0.22744487 -0.2235427 -0.02695929
-0.38931105 0.34566987 -0.38056502 -0.016592694 -0.28160557 0.47458506 -0.23689678 -0.3429554
-0.49110615 0.4836126 -0.31566074 0.24682891 -0.33191356 0.39830408 -0.14751185 -0.51664495
-0.37703496 0.44600466 -0.13490187 0.1970492 -0.3348295 0.30050024 -0.23018968 -0.37874153
-0.5690907 0.41722676 -0.41801664 0.51788205 0.04105237 0.37354276 -0.13067752 -0.36811668
00000000: 4745 ddbe 7cd8 943e b0ba afbe e8ce b03e
00000010: c97b 8dbd 4f0c 8c3e 2c1e 463d 5e3a a1b9
00000020: f6a7 dbbe 6d64 f13e 45a0 8cbe caca 013e
00000030: 6958 733d 839a ef3e ff2c b7be f7d6 fabe
00000040: 86db 04bf 58f5 1b3f 26bd ee3d 06af 34be
00000050: 634e 33be e9af e93e cc17 20bf ff31 c7be
00000060: 1ae9 b2be 87fa e63e 2dc6 df3c 7525 123d
00000070: b98e 36be b515 ff3e d158 eebe 3fe1 dfbe
00000080: 81d3 bdbe 08c2 093e 3fdf 68be e375 8d3e
00000090: 98ab 023e b739 f13d 59a0 2f3e 7461 2bbe
000000a0: f867 bdbe fb08 c03e 38e6 82be dad8 683e
000000b0: 30aa 1ebe 626a b03e 4746 fcbc eadc 68be
000000c0: 20b6 5dbe 6281 263e 1b9e 71be 3c42 b63e
000000d0: 6429 fdbd fdcc a53e df3b 003e cc1d a93d
000000e0: 0cf1 b2be 87c7 ad3e 8bad c4be 493d c73e
000000f0: 39ea dbbd 6bd6 dc3e 4189 95bd 0d21 50be
00000100: 5134 0bbf edd8 683e fbfe 2fbd 2b45 a13e
00000110: f858 75be 1c6a 953e 6dc1 59bd 60cf 82be
00000120: dcb3 8dbe f1ca 363e a73b 40be 6215 2d3e
00000130: d06c a4be 591f da3e 19ce 26bb 4aeb 0fbe
00000140: 0c7e b0be 6300 033e 8029 2bbe c146 963e
00000150: 236b 8ebd 4c86 0a3e b230 08bd ba95 3cbd
00000160: 8794 cabe 6e94 983e c8dc bcbe 2049 f23e
00000170: f0ef 44be 7494 9e3e 62ac 293e a9f3 debd
00000180: f17b 93be ed0d 6f3e 054f 70be 6bcd 9a3e
00000190: ecbe 02be 1fb8 c83e fd41 9fbd 7186 8abe
000001a0: dd66 c0be 1130 883e a660 9bbe 454c f43e
000001b0: 88f7 74bd d7e8 fa3e 9293 7a3e 29b1 30bd
000001c0: 9b37 f7be 5186 ae3e 5a7a 47be d619 af3e
000001d0: 0310 343e 9fce be3e ab83 33be 48b5 c1be
000001e0: cbe2 93be 38a8 853e 8ca1 d9be b5e9 c63e
000001f0: 623e 65be 526f cd3e c358 4b3d ffd7 4abe
00000200: 37d8 e7be e624 f33e 2777 fabe 3d11 0b3f
00000210: 0f8c 9a3e f462 c73e d03a 3fbe be4a e2be
00000220: 7990 83be e6f8 733e c827 c0be 5444 be3e
00000230: 5819 bbbe 5a3e da3e 66ae 973c ba89 8f3c
00000240: 3a27 dcbe ad53 d63e 50e0 14bd e458 813e
00000250: 0a97 12bc b8ab f43e 1c98 18be 9e27 9bbe
00000260: ab9d cabe 4160 ed3d 2999 05bf 6271 043f
00000270: 767e 5a3d e876 803e e4ae 80bc ea73 90be
00000280: e306 d8bd 8683 263e a8d1 d7bd 36d4 f83d
00000290: 2ed2 353e a468 5b3e 796a f3bc aa6c 92be
000002a0: 0355 97be 9a13 ae3e 37fc bdbe 0fd5 ac3e
000002b0: 9f88 5c3d a413 cc3e ecef 9abd 39c3 81bd
000002c0: 9605 c8be fb8e ad3e 5a1d acbe 430f f63e
000002d0: 9fa0 723c 004a e03e 0903 6f3e 67be 23be
000002e0: 09a7 12bf a6f3 943e ae6b e5be d8ee bd3e
000002f0: f45f 2dbd 3a2e a23e 254f 93bc a94f 23bc
00000300: 45ff dbbe 80c2 933e 5e66 91be cc08 fd3e
00000310: c2b5 3d3a d955 a83e 46cc e33d 53b1 07bd
00000320: 2bd8 06bf a90b 013f fb66 e0be 99c5 a13e
00000330: c86b ce39 7453 d43d 0f6a 9abe 0e4f d0be
00000340: c895 febe 4ce4 e33e d66d acbe ad36 953e
00000350: 082e 963e de0f 5b3e f808 053e c25d 85be
00000360: 976b edbe dcea 693e 402b dfbe 2fff df3e
00000370: f280 0fbe 4fe7 683e 61e8 64be bbd9 dcbc
00000380: c753 c7be a4fb b03e 6bd9 c2be 67ed 87bc
00000390: 9b2e 90be d0fc f23e 1295 72be da97 afbe
000003a0: 4472 fbbe 129c f73e 499e a1be b8c0 7c3e
000003b0: 93f0 a9be 83ee cb3e 590d 17be d842 04bf
000003c0: ba0a c1be b95a e43e b723 0abe 44c7 493e
000003d0: c66e abbe 2bdb 993e d8b6 6bbe 69ea c1be
000003e0: eeaf 11bf bf9e d53e 4706 d6be eb93 043f
000003f0: 8826 283d ff40 bf3e 54d0 05be ca79 bcbe

item_embedding.weight f4 [1682, 8]
-0.99316496 0.7264167 -0.98486376 1.1155852 0.2304281 0.72946185 -0.09771142 -0.7747672
-0.23533343 -0.06682542 -0.3479959 0.21669088 0.0860142 0.028986087 0.20994826 0.18420026
-0.009304616 -0.12624271 -0.11256941 0.117426276 0.032100026 -0.159725 0.0600521 0.06824543
-0.23092972 0.15467642 -0.2589073 0.40062404 0.09839366 0.37201217 0.23783815 0.010155432
-0.045547735 -0.16091447 -0.29313594 0.055075813 0.035157677 0.009973555 0.08372994 0.13728523
-0.0500061 0.1196775 0.11508852 0.056799673 -0.19814193 -0.1658767 -0.018585091 0.13987897
-0.91931456 0.7026527 -0.7730921 0.853793 0.17828113 0.5998796 0.1729365 -0.5078387
-0.3271906 0.14102267 -0.23504049 0.45201674 -0.15674691 0.43703726 0.19900414 0.12205481
-0.84831554 0.63935345 -0.61615986 0.67296433 0.2688282 0.6432541 -0.13831595 -0.43222073
0.030816015 0.069849886 0.18738486 0.20517312 -0.09925015 0.06468137 0.18410179 0.04112129
-0.54607093 0.17216556 -0.32381678 0.6552238 -0.06850374 0.28501254 -0.121678144 0.048528716
-0.62591785 0.36904928 -0.5808129 0.6294791 -0.1874932 0.5867302 -0.013970178 -0.08246854
-0.4187824 0.43483582 -0.49162602 0.6450974 0.2903433 0.18290778 -0.12656772 -0.30508697
-0.63893026 0.7385688 -0.22109033 0.5212697 -0.0711896 0.44721836 -0.07440861 -0.54603684
-0.733884 0.5699735 -0.65755904 0.8132123 0.111579046 0.37664154 0.09031395 -0.63027483
0.014158194 -0.10014722 0.09526563 -0.09298905 -0.24393895 -0.17529035 -0.05736982 0.06419354
-0.016715921 -0.18286242 0.008420193 0.052266955 -0.102062084 0.0039783106 -0.02589936 0.19339865
0.31265768 -0.18753608 0.4540747 -0.2488278 -0.021437636 -0.22757547 0.004547088 0.22592151
-0.21953328 0.20917682 0.079124466 0.10447659 -0.26214108 0.08928412 0.024742523 -0.074675806
-0.058245756 -0.02524987 0.12378627 0.092242576 -0.08754607 0.0018681482 0.11384642 -0.083986685
-0.19838426 0.35721028 -0.25488767 0.34991914 0.32005727 0.13708395 0.28431144 -0.2228619
-0.56594706 0.37731263 -0.53805286 0.67795724 -0.20173845 0.615127 0.08490294 0.034452982
-0.2684557 0.01945802 -0.37436566 0.36156923 -0.21502787 0.23572879 0.1512979 0.18372278
-0.53890514 0.4512395 -0.53955424 0.41006944 0.43279698 0.38325566 0.04767206 -0.2140339
-0.5968619 0.4256073 -0.47759908 0.8220873 0.13411957 0.23362416 0.08243649 -0.5612008
0.23639253 -0.015291495 0.12216193 -0.02664859 -0.14330524 -0.00798462 0.094507 0.15032208
0.09241576 -0.2861372 -0.03225092 0.08728249 0.050914038 -0.018846275 0.084487505 0.123095416
-0.53471625 0.27809915 -0.58214635 0.58514005 -0.05376149 0.5859421 -0.017247425 -0.11681375
0.07627039 -0.024099743 0.062294904 0.027523696 0.04875068 0.014632187 -0.03591969 0.1711636
0.08848231 -0.18919761 0.22746533 -0.16428071 -0.23203178 -0.23235519 0.009928 0.13452977
-0.09538862 0.18648915 -0.20743567 0.27601728 0.06164755 0.26676282 -0.039083682 0.04168525
-0.022236895 -0.047602795 -0.09616276 0.08025371 0.09190856 0.027731959 0.24196403 0.38195017
00000000: 0f40 7ebf 72f6 393f 0820 7cbf 7fcb 8e3f
00000010: 58f5 6b3e 03be 3a3f ed1c c8bd 2557 46bf
00000020: 3ffb 70be c4db 88bd 852c b2be 37e4 5d3e
00000030: 3628 b03d 3b74 ed3c adfc 563e fe9e 3c3e
00000040: 6372 18bc c545 01be ca8a e6bd 307d f03d
00000050: 517b 033d f38e 23be 31f9 753d 43c4 8b3d
00000060: d778 6cbe 7f63 1e3e 7f8f 84be 981e cd3e
00000070: 9d82 c93d 6178 be3e d88b 733e f862 263c
00000080: 4390 3abd c3c6 24be ea15 96be 2d97 613d
00000090: 7f01 103d 1f68 233c 9a7a ab3d 8094 0c3e
000000a0: 32d3 4cbd 7a19 f53d 88b3 eb3d c6a6 683d
000000b0: b8e5 4abe 95db 29be c33f 98bc 6f3c 0f3e
000000c0: 3358 6bbf 0ce1 333f 5de9 45bf 2e92 5a3f
000000d0: 548f 363e b691 193f 4416 313e b801 02bf
000000e0: 8785 a7be 3f68 103e 74ae 70be bd6e e73e
000000f0: 4382 20be 59c3 df3e bec7 4b3e dff7 f93d
00000100: 352b 59bf abac 233f a7bc 1dbf 6447 2c3f
00000110: daa3 893e 4dac 243f b2a2 0dbe 094c ddbe
00000120: de71 fc3c 750d 8f3d d1e1 3f3e e718 523e
00000130: aa43 cbbd ab77 843d 2e85 3c3e cc6e 283d
00000140: 4ecb 0bbf 2b4c 303e 50cb a5be bfbc 273f
00000150: b04b 8cbd 2aed 913e 6432 f9bd 0cc6 463d
00000160: 273c 20bf 07f4 bc3e 27b0 14bf 8b25 213f
00000170: 38fe 3fbe f333 163f 2ce3 64bc 44e5 a8bd
00000180: a66a d6be cda2 de3e 68b6 fbbe 1a25 253f
00000190: e1a7 943e 2d4c 3b3e f89a 01be 5c34 9cbe
000001a0: ef90 23bf d812 3d3f 8165 62be ee71 053f
000001b0: dacb 91bd cef9 e43e 8b63 98bd 12c9 0bbf
000001c0: d2df 3bbf c9e9 113f ca55 28bf ae2e 503f
000001d0: 8e83 e43d 29d7 c03e 85f6 b83d b159 21bf
000001e0: c5f7 673c fc19 cdbd a01a c33d 0b71 bebd
000001f0: 22cb 79be 507f 33be 9efc 6abd e777 833d
00000200: d4ef 88bc 4940 3bbe d9f4 093c e015 563d
00000210: ed05 d1bd 7d5c 823b e52a d4bc 4c0a 463e
00000220: ab14 a03e 7509 40be 7b7c e83e b7cc 7ebe
00000230: fb9d afbc 8b09 69be bdff 943b f857 673e
00000240: 55cd 60be 7332 563e 020c a23d d3f7 d53d
00000250: 5b37 86be 98da b63d d5b0 ca3c a1ef 98bd
00000260: 1a93 6ebd d1d8 cebc a883 fd3d ade9 bc3d
00000270: 5b4b b3bd a7dc f43a 5028 e93d 3601 acbd
00000280: 3e25 4bbe 44e4 b63e a380 82be 9a28 b33e
00000290: 8cde a33e bc5f 0c3e 4591 913e e935 64be
000002a0: e8e1 10bf 1f2f c13e d5bd 09bf 9b8e 2d3f
000002b0: 8694 4ebe f778 1d3f 98e1 ad3d 921e 0d3d
000002c0: 0773 89be 6d66 9f3c dbac bfbe 9a1f b93e
000002d0: 4430 5cbe e362 713e d6ed 1a3e d321 3c3e
000002e0: b0f5 09bf dd08 e73e 3a20 0abf 9ff4 d13e
000002f0: 9197 dd3e 163a c43e c743 433d b42b 5bbe
00000300: f1cb 18bf 33e9 d93e de87 f4be 5074 523f
00000310: a456 093e 2c3b 6f3e 76d4 a83d dbaa 0fbf
00000320: e210 723e 2e89 7abc 0930 fa3d 254e dabc
00000330: 9cbe 12be ecd1 02bc e38c c13d 08ee 193e
00000340: 7944 bd3d 9380 92be 8a19 04bd 2ac1 b23d
00000350: 3d8b 503d 8163 9abc c907 ad3d 7319 fc3d
00000360: 2ae3 08bf 0363 8e3e 8b07 15bf bdcb 153f
00000370: 0235 5cbd 4d00 163f 794a 8dbc 0c3c efbd
00000380: a633 9c3d d36c c5bc f128 7f3d 6079 e13c
00000390: cbae 473d d7bb 6f3c 8620 13bd 8345 2f3e
000003a0: 3736 b53d 05bd 41be acec 683e 3439 28be
000003b0: bd99 6dbe 85ee 6dbe 0da9 223c 2cc2 093e
000003c0: 1c5b c3bd 03f7 3e3e 046a 54be 2352 8d3e
000003d0: 2482 7c3d 2395 883e 3616 20bd 27be 2a3d
000003e0: 262a b6bc 26fb 42bd fbf0 c4bd 0f5c a43d
000003f0: 8e3a bc3d 222e e33c 6bc5 773e f98e c33e
