models/16112021_0001_mf_Movielens-100k.pt (torch, 85159 bytes, 2 tensors)

user_embedding.weight f4 [943, 8]
00000000: 1c57 74be 9c9d fe3e 74c1 f9be 2881 cd3e
00000010: a667 80bd 7603 eb3e dc5c acbe 77d0 07bf
00000020: 4e0b f0be 46f7 083f f0bd c73e 4456 a93e
00000030: d821 01bf 69e2 d73e 0b86 f0be e598 d83d
00000040: c087 0bbf 113d d83e 7b89 38bb 8a61 5dbc
00000050: 602f 0dbf 08a1 0d3f 2946 e1be aad2 0c3f
00000060: fe27 1ebf 8c9b cd3e e479 913d cf27 3d3e
00000070: 43b8 1cbf 1dcb 9b3e 2034 01bf dc3c 163f
00000080: 3161 1bbe f677 a43e b3ea a1be 373d 383e
00000090: 48b0 ed3c b74d 823e ea30 88be f444 09bf
000000a0: 6ab4 dfbe 2486 df3e 144f 02bf 05d5 053f
000000b0: c37c bcbe 552a 0c3f 8eb9 edbe 87e1 debd
000000c0: 555d 79be 4797 a23e db20 1bbf d947 ef3d
000000d0: 3b42 e5bd 9472 913e 9174 d3be 5efe d7be
000000e0: 610c b0be 41e8 f33e ad2b ddbe 3d61 de3e
000000f0: 8dc6 c6be 563c d33e 6286 c3be 6152 8bbe
00000100: e660 eebe 7b2d ec3e b80f 023d 4179 d03e
00000110: ba6d 10bf 6156 f83e 8988 00bf d5f4 47bd
00000120: 74ca b5be 80fa bb3e 42a5 0dbf bbf1 af3e
00000130: d024 9cbe 196e a13e 6660 d4be d672 42be
00000140: 03be b6be b933 963e f041 bebe 346c a73e
00000150: b88c 5cbe 6ff0 063f 6e42 a6be 9144 00bf
00000160: d178 ffbe 79b6 f03e f036 1dbf 77e6 c53e
00000170: ee40 aabe bf68 d33e 0eba 18bf 5573 c1be
00000180: 8da1 f8be 8ceb 013f 8066 a0be 6554 7f3e
00000190: e9cd e3be ecb6 d53e 6316 bcbe bd7c f7bd
000001a0: a5b6 13bf 9299 133f ebcd 88be 57e0 243f
000001b0: f895 f2be a91c 0d3f dc02 d2be 831e 92be
000001c0: 389e b8be 17b9 b23e c759 023f d522 ec3e
000001d0: b9fb d1be 840c b33e 4725 5cbe 34ae d4be
000001e0: 668e d0be 4438 0a3f 8908 f5be 66d5 d63e
000001f0: 0ce9 8ebe 9914 d93e a40d 11bf 830a 53be
00000200: 3ce3 15bf 7f2d 143f 6a20 ae3d 177c 193f
00000210: d004 10bf 48c7 083f a2c7 f1be 8860 02bf
00000220: ea82 56be 51df fc3e 78b7 eabe 9714 b23e
00000230: 42ec 44be 1e90 e43e e63d cfbe ab69 63be
00000240: 36fa e9be 10b6 f33e 623e bfbe cc8f 083f
00000250: 8631 01bf ae9c dc3e d846 0dbf 2e72 243b
00000260: 0a32 04bf 6228 153f a492 bebc 6b21 de3e
00000270: e1ad febe c812 0e3f cf60 edbe 79f6 03bf
00000280: 5754 bebe 2fdf 643e 81aa 523e b05a b23e
00000290: 39df 63be d3f2 753e cf3c bbbd f2c3 97be
000002a0: a921 adbe 555d c63e 077c f6be 10c4 d43e
000002b0: 0772 0bbe 4eb8 b83e 1a86 b4be f882 e6be
000002c0: 521c f2be 8ffe 033f 068a fbbe b8bd 9d3e
000002d0: db16 76be 8e7f 093f c9c7 e9be c65d b0be
000002e0: 0ad7 12bf c53d 093f e239 d5be 2241 093f
000002f0: 6008 eabe b680 053f 226f 02bf 559c 05bf
00000300: 2ca1 c9be 2783 d23e c1ac e3be 5e81 ef3e
00000310: 0c16 7bbe 98ae ce3e b4c7 bbbe 8658 c5be
00000320: 1da2 0abf 459e 053f 1726 073f 8c20 1d3f
00000330: c75c fdbe 2a02 ca3e cef8 d5be b470 02bf
00000340: a3cb e9be f57e d33e 2201 143f 9bf8 0a3f
00000350: ecc3 8cbe 5471 173f 9207 cabe 3da4 23bf
00000360: a225 b5be 86fd 0b3f 072b 14bf 70ce a33e
00000370: afbc 37be ae13 be3e 7b8e d2be a190 03bf
00000380: e144 ebbe 57c8 d93e f95f c6be b05d 813e
00000390: 1473 0abf 467f 013f 0960 fbbe 6a6b 013f
000003a0: a22f 10bf 4ca5 163f f96d cb3c 4403 a43e
000003b0: 9d1c 05bf d56e fa3e 12c5 08bf 7175 153e
000003c0: 2b06 cfbe cc27 033f ff96 a7be 294d e03e
000003d0: a4b8 efbe b2db cc3e a4ee e5be 7fbb 043f
000003e0: 5303 0fbf cdcd 0b3f d106 103f 71b5 143f
000003f0: e6f6 efbe 992f f23e ff70 01bf 938d 01bf
-0.23861355 0.4972962 -0.48780406 0.401376 -0.06269769 0.45901078 -0.33664596 -0.5305247
-0.46883625 0.5350231 0.39012098 0.33073628 -0.50442266 0.42164925 -0.46977267 0.10576037
-0.54504013 0.4223409 -0.0028158117 -0.013512025 -0.55150414 0.5532384 -0.4399884 0.5500895
-0.61779773 0.40157735 0.07103327 0.18472217 -0.6121866 0.304284 -0.5047016 0.58686614
-0.15173794 0.32122773 -0.31624374 0.17992102 0.029014722 0.25449917 -0.26599818 -0.5362084
-0.43692333 0.4365703 -0.50901914 0.52278167 -0.36813936 0.54752094 -0.4643063 -0.1088286
-0.2435201 0.3175604 -0.6059701 0.11683626 -0.11194273 0.2840773 -0.4129987 -0.42186254
-0.34384444 0.47638133 -0.43197384 0.43433562 -0.38823357 0.4125697 -0.38188463 -0.27211288
-0.46558303 0.4612845 0.03175327 0.4071751 -0.5641743 0.48503402 -0.50208336 -0.048817474
-0.35506022 0.36714554 -0.5533029 0.34364113 -0.30496836 0.3152931 -0.41479796 -0.18989119
-0.35691842 0.29336336 -0.3715968 0.3269974 -0.21538055 0.5271062 -0.32472557 -0.50104624
-0.49896863 0.47014216 -0.6141195 0.38652393 -0.33252662 0.41290852 -0.59658897 -0.37783304
-0.48560753 0.5075004 -0.313282 0.24934538 -0.44493034 0.4174112 -0.3673583 -0.12084339
-0.5770057 0.57656205 -0.26719603 0.64404815 -0.47380042 0.55121857 -0.41017807 -0.28538904
-0.3605821 0.34906837 0.5091824 0.46120325 -0.41012362 0.34970486 -0.21498595 -0.41539156
-0.4073364 0.53992105 -0.47858074 0.41959685 -0.27912176 0.42398527 -0.5666144 -0.20609479
-0.5854986 0.5788192 0.08502276 0.5995497 -0.56257343 0.5342908 -0.4722262 -0.50928545
-0.20948377 0.49389127 -0.458431 0.34781334 -0.1923075 0.44641203 -0.40476912 -0.22208278
-0.45698708 0.4759984 -0.37352282 0.53344417 -0.5046619 0.43088287 -0.55186224 0.002509247
-0.51638854 0.58264744 -0.023263283 0.4338487 -0.49742034 0.5549741 -0.46362922 -0.5154796
-0.3717372 0.22350763 0.20572855 0.34834814 -0.22253121 0.24018411 -0.09142458 -0.29641682
-0.33814743 0.38743082 -0.481415 0.41555834 -0.13617717 0.36078113 -0.3525856 -0.45021796
-0.47287232 0.515603 -0.4912874 0.30808806 -0.24032156 0.5371026 -0.45660236 -0.34446543
-0.57359374 0.5360988 -0.41645724 0.5361501 -0.45709515 0.5214952 -0.50950825 -0.5219167
-0.39380777 0.41115686 -0.44467738 0.46778387 -0.24520129 0.4036758 -0.366758 -0.385441
-0.54153615 0.52194625 0.52792495 0.6137779 -0.49484846 0.39454776 -0.41791385 -0.5095322
-0.45663175 0.41307798 0.5781423 0.5428559 -0.27493227 0.591573 -0.394589 -0.6392248
-0.35380274 0.5468372 -0.57878155 0.31993437 -0.17943071 0.3712439 -0.4112433 -0.5139256
-0.45950988 0.4253566 -0.38745096 0.2526679 -0.54081845 0.5058483 -0.49096707 0.50554526
-0.5632268 0.58845973 0.024832712 0.3203374 -0.51996785 0.48912683 -0.53425705 0.14595582
-0.40434393 0.512326 -0.32732388 0.4380887 -0.46820557 0.40011364 -0.4490863 0.51848596
-0.5586445 0.546109 0.562604 0.5808936 -0.46868056 0.4730194 -0.50563043 -0.5060665

item_embedding.weight f4 [1682, 8]
00000000: 0953 96bf de06 8b3f b1cb c93d 2cf9 963f
00000010: d7a6 86bf 402a a63f 0f66 8cbf 44ea 8ebf
00000020: 0c15 0abd f796 5a3e 1b63 bebe 3268 0f3d
00000030: 3bf2 8e3d e16d 853e 0bd7 f9bd 7f2d f5be
00000040: 26c1 10be d51f 253e 6d3b a13e d1f3 863e
00000050: 379d 7cbd 3ef6 c23d 0afc 17be 5559 ecbe
00000060: 8dbe d6be b7ee 133f 9879 36bf f7c1 c93e
00000070: fa7d 55be 576d d43e 8e56 e8be b3c3 11bf
00000080: cb0f bfbd 86f3 553e a117 21be 936a b23d
00000090: 4b45 e43e 866f 193e 8842 53be 04dd edbe
000000a0: b6e5 203e 8bb8 0dbe 6217 7e3e db55 dc3d
000000b0: de76 253e c3d2 a4bc ce4e d83c 7db5 88bc
000000c0: e832 83bf 4039 953f 2ab2 f93d d005 993f
000000d0: 3f77 62bf 7729 853f 21c8 86bf 75a7 aebf
000000e0: 02c4 edbe 1fbc 123f 1650 37bf 1555 003f
000000f0: 06d5 75be f807 fc3e 6935 2fbf 78a6 98be
00000100: 3464 73bf 8954 883f e845 973e 2dca 8a3f
00000110: 448c 59bf 9942 683f 9025 83bf cc80 6abf
00000120: 94c4 aa3c bbfb 0c3e ce2d f83e 3ab2 be3e
00000130: 1e56 78be 4002 8d3e c0fc b5be a680 90be
00000140: 2163 47bf 409a 593f 8528 34bf ba17 213f
00000150: ca2d 29bf 59fe 323f 0b8f 37bf 1846 eebe
00000160: 89e1 37bf 8c6d 3a3f dc85 44bf 8e1a 1c3f
00000170: b39b efbe af02 353f b59a 18bf f73f 92be
00000180: d937 22bf 8766 213f 74a9 de3e 5986 373f
00000190: a3ba 1cbf 0953 133f ac6f 19bf 009d 34bf
000001a0: ab32 2bbf 1b37 283f 5e6f 1a3f a617 663f
000001b0: a307 26bf 975e 3a3f 6f28 4dbf 1582 0cbf
000001c0: 31d0 5fbf 9aca 6b3f 4d0b 163f 9342 823f
000001d0: 6f34 7dbf 4223 7e3f cc05 83bf f39b 6ebf
000001e0: 088b 9c3d 1e50 cdbc cbbb e33e 7e9e a73d
000001f0: 6795 9bbd f07b 07be 2e49 483e ba55 1fbe
00000200: 8d92 5dbe c2d9 083e 70d6 ddbe 27d0 a53d
00000210: 0fc2 8e3e 8230 b4bc 145b 9dbd 4dd8 09bf
00000220: e1cd dc3e ee6a fdbe 9d12 963e a469 92be
00000230: 036a d73e afd4 efbe 79fe 2b3f 8b26 cf3d
00000240: 1d0c edbe 058e dd3e 2d89 0b3f 0914 213f
00000250: d0e6 ecbe 89c9 a33e bb6b e4be 1126 e4bd
00000260: 1eda 59be bc3b 993e 6cf3 f43e be8e d43e
00000270: 81d1 01be 80fe 283e 1e6d 48be 8583 1ebf
00000280: 9097 1ebe 1ad5 d13e 9565 fd3d 1619 ac3e
00000290: fd16 89be 0b4c fc3d dc4b 0abe 47b5 23bf
000002a0: e67b 3abf 08c8 503f 99d4 45bf aad2 263f
000002b0: 7193 0cbf 02ea 433f e4f7 4dbf 0ac9 b9be
000002c0: 0be3 0bbf b669 1a3f 9d56 31bf ae16 273f
000002d0: c616 bcbe 075b 273f 886a 13bf f98a 89bd
000002e0: b616 14bf 2fdb 323f 8a74 eb3e 164b 513f
000002f0: 41d7 f7be 7cc7 233f 3ee6 ccbe ec91 84bf
00000300: 14a1 65bf 7c55 7f3f 801a bb3e b6cf 893f
00000310: 2083 74bf 8e0d 7b3f 0906 4dbf 8e75 6bbf
00000320: 5449 293e ecc5 5e3d 5564 6bbe dd04 6fbd
00000330: c425 1d3e bc0b 5b3c cb56 73bc 8b2a e8bc
00000340: a3f9 2f3e a361 10be 7e39 40be 5e8a dcbd
00000350: 605c 293e 2b58 b239 4713 2e3e 17a5 16be
00000360: 381c 36bf 180f 533f 6b94 48bf ba7c 2a3f
00000370: 42ac d0be c82f 453f 3227 38bf ffc0 17bf
00000380: f3b9 f0bd 4efa f53d b67a aebe 8302 11bd
00000390: b84b 573e 84ff 2c3e f17e aabd 782c 8dbe
000003a0: 9717 923e e1b9 99be 859b 7cbe 8af9 9fbd
000003b0: d7ab 663e 83c7 5fbe 36a0 3b3e 8fbb dc3d
000003c0: b088 88be 58be cd3e 175a e9be 0e2d c63e
000003d0: 551a f7bd 25d1 bc3e 0c93 bbbe 5181 20bf
000003e0: 596d 51be 1303 1ebd 18fb c9be 6eda 823e
000003f0: d455 833d 3291 6b3d f942 9fbc dfc0 f8bd
-1.174409 1.0861471 0.09853304 1.1794791 -1.0519665 1.2981644 -1.0968646 -1.1165242
-0.033711478 0.21346651 -0.37184986 0.035011478 0.069797955 0.26060393 -0.12199219 -0.47886273
-0.1413618 0.16125424 0.3149065 0.26357892 -0.06167337 0.09519623 -0.14842239 -0.46161905
-0.41942254 0.57786125 -0.7127929 0.39405796 -0.20848837 0.4148967 -0.45378536 -0.5693924
-0.09329184 0.20893678 -0.1573167 0.08711734 0.44584116 0.14983949 -0.20630848 -0.46457684
0.15712628 -0.13839929 0.24813607 0.10758563 0.16158625 -0.02012003 0.026404765 -0.016688103
-1.024991 1.1658096 0.12192185 1.1954899 -0.88463205 1.0403279 -1.0529824 -1.3644854
-0.46438605 0.573183 -0.71606576 0.50129825 -0.24007043 0.4922483 -0.6844087 -0.29814506
-0.9507477 1.0650798 0.29545522 1.0842949 -0.84979653 0.9072662 -1.0245838 -0.9160278
0.020845689 0.13767903 0.48472446 0.3724535 -0.24251601 0.2754078 -0.35544395 -0.2822315
-0.77885634 0.8500099 -0.7037433 0.6292683 -0.66085494 0.69919354 -0.7170264 -0.46537852
-0.71828514 0.72823405 -0.76766753 0.6097802 -0.46798477 0.7070722 -0.59611064 -0.28564426
-0.63366467 0.6304707 0.43488657 0.71689373 -0.61222285 0.57548577 -0.5993602 -0.70552063
-0.6687419 0.65709084 0.6032618 0.89879835 -0.648554 0.7280058 -0.8013982 -0.5488599
-0.8742705 0.9210602 0.58610994 1.0176567 -0.9890813 0.9927255 -1.0236144 -0.9320671
0.076437056 -0.025062617 0.44479212 0.08184527 -0.075968556 -0.13230872 0.19559166 -0.15560046
-0.21637936 0.13364318 -0.43327665 0.080963425 0.2788243 -0.021995787 -0.076833874 -0.53845674
0.43125823 -0.49495643 0.29311076 -0.28596222 0.42073068 -0.46841952 0.6718517 0.10114773
-0.46298304 0.43272415 0.5450619 0.62921196 -0.46269846 0.31989697 -0.44613442 -0.11140073
-0.21274611 0.29928386 0.47841966 0.41515154 -0.12677576 0.16503334 -0.19572875 -0.6191943
-0.15487504 0.40982896 0.12372891 0.3361289 -0.2677535 0.123191915 -0.135055 -0.6394848
-0.72845304 0.81555223 -0.77277523 0.651652 -0.5491248 0.7652894 -0.80456376 -0.36286193
-0.54643315 0.6031755 -0.69272786 0.6526898 -0.36736125 0.6537327 -0.5758443 -0.0671596
-0.57847154 0.698657 0.4598735 0.817552 -0.48406413 0.63976264 -0.4001941 -1.0357032
-0.8969891 0.99739814 0.36543655 1.0766513 -0.9551258 0.9806756 -0.80087334 -0.9197625
0.16531879 0.05438797 -0.22987492 -0.058354247 0.15346438 0.013369497 -0.014852236 -0.028340599
0.17185073 -0.14099745 -0.18771932 -0.10768579 0.16539145 0.00034016496 0.16999541 -0.14711414
-0.7113681 0.82444906 -0.7835147 0.6659657 -0.40756422 0.77026033 -0.7193481 -0.59278864
-0.11754217 0.120106325 -0.34077996 -0.035402786 0.21024978 0.16894346 -0.083249934 -0.2757299
0.28533623 -0.30024627 -0.24668701 -0.07811268 0.22526489 -0.21853451 0.18322834 0.107779615
-0.26666784 0.40184283 -0.45576546 0.3870625 -0.12065569 0.36878315 -0.36635625 -0.6269732
-0.20451869 -0.03857715 -0.39449382 0.25557274 0.06412855 0.057511516 -0.019441115 -0.12146162
