models/24102021_2110_ngcf_Movielens-100k.pt (torch, 212999 bytes, 10 tensors)

GC_Linear_list.0.weight f4 [64, 16]
00000000: a9d7 4ebd f502 a5bc 9655 3cbf 1f8e a3be
00000010: 2857 423e feeb e4be 9aa4 b83e 0445 473e
00000020: e6af 143f 0400 103f a64a 5fbe 0721 9b3c
00000030: c0fa 513e 0b09 04bf 1e95 1dbf 670a 7ebf
00000040: bb6b 8cbf 9e3e f7be 4bf3 633f 2fb8 79bf
00000050: 6e96 273f 7251 88bf 8209 003f a46f 46bf
00000060: e85c a4bf be49 d4bd 516c 2e3f 912f 48bf
00000070: df55 8c3f 1a01 26bf 7851 7a3f b1cd 1c3f
00000080: 6bc9 6c3e dd66 8a3d a2a2 163e 88a2 543f
00000090: 528c 723d bdfd 9cbd 0d10 b0be de2e af3d
000000a0: 2425 eb3e 4ef2 b9be 5dda 853e 03c0 e23e
000000b0: e279 6a3d 73a1 0f3f 6a75 dcbe 8d85 b63e
000000c0: aaaa 803d 3a07 3ebe f605 a93e 58da 4c3f
000000d0: 6a7f 783d f2da d63e 25b6 87be 1077 a6be
000000e0: c018 953e 87fe c5be cd3c 81be aed8 8c3e
000000f0: fee9 43be b7ad bf3e e5d4 a6be 10a4 383e
00000100: b0a3 9cbe 3a2f 453d 63f3 073e cccf da3b
00000110: a148 22bc e1df 253e 3b8f 0b3f ea9b 7ebd
00000120: 6732 fc3d 901e 3cbd 6cbb 6b3e 6a70 0a3c
00000130: 1921 c03d 6ddb 58be d523 293c a6d2 5e3e
00000140: a3a1 0dbf a579 793d 3b92 1b3f 62b4 143f
00000150: 5be0 593e 5f6c 2e3e 3d85 213f 6982 8bbe
00000160: eccf 9f3e 224e 67be 5567 a23e 81dc 053d
00000170: 127e 55be 1f78 7c3e dc8a 7d3e 0a3b 013f
00000180: 616b 8ebf fdd4 68bf 0adf 483f 8577 993e
00000190: a786 823f 58ab b1bf 930a 0a3f c536 72bf
000001a0: 0e3a c93e 4ae3 acbe 3a80 9d3f ca0c ccbf
000001b0: 96d6 1ebf 31b7 93bc 5cde e43f 6fcc 793f
000001c0: 562f 18be 5a79 47be f37f 9e3d 657b 7cbe
000001d0: 1ca2 733d e25a 54bd 3b8d ed3e 1d67 a0bd
000001e0: ced1 123e 8ce5 60bc 3a4d 653e 1553 f93d
000001f0: 7f5d 90bd 1166 7d3d fd06 c03d db5c c63e
00000200: 8405 bcbe 08cb 05be fb7e 493e d075 9bbe
00000210: b5a5 df3d 668f 99be f12e 2d3b 22ed e2be
00000220: 1812 a13e ccbb 4a3d 48ee 753e 90bc 12be
00000230: 5dc4 0abf e831 22be fe06 94bd bb09 7f3e
00000240: 53c9 9c3e d427 86be c463 983e 7a35 853f
00000250: 8c14 4d3c b49e eb3c 1717 7abc 3a95 99bb
00000260: 239a 943e 6a77 ddbe 267f 60be 27a8 cc3e
00000270: 3085 333e 1524 673e aabc 04bf efc0 a53e
00000280: 6df9 82be f280 b43e ed93 dc3c 6bdf 0fbf
00000290: 403a 2bbe b977 6abe 66d3 053f 26bb f83d
000002a0: 0b82 37bf 3274 033f c0a9 a4be 0602 823e
000002b0: 32fe 48be 082b 243f 59e6 423f beb7 d13e
000002c0: c4b2 a7be 0a71 e6be 05d5 11bf af26 023e
000002d0: c9a9 353f 62bf 7ebd cf19 263f fdde a1bd
000002e0: 1a3e 1ebf afd9 1b3f 6e7e 963f 5c43 6dbf
000002f0: 8a5a 4a3f 6f26 363f af45 093f 1ccd 583f
00000300: e7fe 28bf ef68 33bf 73eb 253f 7f40 48bf
00000310: 78df 753f c973 3abf cae0 5e3f 741f 72bf
00000320: 3253 62bf aa9d 02be cb72 2f3f 680b 4dbf
00000330: 09a5 e8be 586d 86be 5a26 5f3f cb2f a73f
00000340: ec9c 54bf 81c7 e23e 5402 123e 95f8 15be
00000350: 23f9 44be 17c1 3e3f 2ffc 7e3f 94e9 f63e
00000360: f9a6 32bf 2664 6a3c 51e6 5f3e ba49 9dbe
00000370: 628c 3dbd 0b24 ce3e 21ea a03e 92af f93e
00000380: d843 49bf a24c 2bbf 5294 363f f053 16bf
00000390: 47ac 353f be55 f9be 94bd 2b3f 7feb 33bf
000003a0: 1e99 403d 442c 253d 4fbe 283e 9de3 41bf
000003b0: e31f 513e 2460 1a3d af41 623f 6a51 533f
000003c0: 8dd5 33bf 4303 ec3e 262d 593f 9ee1 293f
000003d0: 90e1 debd 8bd1 cfbe 5d22 21bf 4f95 133e
000003e0: f4fd cb3d b5f1 363e b7c6 4bbd 6219 ac3e
000003f0: 87fd 163f f552 a13f 44d8 413e c2ad c53f
-0.05049864 -0.020143012 -0.73568094 -0.31944367 0.1897856 -0.44711298 0.3606308 0.19459921
0.580809 0.56250024 -0.2180582 0.018936647 0.2050581 -0.515763 -0.6155566 -0.9923462
-1.0970377 -0.4828996 0.8904311 -0.97546667 0.6546391 -1.0649855 0.5001451 -0.775141
-1.2840853 -0.10365628 0.6813403 -0.7819758 1.0963706 -0.6484543 0.9778056 0.6125136
0.2312371 0.06757901 0.14710477 0.83060503 0.05921585 -0.07665584 -0.34387246 0.08553861
0.45926774 -0.36317676 0.2614316 0.44287118 0.057245143 0.56105727 -0.4305833 0.35648766
0.062825516 -0.18557444 0.3301236 0.80020666 0.060668387 0.41963917 -0.26506153 -0.32512712
0.29120445 -0.3867075 -0.252417 0.27509063 -0.1913223 0.3743722 -0.325843 0.18031335
-0.30593634 0.048140742 0.13276438 0.0066776033 -0.009905011 0.16198684 0.5451543 -0.06216041
0.12314301 -0.045927584 0.23020715 0.008449653 0.09381313 -0.21177454 0.010323484 0.21760044
-0.55324763 0.060907025 0.60770005 0.5808774 0.21276991 0.17033528 0.6309393 -0.27247933
0.3121332 -0.22588399 0.3171946 0.032680992 -0.20848873 0.24655198 0.24760002 0.5048071
-1.112652 -0.90949994 0.7846533 0.29974 1.0197343 -1.3880415 0.53922385 -0.9461482
0.39302105 -0.33767158 1.2304757 -1.5941403 -0.6204618 -0.018031688 1.7880359 0.97577566
-0.14861807 -0.19479886 0.07739248 -0.24656446 0.05948077 -0.051844485 0.46396813 -0.07832167
0.14337847 -0.013726603 0.22392741 0.1217405 -0.07049083 0.061864916 0.09376333 0.38742718
-0.36722958 -0.13065732 0.19677345 -0.3036332 0.10920278 -0.29992217 0.0026425684 -0.44321543
0.31459117 0.049495503 0.24016678 -0.14329743 -0.54205877 -0.1583935 -0.07227896 0.24906056
0.30622348 -0.2620226 0.29763615 1.0406945 0.012517106 0.028762199 -0.015264294 -0.0046869786
0.29023847 -0.43255168 -0.21923503 0.3997204 0.17531276 0.22572358 -0.5185038 0.3237376
-0.25580922 0.35254627 0.026926005 -0.56200284 -0.1672144 -0.22897233 0.52275693 0.12145071
-0.71682805 0.51349175 -0.3216076 0.2539217 -0.19628218 0.6412816 0.7613273 0.40960497
-0.32753575 -0.45008117 -0.56965667 0.12710069 0.70962197 -0.062194236 0.6488313 -0.0790386
-0.6181351 0.60879034 1.1757333 -0.9268091 0.790444 0.71152395 0.53621954 0.8468797
-0.6601395 -0.7008199 0.6481239 -0.78223413 0.9604411 -0.72832924 0.8706175 -0.94579244
-0.88408196 -0.12755457 0.68534535 -0.8009553 -0.45438412 -0.26255298 0.87167895 1.306146
-0.83051944 0.44292834 0.142587 -0.14645608 -0.19235663 0.7451338 0.9960355 0.4822508
-0.6978603 0.014306104 0.21865202 -0.3072031 -0.046276458 0.40261874 0.31428626 0.48766762
-0.78619146 -0.6691381 0.7132007 -0.5872183 0.70966 -0.4869823 0.6708615 -0.70281214
0.047021024 0.040325418 0.16478847 -0.75737935 0.2042232 0.037689343 0.88381475 0.82546103
-0.7024773 0.46096238 0.84834516 0.6635989 -0.108828664 -0.40589556 -0.6294306 0.14412425
0.09960547 0.17865641 -0.049750056 0.33613116 0.589806 1.2603441 0.18930155 1.5443652

GC_Linear_list.0.bias f4 [64]
00000000: 06b6 66be 1753 ed3d f097 5abe abca 38be
00000010: 3855 e8be 5c53 27bf 008b 86bf 4de8 0abf
00000020: 2aee a9be bf29 99be dc69 32be db92 9d3d
00000030: 2c5a 33bd e2fd 1fbe b4ef f2bd cf0d eabc
00000040: 9b0c 403e e9d6 61bf b6a2 0f3e 00e2 1abe
00000050: 1c26 a73e aec6 11be b248 3fbf 9357 f7be
00000060: 72e9 31be f77a 25bf 4816 a13e 910c 73bf
00000070: f279 7dbe 0a51 10be 0255 01bf 021d 25be
00000080: b561 4cbf 17c4 88be 14c0 e1be edba acbd
00000090: 1f01 83bd f097 85bd b6e0 6abd 626a 45be
000000a0: 903a 08bf 64bc 66be fa6e e9bd dbc9 85bd
000000b0: d105 9bbe 04ab 20be c48d f5bc f781 36be
000000c0: d01a a63d aec5 2bbe eeba ad3e 9528 bfbd
000000d0: 0ac3 8cbf 3fa2 46be 2d40 25bf 9eef 34bf
000000e0: c0ec febd 4d67 c73e d372 18bf 3fca 6cbe
000000f0: cd14 91be 8b21 1abe 0bcb 27be 75c9 eabb
-0.22530374 0.11588114 -0.21347022 -0.18046062 -0.45377517 -0.6536157 -1.051117 -0.5426071
-0.33189517 -0.29914662 -0.17423195 0.07694026 -0.043787166 -0.15624192 -0.11862126 -0.028571038
0.18754809 -0.8821855 0.14026913 -0.15125275 0.32646263 -0.14235947 -0.747203 -0.48309
-0.17374209 -0.64640754 0.31462312 -0.9494105 -0.2475355 -0.14093414 -0.50520337 -0.16124347
-0.7983659 -0.26712105 -0.44091856 -0.08434091 -0.06396698 -0.065231204 -0.057343207 -0.19278863
-0.5321436 -0.22532803 -0.1139812 -0.065326415 -0.30277875 -0.15690237 -0.029974826 -0.17823015
0.08110583 -0.16774628 0.3393168 -0.09333912 -1.0997021 -0.1939783 -0.6455105 -0.70678127
-0.124475 0.38946 -0.5955021 -0.23124026 -0.28336182 -0.15051858 -0.16386048 -0.007165129

GC_Linear_list.1.weight f4 [64, 64]
00000000: 0729 9fbe b55f 563e 7293 acbe cf3b 503c
00000010: 44e5 7d3d 71af acbd 41ab ad3e fa53 bf3c
00000020: 5933 5d3e 6364 86be 2453 c5be 5b30 b7bd
00000030: cba7 643d e9e8 63be 32a2 c83b 701a e4be
00000040: 4985 6c3e 92a3 193e e852 3a3f dbb1 ba3e
00000050: 4650 a93e 8007 60bf b14b 1dbe d038 b1bd
00000060: c7ce ca3e 5f98 ec3e 1d84 33bf e337 d73e
00000070: 53b0 483f cb35 98be 983a 07be 407d 0f3e
00000080: 6abd b33e f91a 0ebf 29c4 99bc 961b 883d
00000090: 875b c1be 8589 d43e 1233 a23e d181 71bd
000000a0: 74dd 76bd f734 7cbd 52eb e8bf 2b92 9b3e
000000b0: 14f7 233e f621 4c3e 8e66 9cbe 552e dcbe
000000c0: 425f abbd 236e 8f3f e6b6 443f 1700 a43e
000000d0: 1111 863e 6311 cbbd 170a c43e 5f8c 023e
000000e0: 0d91 e3be 5da4 2c3e a7e3 cc3d dcb0 94be
000000f0: 01c7 f6bd 5560 ca3e dbde a9bf 62aa 17be
00000100: 5ddc a5bf 57d6 bf3e cbce f6bf 1ff9 dfbf
00000110: e0aa 2e3f 81ae 3f3f 0cc7 4c3f 0578 983d
00000120: 152d 433f cb70 05c0 b33b 75bf bf3d 5bbd
00000130: 440e ad3e 4bda 16bf eab0 243e e87e 44c0
00000140: e759 903e a924 993f 0b19 a8be 8402 be3e
00000150: 1aad a13b 2600 2abf cbec 5f3f b709 283f
00000160: 8128 4d3f 47f2 b73f cb90 003f e82e 8a3f
00000170: 2a30 213d 55e1 ecbf 3786 083e d158 623e
00000180: 4f6b 283f 1662 29bf 1328 abbd 0d65 eabf
00000190: fa84 51bf ab11 93bd 90ec ae3e af72 27bf
000001a0: 9721 b63e 679b c6bf 2f23 24bf 1661 b53e
000001b0: 0190 fbbe 6d87 3abe a869 2bbf 6776 3dc0
000001c0: 2486 113e fe43 91be 5a65 5d3d a00f 77bf
000001d0: 2319 ab3f 67e0 f43d 2e4f d53f 0d59 9fbe
000001e0: baae 0fc0 099c 913e 2d82 103f b7a9 ffbf
000001f0: 8e7b 42bf d915 1bbf f164 abbe 5f87 e3bf
00000200: 6537 01c0 467d c53e 8246 a2bf 3386 6bbf
00000210: 7aa2 093e e697 013e cc3d 903e 7379 3ebc
00000220: dc8f 303f fcf7 3fc0 f54e 0dbf 55d6 09be
00000230: 4c8b 2a3f aea4 7abe 6464 f33d 28bc 84bf
00000240: 9475 473f 434c 233f 693b 85bf 4fa6 153f
00000250: ab58 88bf 7f74 aebf d6ce b63d 8def 973e
00000260: 791d 8a3f 905e d23f 37d6 863f 5267 3d3f
00000270: ca02 093f a681 f2bf 6ffd bbbc 57e7 813e
00000280: dad0 8a3e 4a54 80bf 404b 833f 45ae 56c0
00000290: 5e1b 79bf a9df 82bd 3b55 043f d7b3 2bbe
000002a0: 75d3 603e 66c2 52bc cb1a cebf eac4 173f
000002b0: db3d 03bf 73bb 40be 9d00 31bd 5c99 80bf
000002c0: ae6a 8c3e 2ad6 09bf 4418 a2bf 4368 18c0
000002d0: 1452 193f f0c3 323e b255 a63f c28e 3d3e
000002e0: b301 efbf 173d bb3f 0599 2d3e 6b2c 03c0
000002f0: 4e4d edbe 1067 2fc0 6213 65bf cd53 fbbe
00000300: 8721 c2bf 80de 373e ea46 27bf c1ab 9abe
00000310: 4ac4 c73d a7d1 b33d 482e 913e 9fae 073e
00000320: 5d6f f93c 7fdf d4be 30ea e9bf 043e e1be
00000330: d12e b2bb 29b0 9dbf 790a d23d cc3e 0bbe
00000340: 5ca3 153e a28c 173f 02ce 5c3e 87d1 1c3e
00000350: f616 3dbe 1a36 cdbf 5058 8c3e 0868 8dbd
00000360: 219e 833e 835f 723f 5c90 833e abb5 383f
00000370: 27d2 593e 0ad7 2ebf d008 c23d a23f 143e
00000380: 7abb 9e3e 03e4 09c0 b034 d5bc a709 39bf
00000390: eba3 25c0 76a1 233e 77df 7e3d 43fe 84bf
000003a0: 5d2a 3f3e 5187 8f3e db8e 14c0 a842 c53e
000003b0: d71d 43be 357d 82bc 9fd9 b6bf c007 b1be
000003c0: df27 85bd b801 4c3c 9bef 8bbe 3639 6f3e
000003d0: 86f0 ce3e f427 203d f464 533f aeb7 fdbe
000003e0: b3b5 47bf 610c a83e 74f4 efbb e334 88bf
000003f0: ef7d b1bf 09b9 a53d 0013 63bf 5f0f 06bf
-0.3108599 0.20934947 -0.33706242 0.012709572 0.061986223 -0.084319 0.3391972 0.023355473
0.21601619 -0.26248464 -0.38539994 -0.0894477 0.055824082 -0.22256817 0.006122851 -0.4455142
0.23097719 0.15003803 0.72782755 0.36463818 0.33069056 -0.87511444 -0.15360905 -0.08653414
0.39610884 0.4621 -0.70123464 0.42034826 0.7839405 -0.2972854 -0.13205945 0.14012623
0.3510545 -0.55509907 -0.018770294 0.066458866 -0.37765142 0.4151117 0.3167959 -0.058961693
-0.060269788 -0.06157395 -1.8196814 0.30384955 0.16012222 0.1993483 -0.30546993 -0.430041
-0.08367778 1.1205486 0.7684158 0.3203132 0.26184896 -0.09915426 0.38288948 0.1274886
-0.44446602 0.16859575 0.10004359 -0.29041183 -0.12049676 0.3952662 -1.3271135 -0.1481109
-1.2957875 0.37468216 -1.9281858 -1.7497901 0.68229485 0.74875647 0.7999122 0.07444767
0.76240665 -2.0850093 -0.9579422 -0.053525683 0.33799946 -0.5892684 0.16083112 -3.0702457
0.2819359 1.1964313 -0.32831606 0.37111294 0.0049339654 -0.66406476 0.8747069 0.65639824
0.8013993 1.4370812 0.50220937 1.0795565 0.039352573 -1.8506266 0.13332449 0.22104193
0.6578874 -0.6616529 -0.08357253 -1.8312088 -0.8184353 -0.07181104 0.34164858 -0.6540937
0.35572502 -1.5516175 -0.64116186 0.35425633 -0.49133304 -0.18215723 -0.66958094 -2.9603517
0.14211327 -0.28372186 0.054051735 -0.96508217 1.3367046 0.11956864 1.6664789 -0.31122628
-2.2450395 0.28439358 0.5644863 -1.9973668 -0.7596978 -0.6058021 -0.3347545 -1.7775687
-2.019006 0.3857214 -1.2677767 -0.92001647 0.13440886 0.12655601 0.28172147 -0.011625635
0.6896951 -2.9995108 -0.55198604 -0.13460667 0.666188 -0.24476883 0.11884382 -1.0369921
0.77913785 0.6378824 -1.0408756 0.5845689 -1.0652059 -1.3629302 0.089261696 0.2967495
1.0790244 1.6435108 1.0534123 0.7398578 0.5351988 -1.8945816 -0.022947995 0.2537181
0.27112466 -1.0025723 1.025734 -3.3543866 -0.97307384 -0.06390316 0.5169255 -0.16767822
0.21955664 -0.012863731 -1.6101927 0.5928484 -0.5126626 -0.18821506 -0.043213475 -1.0046802
0.2742514 -0.53842413 -1.2663655 -2.3813636 0.59890866 0.17457557 1.2994902 0.18511489
-1.8672394 1.4628018 0.16952904 -2.049586 -0.4634804 -2.7406654 -0.894827 -0.49087372
-1.5166482 0.17955971 -0.6534258 -0.30209163 0.09754236 0.087802224 0.28355622 0.13250206
0.03044861 -0.41576764 -1.8274593 -0.43992627 -0.00543771 -1.2319385 0.10255904 -0.13598174
0.14613098 0.59198964 0.2156296 0.15314303 -0.1846579 -1.6032135 0.27411127 -0.06904608
0.2570658 0.9467699 0.25696075 0.72152203 0.21271573 -0.68296874 0.09474337 0.14477399
0.31002408 -2.1545417 -0.0260261 -0.72280353 -2.5881298 0.15979561 0.06222483 -1.0390095
0.18668504 0.28032926 -2.3212192 0.38527417 -0.19054352 -0.015928844 -1.4285163 -0.34576225
-0.065017454 0.012451582 -0.27331242 0.23361668 0.4041788 0.039100602 0.8257592 -0.495542
-0.78011626 0.32821944 -0.0073228423 -1.064114 -1.3866557 0.08091933 -0.88700867 -0.52367204

GC_Linear_list.1.bias f4 [64]
00000000: 5c08 1cbe 748d 8abf 4761 bfbf 7182 15bf
00000010: 5858 a13c c840 eabe 873e 99be 2461 75bf
00000020: 7257 993d dfce c3be ad5c 6fbe b1c4 01bf
00000030: 68ee 14be f0f2 3dbe 6ee8 9bbe 0f7e e4be
00000040: 60ea e9be 8032 04be 9c0d 1ebe f16d 85be
00000050: 575a 51be bb1a 69bc 8ccc 4fbe eae4 44bf
00000060: f497 e6be f738 bbbc 1b8b 98be 349a 16c0
00000070: 87ae 1bc0 fff3 40be dca5 1dbf ebae 97bd
00000080: f08d 5abd 8bf1 11bd 63ca 8bbf 36b6 3cbf
00000090: 8ee0 9abf 548d 86be 3b83 09be 63fa acbf
000000a0: 02e9 8f3d 763a aabe 6885 87be 6f68 37be
000000b0: 5a28 c4be ce43 aabf 3574 70bd 3250 51be
000000c0: 6ebe 4ebf ae1b afbe 9f7b b5bb 1292 59be
000000d0: 7706 7cbd 0f65 4fbe f7fa 81be 6b02 12be
000000e0: 69cd 60bd f819 aebf 39a7 12c0 1a1b d7be
000000f0: 88cb 4bbf ac8a 16be 5bed babe bdbc 5cbf
-0.15237564 -1.0824418 -1.4951562 -0.5840216 0.019695446 -0.4575255 -0.29930517 -0.9585135
0.07487382 -0.38243768 -0.23375197 -0.5069075 -0.1454407 -0.18549705 -0.30450767 -0.44627425
-0.45686626 -0.12909889 -0.15434879 -0.2606044 -0.20444618 -0.014227564 -0.20292872 -0.76911795
-0.45037806 -0.022854311 -0.2979363 -2.3531618 -2.4325273 -0.18843077 -0.61581206 -0.0740641
-0.05335802 -0.035630744 -1.0921139 -0.7371553 -1.2099779 -0.262797 -0.13428967 -1.3513912
0.070268646 -0.33247727 -0.26468968 -0.17910932 -0.38312036 -1.3301942 -0.058704574 -0.20440748
-0.8075932 -0.34200805 -0.0055384184 -0.21247128 -0.061529603 -0.20253395 -0.25386783 -0.14258735
-0.054883394 -1.3601675 -2.2914565 -0.42012864 -0.7960744 -0.14701337 -0.36509213 -0.8622549

Bi_Linear_list.0.weight f4 [64, 16]
00000000: 2f8b d23e 666b 92be 4e63 533f 7076 343f
00000010: e1b2 cb3d 6bf2 a13f ae78 1bbd 7c14 b6bd
00000020: 4b32 9e3d 866a a53e fff7 413e a2f5 9fbc
00000030: d63c b43f de42 883f 32b4 d13e f5f5 3dbd
00000040: 7ace 0d40 ed1a c23f b191 4c40 7e17 7f40
00000050: cc30 b83f 241a 4f40 85d9 5240 d0fc ef3f
00000060: 767c 4340 b310 5240 e8d4 3d40 7289 c53f
00000070: e30a 2c40 5607 2b40 67d0 3140 e7fa 6740
00000080: 2ca3 b23e 75df 9fbe 2f3c 73be 84ea 1a3f
00000090: ddec cc3e f898 643e a430 3a3e 8778 02bf
000000a0: e56e 1bbf a251 9abe 54df 043f 4cd5 f73e
000000b0: 9816 6d3e 74a7 03bf e497 003c 7ba6 723e
000000c0: cdbc 0f3e 38b8 9b3e c332 b53e 1190 203d
000000d0: 0be3 a9bd b14f ca3e 952f db3e 493e a23e
000000e0: 7390 0b3f daea 9a3e 32bf ba3e b129 093f
000000f0: 7209 9d3e 00d3 493e cbcf 943d 5087 9b3e
00000100: 3cd0 493e d87e cf3e 6a0b 113e 94c8 c13d
00000110: 7f9d a33e c47c b83e 8528 8a3d 9f10 353e
00000120: be8c 163e 25de 113e 8ae7 b73e 7b43 f63e
00000130: a39d 92ba bc2e e83e 662c 953e b6f7 d83e
00000140: c738 853e 268a 063f ef73 243f f4fc 253e
00000150: ebb2 903e 622d 0d3e 2aba b13e 69cb 1b3f
00000160: 0ecf 0b3f 6cea 133f c24b 173e 034e 043f
00000170: 0f59 ab3e 5ff4 043e ccb6 5f3e bb1f ec3e
00000180: e848 293f 307c d33d f9c0 2f3f 9299 e53e
00000190: cbe9 493e a4cd db3e 9c8e 383f 0a5e f63e
000001a0: 94dc fd3e 9dca 2e3f 702c 363f 6510 da3e
000001b0: a360 053f 69c9 413f 7a49 d53e 8205 813f
000001c0: 338d d23e 580c ea3e bc1d d03e 8979 0c3d
000001d0: 7a52 883e 13c2 063f 1ba1 de3d 62cb e03e
000001e0: c5ae 293e 1cbf 633c 0d53 9d3e 8b5e 213e
000001f0: 5edd 863c 185f bb3e baa6 bd3e de72 5bb9
00000200: 726c 22bc c471 3c3e 8e25 eb3d 5067 94bd
00000210: b865 063c 3281 dc3d 1967 613e 168b e6bd
00000220: d9ff b13e 6899 abbd 481b 343e cae8 263d
00000230: e557 9e3a f2f0 acbd b6d2 ea3d b77f 5a3c
00000240: ff49 bd3d 4432 81be 383c 023d 4bef ad3e
00000250: d4bd a13d 5acd b83d ce69 823e 37cb 4e3e
00000260: 1f5f d1ba edfb 3cbe c7be 05be 7cca 163e
00000270: 528a ffbd 4d13 dcbe e1e2 433c 7760 a63e
00000280: 3859 7f3f fdb7 b13f c658 8e3f 9e11 193f
00000290: 3610 ad3f 46a8 ab3f e093 50be 7758 5a3f
000002a0: 006b 813f 3b56 9e3f 9bd0 de3f 9522 b43f
000002b0: a112 b73f 83fc 743f 5a84 453f dcd6 983e
000002c0: a0d2 293f e322 7a3f 3d9c 9c3f 40bf ad3f
000002d0: 7a7e 8b3f 388d 483f 89cc c63f fe8d 383f
000002e0: 098f 7c3f 6844 903f 53d3 273f c395 943f
000002f0: 8949 de3e b6fd 633f 6ef4 3e3f 9ce9 f93f
00000300: 9bf0 1c40 cc39 a43f 8fae 4840 d6bf 8440
00000310: 3309 9e3f ad88 5c40 a954 4e40 f15b 1240
00000320: 3cd9 5f40 dbeb 2b40 8de4 2e40 501c 0440
00000330: d0b2 2540 f8af 3c40 758d 3340 73dc 6840
00000340: 60b1 7a3f 4b27 bb3f f108 c43f 9936 8f3f
00000350: f9ef 893f 37c7 903f 1848 073f d96d 753f
00000360: 1deb 553f a5c3 a73f 7b05 943f 152f 4c3f
00000370: 7fd6 633f fd37 c93f 5eac a03f 0019 273f
00000380: 9c61 2d3f 8f81 423f 864d 9d3f ce00 c03f
00000390: 9c4d d63e 4c4d 623f 0496 9f3f 4bc2 663f
000003a0: bbbd 573f eba0 1b3f 83d2 4a3f 8823 223f
000003b0: 9d7e 603f 6a23 3b3f 4937 de3e b000 973f
000003c0: 585f f03e aef7 923e 53c2 703f 6489 c53f
000003d0: 4980 3f3f 3671 893f 0ab4 973f 8fbf 033f
000003e0: 2455 383f aa81 573e 179d d13f 6e9e c23d
000003f0: a01c 353f f778 5e3f f5b6 7d3f 04d7 853f
0.41121814 -0.28597564 0.825734 0.7049322 0.09946228 1.2652105 -0.037956886 -0.08890626
0.07724436 0.32307833 0.18942259 -0.019526307 1.4081066 1.0645406 0.4095779 -0.04637714
2.2157273 1.5164467 3.1963923 3.9858088 1.4389892 3.2359705 3.2945263 1.8749027
3.0544715 3.2822692 2.9661198 1.543257 2.6881645 2.6723228 2.7783449 3.6246889
0.34890115 -0.31225172 -0.23753427 0.6051409 0.40024462 0.22323978 0.18182617 -0.5096516
-0.60716087 -0.30140406 0.5190327 0.4840492 0.2315315 -0.5142739 0.007848714 0.2369632
0.14036866 0.30413985 0.3539029 0.039199892 -0.08295258 0.39513925 0.4280974 0.31688145
0.54517287 0.30257303 0.36473995 0.5357924 0.3067127 0.19709396 0.07266196 0.30376673
0.19708341 0.40526462 0.1416451 0.09462085 0.31956097 0.3603269 0.0674601 0.17682122
0.14702126 0.14244898 0.35918838 0.4809836 -0.0011185895 0.45348155 0.29135436 0.42376488
0.2601988 0.5255455 0.642394 0.16209775 0.28261504 0.13786843 0.34712344 0.60857254
0.54612815 0.57779574 0.14774993 0.51681536 0.33466384 0.12983845 0.21847075 0.46117958
0.6612687 0.10326421 0.6865383 0.44843727 0.19718091 0.4293033 0.72092605 0.4811862
0.4958235 0.68277913 0.71161556 0.42590633 0.5210058 0.7569795 0.4165762 1.0079806
0.4112335 0.45712543 0.40647686 0.034295592 0.26625425 0.52639884 0.10870572 0.4390517
0.16570576 0.0139005445 0.30727425 0.15758722 0.016462978 0.36595988 0.37041265 -0.00020928259
-0.009913551 0.18402773 0.11481772 -0.07246268 0.008202963 0.107668296 0.22011985 -0.11256997
0.3476551 -0.08378869 0.17588532 0.04074935 0.0012080638 -0.08444394 0.11465971 0.013336114
0.09242629 -0.25233662 0.03179571 0.3397163 0.07897535 0.09023543 0.25471348 0.20194708
-0.0015973783 -0.18455477 -0.13061057 0.14725679 -0.124775544 -0.42983475 0.011955948 0.32495472
0.9974551 1.3884274 1.1120842 0.59792507 1.3520572 1.3410728 -0.2036891 0.85291237
1.0110779 1.2370065 1.7407411 1.4073054 1.430256 0.956978 0.7715508 0.29851425
0.66337013 0.9770948 1.223518 1.357399 1.0897973 0.7834048 1.5531169 0.7209166
0.98655754 1.1270876 0.6555683 1.1608204 0.43415478 0.8905901 0.7459172 1.9524417
2.4521854 1.2830138 3.1356542 4.1484175 1.2346557 3.445842 3.2239172 2.2868617
3.497634 2.6862705 2.7326996 2.064228 2.5890388 2.9482403 2.8055089 3.6384552
0.979269 1.4621366 1.5315229 1.1188537 1.0776359 1.1310796 0.5284438 0.9587074
0.8356188 1.3106581 1.1564173 0.7975934 0.8899917 1.5720211 1.2552602 0.6527252
0.67727065 0.7597894 1.2289283 1.5000246 0.41856086 0.88399196 1.2467656 0.9014022
0.8427388 0.60792416 0.79227465 0.63335466 0.87693197 0.7310091 0.43401554 1.1797085
0.46947742 0.2870459 0.94046515 1.5432553 0.7480512 1.0737674 1.1851819 0.5146417
0.72004914 0.21045557 1.6376065 0.09502874 0.70746803 0.8690333 0.99107295 1.0456243

Bi_Linear_list.0.bias f4 [64]
00000000: 14eb f5be ac3d 25c0 1df5 8ebf f75e 08be
00000010: 14b3 d2bd 5262 7bbd 763e 02be bfeb 76bd
00000020: 60dd 27be cb7b ecbe 061b babe 440b 6cbe
00000030: bc9b 21c0 5aea b0be 3327 90bd 3edb d2be
00000040: b808 f8bf c82a 7dbe 2436 05c0 6f07 53bf
00000050: 7820 9dbf e19f 0cc0 5227 e6bd 6d35 d5be
00000060: f208 87bf 2835 c7be da15 0ec0 5e2d 4bbe
00000070: 4d59 b6bf c5a2 79be 5f43 80bd ec9e 00bf
00000080: d294 9abe 99c5 fdbf fd12 7cbf ca5c 23bf
00000090: 0d4f 5bbe 7cc2 12c0 9055 11c0 cbba 8bbe
000000a0: d19a d8bd 98d9 07be 13cb 18bf 2d50 fabe
000000b0: 0563 cabf bb6f 15be fd5a 22c0 3cf3 00bf
000000c0: 854b 6dbf 24fa 94be 59b3 79bf 22f8 e0be
000000d0: 4941 bebe c315 45be 030d 11be dfaa d1be
000000e0: ef92 0dc0 60a0 07c0 c5f2 d6bd 757e debe
000000f0: 6fe0 27be 00f5 c5be 57c4 65bf a9aa f3be
-0.48030913 -2.5818892 -1.1168553 -0.13317476 -0.10288063 -0.061373062 -0.1271914 -0.06028342
-0.16393042 -0.46188197 -0.36348742 -0.23051172 -2.5251303 -0.34553796 -0.07038727 -0.41182894
-1.9377661 -0.24723351 -2.0814295 -0.8243322 -1.2275534 -2.1972582 -0.112379685 -0.41642323
-1.0549605 -0.38907743 -2.2200837 -0.19841525 -1.4246002 -0.24378498 -0.0626285 -0.50242496
-0.30191666 -1.9825927 -0.98466474 -0.6381346 -0.21416874 -2.2931204 -2.2708473 -0.2729095
-0.10576404 -0.13266599 -0.59684867 -0.48889294 -1.5811468 -0.14593403 -2.5368035 -0.50371146
-0.9269336 -0.29097092 -0.9753929 -0.4393931 -0.37159184 -0.19246583 -0.1416512 -0.40950677
-2.212093 -2.1191635 -0.10495523 -0.43455854 -0.16394208 -0.38663483 -0.89752716 -0.4759114

Bi_Linear_list.1.weight f4 [64, 64]
00000000: 8616 3c3f 80ff 483e be81 933e 98f7 d0be
00000010: c8ad 413e 6c13 0b3d a5d8 97be 37f6 6f3e
00000020: f011 babd fda4 9f3d 0ad1 8d3f 9e8b af3e
00000030: cdd2 2f3e c3ce 803f ffcd 3c3e 1409 533e
00000040: 328e 7d3e d2eb 133e 4a51 8ebe 40a1 f43d
00000050: 6a88 da3e 55df 803f 6d5e 483e d465 babe
00000060: ce27 70be d8a0 1cbf 9fdd 3f3e d0b2 003e
00000070: 9a0c 013c d262 1d3f 3e25 f83d 58a8 29be
00000080: 027e 893d 9a8a 213e a17a cebe edc3 a1be
00000090: 2396 013f 2589 babd a421 843e 5f6a 6a3f
000000a0: 1287 1a3e d17e 333c 9175 3d3f 7046 a4bd
000000b0: d23d 48be e653 99bd cefc 0f3f 7887 5c3f
000000c0: 3f5e af3e 4fc1 69bd 9c1c 06bf cd35 20be
000000d0: afa4 ccbc bd39 863e 70d2 693e 9614 503e
000000e0: 3220 243f 3dff 423e 44be 2e3e 5ad9 983d
000000f0: e8aa dabc 6ce8 28bf 5c86 403f 2748 333f
00000100: e70f 813f 7d7b 5ebf debd 1640 9e1e f03f
00000110: c3c2 393f 44c3 133f b51d 463e 0f62 373f
00000120: 7553 d03d f185 0140 b186 b33e f0fa ffbe
00000130: 3825 4ebf 8315 f7bd 011f 2bbf df3d 193f
00000140: 93ae 66bf 2c63 6d3e ad13 37bf d403 64bf
00000150: 0d13 abbe a55f 813e 8793 833e 5370 503f
00000160: 0b90 f6be af3f 99be c1f1 80bf d742 733e
00000170: 4965 5bbf 5dc8 0340 8ba9 2b3d 7e42 37bf
00000180: 6eab 95be 5598 c53e 9c0f a1be 9145 35bf
00000190: bf85 ba3e 5620 93bf 3bf1 2cbf a459 8ebe
000001a0: c290 88be 8655 8abf 5e1c dbbe 019f 2cbf
000001b0: 2b61 b2be f7f1 7bbf 6ea6 e8bd ec05 c63f
000001c0: ddd6 32bf c692 eabe e410 8ebf c0a6 61bf
000001d0: 705d b2bd 072a 21bf bc23 52bf fe14 e7be
000001e0: 8767 e73f 5bc8 1ebf 405a 063f fd1e d33f
000001f0: 6d60 2d3f 346f 63bf 1bea ebbe 3cbb 5b3f
00000200: 3636 ca3e e065 47bf f315 31be fc72 fc3e
00000210: 670e ad3d 2587 9e3e de1e 6ebf 289e 4b3e
00000220: fc78 9fbd 0b3e cb3e dbbd 973e 241c 0ebf
00000230: 5287 0bbf 4c21 ad3e 53a4 f2be d7c0 c3be
00000240: 21ed 87bf a6b5 2abb fd4d 09bf 83f2 32bf
00000250: 2041 b4be d2d7 ce3e 7dfa 463e f566 123f
00000260: 5e75 7abf 5cdf c93e 4cb1 10bf f8bf 253c
00000270: 2af2 85be 7b8c d9bd bca2 f83c e714 1fbf
00000280: cc2a 2dbf 3a0a 093f 6b2e a4be a95c 1b3e
00000290: 7574 4b3e dacc 53be abf6 cdbe 7f84 71bc
000002a0: a53d debc f7ad 61bd b198 0d3f 6e26 8cbf
000002b0: c8b9 45be ef52 02bf ecda 1ebe 994f 1dbe
000002c0: bf7d 2abf c4cd bbbe 82d8 0ebe 1dab 39bf
000002d0: 9761 683e 8b6d 6ebe 3bb7 7ebf a381 e4be
000002e0: daa1 62be 69e3 91bf 3c9c 773e dec5 883e
000002f0: 7a01 04be 8337 47bf 6ffb d03d 22a0 f53d
00000300: 4645 5b3e 324e c0be 02ee acbc 5863 7dbe
00000310: ccc4 9ebb 2cab debe 33ab 4dbe 4d0a 11be
00000320: e16e 4b3d 222b 213e 7e01 4d3f f05f 73be
00000330: e43f 02bf 52ad 163f 616d 66be 5f9b 0a3e
00000340: 6530 03bf 20d0 efbd 1234 cbbe 8a6d dbbe
00000350: 1390 2a3d d2eb 663f 96b9 643a f629 9d3e
00000360: 823c 24bf 87b4 87be d8d3 72be c206 8a3e
00000370: 58ba 00bf e52e 173e e616 b93e 7acd c8be
00000380: a418 dbbe 4bb3 a53e 04d9 e2bb 0e4e 8abe
00000390: e6dc 733f 9045 57be 526c 04be 0a41 883e
000003a0: 6e51 613c 8066 85bf 4738 2b3f e4b1 35bf
000003b0: 8dcd 74be 50b1 06bf fc8e 3e3e b5a2 aabe
000003c0: bc6c 8fbe f172 bdbe d39b a63c 9b11 9fbe
000003d0: ac11 023f 3332 debd bdfd c73e 0c37 e1be
000003e0: c033 703c 1db8 bbbe 65ae 6abd b742 383f
000003f0: 916b 0e3f bc66 11be 4d53 1ebd 32f3 243e
0.7347187 0.19628716 0.28809923 -0.408139 0.18913949 0.03395407 -0.29657474 0.23433767
-0.090854526 0.07795141 1.1079419 0.34286207 0.17170258 1.0063099 0.18437956 0.20608932
0.24761274 0.14445427 -0.27796394 0.119448185 0.426822 1.0068156 0.1956727 -0.36405814
-0.23452684 -0.6118293 0.18736885 0.12568212 0.00787654 0.6147891 0.121164784 -0.16568124
0.06713487 0.15775529 -0.40327933 -0.31594792 0.50619715 -0.091081895 0.25806916 0.9156856
0.15090588 0.010955528 0.7400752 -0.080212474 -0.19554833 -0.074867055 0.56245124 0.8614421
0.34251592 -0.05706912 -0.52387404 -0.15645523 -0.024980871 0.26215926 0.22834182 0.20320353
0.64111626 0.19042678 0.17064768 0.074633315 -0.026692823 -0.6597965 0.75205016 0.7003197
1.0082978 -0.8690718 2.3553386 1.8759344 0.7256281 0.57719827 0.1934727 0.71634
0.10172168 2.0238001 0.350637 -0.49996138 -0.8052554 -0.1206465 -0.66844183 0.5986003
-0.9011013 0.23182362 -0.715144 -0.8906834 -0.33412972 0.25268283 0.25698492 0.81421393
-0.4815677 -0.299314 -1.0073777 0.23755966 -0.85701424 2.0591042 0.041909736 -0.71585834
-0.29232353 0.38592783 -0.31457222 -0.70809275 0.36430165 -1.1494243 -0.6755559 -0.27802765
-0.2667294 -1.080735 -0.4279508 -0.6743012 -0.34839758 -0.98416084 -0.11359869 1.5470557
-0.69859105 -0.45815104 -1.1098905 -0.88145065 -0.08709228 -0.62954754 -0.82085776 -0.45133203
1.8078469 -0.6202447 0.5248146 1.6493832 0.6772526 -0.8884156 -0.46077046 0.8583257
0.39494485 -0.77889824 -0.17293529 0.49306476 0.08450013 0.30962482 -0.9301585 0.1988455
-0.07786748 0.39695773 0.29637036 -0.5551169 -0.5450336 0.33814466 -0.47390994 -0.38233063
-1.0619241 -0.0026048212 -0.53634626 -0.69901294 -0.35205936 0.40399033 0.19431491 0.5718835
-0.9783534 0.39428222 -0.56520534 0.01011657 -0.2616132 -0.10622498 0.030351035 -0.6214127
-0.6764343 0.5353123 -0.32066664 0.15172066 0.19868644 -0.20683613 -0.40227255 -0.014741062
-0.027129004 -0.055097546 0.55311114 -1.0949228 -0.19309151 -0.50907797 -0.155132 -0.15362395
-0.66598123 -0.36680424 -0.13949779 -0.72526723 0.22693478 -0.23283975 -0.9949834 -0.44630155
-0.22132054 -1.1397525 0.24180692 0.2671346 -0.12891188 -0.7781908 0.10204207 0.119934335
0.21413144 -0.37559658 -0.021109585 -0.24744928 -0.0048452374 -0.4348997 -0.20084839 -0.14164086
0.04966629 0.1573911 0.800804 -0.23767066 -0.5087874 0.58858216 -0.22502662 0.13535832
-0.5124572 -0.117096186 -0.39688164 -0.4285701 0.041641306 0.90203583 0.0008725164 0.30696076
-0.6415483 -0.2650492 -0.23713624 0.2695828 -0.5028434 0.14763983 0.36150283 -0.39219266
-0.42792237 0.32363352 -0.006922843 -0.27012676 0.9525894 -0.2102263 -0.12931946 0.2661212
0.0137523245 -1.0421906 0.6688275 -0.70974565 -0.23906536 -0.5261431 0.18609232 -0.3332726
-0.28012645 -0.37001756 0.020337975 -0.3106812 0.50808215 -0.108494185 0.39060774 -0.4398731
0.014660776 -0.36663905 -0.05729522 0.719768 0.55632883 -0.14199346 -0.03865366 0.16108397

Bi_Linear_list.1.bias f4 [64]
00000000: 76b8 afbe 0954 c4bf 1f51 51bf 1065 dabe
00000010: ab66 03bf 6a9a e4bd 1bb0 e7bd 44e0 8ebf
00000020: 2db8 95bd 2fd8 0dbe ed05 a2bf 2fed f7be
00000030: 0b2d 9a3d 583b e5bd 166f efbd 41b6 bcbe
00000040: de9a 13bf 7e75 63bd 8f64 02bf a499 65be
00000050: f0f4 c3be 6015 ecbe 7161 a2bf 8c91 e4be
00000060: 8d9b c0be c793 39bd fb33 fabe 28b9 5ebf
00000070: 08fe 5cbf 5f67 8ebe ea7d a9bf ea98 f7bc
00000080: b298 1bbe dab7 3abd 5636 91bf 614f 06bf
00000090: 135e 2ebf 65aa 04be 444b bbbe 0265 f3be
000000a0: 48c8 08be bc0e d5be c7ca 9dbe 151b 93bc
000000b0: aaad 83bf 7836 48be e729 25bd 53d1 2ebd
000000c0: 8ba2 17bf 2701 a1bf 47a8 9ebe 5b79 cebe
000000d0: f1b1 98be 765f 2fbd 0a19 b1be f956 eabd
000000e0: 973f 3cbe d179 c7bf a0fe 7bbe 1771 b4be
000000f0: 643c 383e cbd9 9abd 836a 98be fcc3 b2bf
-0.3432042 -1.5338145 -0.81764406 -0.4265523 -0.51328534 -0.11162265 -0.11312886 -1.116219
-0.07310519 -0.13851999 -1.2658058 -0.48423144 0.075281225 -0.111929595 -0.1169111 -0.368578
-0.57658184 -0.05553197 -0.5093469 -0.2242189 -0.3827281 -0.46110058 -1.2685987 -0.44642293
-0.37618676 -0.045306947 -0.48867783 -0.87001276 -0.8632512 -0.2781324 -1.3241551 -0.030224282
-0.15194967 -0.04558549 -1.1344707 -0.5246487 -0.68112296 -0.12955625 -0.3658086 -0.47538
-0.13357651 -0.41612804 -0.3081877 -0.01795725 -1.0287373 -0.19552028 -0.040323164 -0.042680096
-0.59232396 -1.2578477 -0.3098776 -0.40326962 -0.2982326 -0.042815648 -0.34589416 -0.1144237
-0.18383633 -1.558405 -0.2460885 -0.3524253 0.17991787 -0.07561072 -0.29768762 -1.396606

user_embedding.weight f4 [943, 16]
00000000: 8ee0 96bd 3a35 9f3e 1541 c13e d62e 1f3c
00000010: 0db2 48be b7c3 08be 5468 27bf bbc3 b33d
00000020: ccc4 9fbe 879b 093f 63d5 22bd 09a2 453f
00000030: c313 a43e 348b 7a3e d086 cbbe 04b1 223f
00000040: 8953 9d3e 81b8 ea3e d425 4bbf b0e4 683e
00000050: 2ba1 4bbe 0d60 273f 984f d3bd f7df 513f
00000060: 00ca 43bf 5c55 6e3f 83d0 59be 8b00 a33d
00000070: 7c67 ebbe df93 603f 482b 333f 1d12 9b3e
00000080: a7e9 903d f14a ae3e 5f0c d83e 45b3 55bf
00000090: f0bc 1fbf e4a0 8c3e f109 d23e 7db6 c03e
000000a0: f61b a4bf bf9e a23e d6c3 bb3e e609 ca3e
000000b0: 0d7a 983f 945b 863f 180a ea3d 019c 0f3f
000000c0: de4d 7ebf 7e83 843f acbe 553f 912c 71bf
000000d0: 1263 7dbe 364a 3b3f a736 343f 1a0f 323f
000000e0: a495 1fbf 9ad1 9e3d fa4c afbe aaba 213f
000000f0: 7c25 823f 17d9 babe f900 f4ba c812 773e
00000100: 4064 183e 9e5f d23e 5122 4abf 7d94 1bbe
00000110: 6904 fa3c 8fd7 85bd f911 07be c168 913e
00000120: 372a ca3e 3eca a13d b916 0e3d b65b 8fbe
00000130: dd1d 883e 4956 a4bc 61d5 00bf b7a8 90bf
00000140: 2178 cb3e 856c 0b3f 17b4 94be 22a9 ee3e
00000150: de20 0fbf f979 123d 5a79 44bf f09f c13e
00000160: 9b3e a1be da74 823e 2ae4 5fbe 5e64 8c3e
00000170: 74c4 573d 0b7b 4e3f a3a1 aebd af9c 183f
00000180: 6756 003f 3e8e aabc 1fde 92bd 31ec 3c3f
00000190: 419e 25bf d2e5 4c3e b310 1dbf 99be b8bc
000001a0: 1f39 153f a347 e5bc 51e9 403e b0a5 dbbd
000001b0: 46e4 a43e d3bc a73e 5efd 8ebc 4c18 25bf
000001c0: 8ca3 913e 7f28 1e3f 52e2 4d3d ea6c 0f3f
000001d0: 3904 4cbf 2f75 8b3f d326 f53c e23a 183f
000001e0: 457c afbe 0ff4 bf3e a89a 15bd 688b 3b3e
000001f0: 5c4c a03f c0c7 48bf a2d7 a9be 34d0 29bf
00000200: e5af 88be 7820 a13e 33c9 993e 6bfd 8d3c
00000210: 2b6b 31bf e76f 80bf 676f 87be 32ca b2bd
00000220: b4a7 73be 8481 393f 9769 323e 63eb 8bbe
00000230: ca29 6c3f 5d7b 4c3f b069 08bd ab3e 01bc
00000240: 9af9 eb3e 7d5a 983e 4290 f1bd 48c8 883f
00000250: 55dd d8be f51e 363e 6113 15bf 20d6 aa3e
00000260: 58b0 f5bc 2414 e2bd a5ef 523d 3851 a63c
00000270: a66e 803d 054c 123d 4c66 0abe abe8 4fbe
00000280: c467 d53e ad5f 6abc 30d0 a43e 93bd 08be
00000290: 5755 1fbf 2118 9a3f 8c8d 8ebe 2700 763e
000002a0: be27 d1bd a488 d03e 9c5e 62be e71f 223e
000002b0: 63b5 adbd 98c6 963e c6ae b4be aee2 2dbe
000002c0: 2e8d 453e b158 963e 1fa4 60bf 68c5 0e3e
000002d0: 6c29 4cbf 0d0d ad3e 6f51 98be d6a4 d23e
000002e0: afbc aa3e 0370 473e a2fa 23bf def4 823f
000002f0: 660b af3e ec30 aabe 45d6 84bb a8c1 88be
00000300: 8b09 833c 6c4f 9abe 5059 3bbe d28a 8e3d
00000310: a53f 7fbd 27ba 3f3e d1f7 b6bd f48b 0f3f
00000320: 7683 1bbf 1255 b6ba 7b78 103f 6d35 42be
00000330: 18fb 7b3f 62a6 443e 72d5 753e 04b3 f13d
00000340: 5c59 013b 0fc9 9c3f 94f5 5c3e ee01 0cbe
00000350: 373e 95be 3dcc 6dbe e403 2cbf 7737 cc3e
00000360: e855 a43e ee26 833e 9083 69bf 9aeb 043f
00000370: f37f 11bf e6ef 933f 4752 6b3d 9876 37bd
00000380: 7d37 6c3d 33b8 163f 76f1 48bf a11a c3be
00000390: f47a 9c3e 4261 71be 5600 3e3e 2e3b c53e
000003a0: 3f4a 10bf c93a 483f 5bfc 14bf 5eb1 9d3e
000003b0: c4f0 aebe 7f62 583f 7665 d53d e264 4e3d
000003c0: 2b07 a73e 84a4 863e b836 9cbe cc1d 383f
000003d0: c006 f8be 88ad 7e3e 671a 81bf 2140 023e
000003e0: c50d 1a3d f03a 3a3e 5d22 dfbe 126e ad3e
000003f0: a854 5d3d 978b 323e 79a7 d6bd bdaa afbe
-0.07367049 0.31095296 0.37744966 0.009715756 -0.19599171 -0.1335591 -0.6539357 0.08777567
-0.31204832 0.5375294 -0.039754283 0.7720037 0.32046327 0.24467164 -0.3975129 0.63551354
0.30727795 0.4584389 -0.79354596 0.22743487 -0.198857 0.65380937 -0.10317916 0.8198237
-0.764801 0.93099 -0.21270947 0.07959088 -0.4597739 0.87725633 0.69987917 0.30287257
0.07075816 0.3404155 0.42196938 -0.8347667 -0.6239767 0.274665 0.4102321 0.37639228
-1.2821033 0.3176174 0.36672848 0.39460677 1.1912247 1.0496697 0.114277065 0.5609742
-0.99337566 1.0352628 0.8349407 -0.9420863 -0.24744824 0.7316011 0.7039589 0.69554293
-0.6233771 0.07754822 -0.34238416 0.6317545 1.0167689 -0.3649375 -0.0018616013 0.24128258
0.14881992 0.41088575 -0.7895861 -0.15193363 0.030519681 -0.06535255 -0.1319045 0.28400233
0.39485332 0.07899903 0.03468964 -0.27999657 0.26585284 -0.020060675 -0.5032559 -1.1301488
0.3974009 0.5446246 -0.29043648 0.46613413 -0.55909526 0.035760853 -0.7674767 0.37817335
-0.31493077 0.25479776 -0.21864381 0.27420324 0.052677587 0.806565 -0.085269235 0.5961408
0.5013184 -0.02081978 -0.071712725 0.737979 -0.646946 0.20009544 -0.61353606 -0.022551822
0.58290285 -0.02798826 0.18839003 -0.10724962 0.3220541 0.3276125 -0.0174548 -0.644902
0.2844509 0.6178054 0.050264664 0.56025565 -0.79693943 1.0895137 0.02992574 0.5946485
-0.34274498 0.3749089 -0.036524445 0.18314898 1.2523303 -0.78429794 -0.33172327 -0.6633332
-0.26696697 0.31470084 0.30036315 0.017332753 -0.6930415 -1.003415 -0.2645218 -0.08729972
-0.23794442 0.7246325 0.17423092 -0.27328023 0.92251265 0.7987574 -0.033303916 -0.007888476
0.46088868 0.29756537 -0.11795093 1.0686121 -0.42356363 0.17785247 -0.58232695 0.3336649
-0.029991314 -0.11038998 0.051498074 0.0203024 0.062711045 0.03571703 -0.13515586 -0.203036
0.4168073 -0.014305037 0.32190084 -0.13353567 -0.62239593 1.2038614 -0.27842367 0.24023496
-0.10212658 0.4072925 -0.22106403 0.15832482 -0.084818624 0.2944839 -0.35289592 -0.16981003
0.19292137 0.2936454 -0.8775043 0.13942492 -0.79750705 0.3379902 -0.2974963 0.41141385
0.3334708 0.19476323 -0.6405431 1.0230978 0.34188384 -0.3324045 -0.004053863 -0.26710248
0.015995761 -0.3013872 -0.18295789 0.069600716 -0.062316556 0.18723355 -0.08933986 0.56072927
-0.6074747 -0.0013910851 0.5643384 -0.18965693 0.98430014 0.19204095 0.24007204 0.11801723
0.00197371 1.2248858 0.21578056 -0.13672611 -0.2914903 -0.23222442 -0.67193437 0.39886066
0.3209679 0.25615638 -0.91216373 0.51922 -0.5683586 1.1557586 0.057451513 -0.044790834
0.057670105 0.58874816 -0.7849344 -0.38106254 0.30562556 -0.23572257 0.18554816 0.38521713
-0.5636329 0.782147 -0.58197564 0.30799383 -0.34168065 0.84525293 0.10419743 0.050389178
0.32622656 0.2629739 -0.30510497 0.71920466 -0.4844265 0.24870884 -1.0086182 0.12719776
0.037610788 0.18186545 -0.43580905 0.3387304 0.054035813 0.17436062 -0.104811616 -0.3430995

item_embedding.weight f4 [1682, 16]
00000000: b1d8 483f 2e80 903f bda8 11bf fb02 3fbf
00000010: 8e08 42bf baaa d13e d52a 13bf eb03 ec3e
00000020: e05c bfbe 5c16 2e3f 52f3 79bf 3f89 8ebc
00000030: ba48 d33e 65c9 3f3e aab9 22bf 8b2c 3cbf
00000040: 8ff4 78be f5ea c1bd ba83 a73e f92f 11bd
00000050: dcde f1bd 92ca 1f3e 4576 f63c 488f 4dbd
00000060: 0775 c23e ab87 04bf e503 a7bd 0c24 73be
00000070: 26a6 473e 9de8 8ebf 9a16 11bf b0dc 8cbf
00000080: 8721 06be f675 c53d 4325 8dbe 98ac 63bf
00000090: 67ce 26be 9497 15be f239 aa3e e66f a23c
000000a0: 12dd 673e 2a9e ab3e 84a9 8fbe b4f5 debe
000000b0: 251b 243e 45a5 f9be 30f1 703e 621d d5bd
000000c0: 8412 4b3e 43b3 283f 93b0 66bd b009 ef3e
000000d0: fee4 fdbe 1ccb ea3e 8a52 6abe 3497 fe3e
000000e0: e82f 0fbe c23b a7be 3734 51be 067e bc3e
000000f0: d511 da3e 8292 abbe df82 27bf 6095 71be
00000100: cdab d63e db8a 733e dd93 b2be e363 6d3d
00000110: 336f 763e 71b0 5e3f deae 893e a215 b13e
00000120: fa87 5b3f a880 3a3b 6a10 833f 848b 9f3d
00000130: 7c20 7e3e 91d8 153e 97ef 46bf e5af 52be
00000140: 60fa 6dbd 51cd 0abe 34f9 c2bd 2e45 223e
00000150: c539 b63e 9100 b6be 7d40 87bd 57ca 7b3e
00000160: 8624 88bd 2aef 5e3e 3cd5 0a3f 1a2e 333d
00000170: 849d 043f b119 e73e f204 e1bd 8e21 323f
00000180: 99ca 5a3f c405 863f 3900 4ebf 9772 c7be
00000190: de81 9ebf e56f e5be 960f 66bf 9aa4 773f
000001a0: f0a9 34bf 5df4 a13f df9f e3be a0ca 3d3e
000001b0: 9125 263f 13c5 fc3d 004e 40bf 1422 6fbf
000001c0: e167 823e 1845 613f 2333 d0be 680d 793d
000001d0: 6801 34bf aa31 a6bc 06a8 71be c61f 3d3e
000001e0: e2eb 02bd 7fc8 2c3c 313c 7dbf a6a6 233f
000001f0: 3252 2d3e a514 283d 36b9 69bf ada5 1dbd
00000200: 2eb7 133e 3f86 453f 38d5 e9be 4bd1 b3be
00000210: 88b3 5ebf de7c 993e 264b 55bf 0bdc f73e
00000220: b519 0dbf f669 7f3f 9be2 9fbf be9a d6bc
00000230: 68c5 1cbf c639 493f b115 88be cf47 8e3e
00000240: edb6 423e 0619 993e 3007 d33e 1249 85bf
00000250: 81a7 74bd e1fd 0dbf 28d9 efbe e2ce ceb9
00000260: 2ad2 0abf 72f9 c23e 5a93 8abe 4a97 f23d
00000270: 3cd4 63bf 381b 083f 7734 5c3f 8272 ad3b
00000280: 1d88 833e b479 693f 9886 aabe fa67 02be
00000290: 7e66 2bbf cc8c 943e a36c 01bf 2d81 233f
000002a0: 3d95 543e 2cce b73e 2d7d 47be e74f 0f3f
000002b0: 99ec 243f e09f c5bd 13be 54bf 186d 0fbf
000002c0: a725 a93e 14db fe3e ecd6 eabd 6b0b 693e
000002d0: 6965 2bbf 0cb9 683f 777a 1cbf cbc6 9d3f
000002e0: b2af 24be fd6e 7b3f 33cc f5be 2a15 da3e
000002f0: 89a7 0d3f 1c19 0c3e bceb fbbe 5e22 4f3e
00000300: 6d28 15be ecf8 143f 269a 3cbf 25a5 83be
00000310: cee8 25bf f9b1 3b3e 0727 a6be a931 183f
00000320: 5ea8 1cbf d51a 1d3f 9c47 89bf b3ce e8be
00000330: 75b9 9dbe 6db3 79bd cff6 0bbe c4a0 6a3c
00000340: dcad 2e3f e536 db3e 4a35 d0bd 1322 8f3d
00000350: 2a9f 2dbe 89c2 e0be f63d 77bf b7af 42bd
00000360: 2e10 83bf f693 7c3f b2a9 91bd 1aa0 8f3e
00000370: 40a6 94be fe82 753f 5fe7 643e f4f2 4d3f
00000380: c385 253e e777 343f 5841 5dbf 8761 4dbf
00000390: 5acf 6abf 8e9f bebc f5fa 26bf e468 d33e
000003a0: bfdb 1cbf b4d3 8a3f 31bf 7fbf 0ab7 3e3f
000003b0: 0d4a 97bd d052 173d f498 47bf 9b23 3dbf
000003c0: 005d d5bc 77ce 1dbe f7a4 edbd 4bd1 34bf
000003d0: dc97 c43e 5dd4 273e ff87 8d3e 7177 98bc
000003e0: 2af5 75be 1322 5c3e 5541 cfbd 4982 71bf
000003f0: 303e 6ebe c17c 833d 4297 e13e 160e ba3e
0.78455645 1.1289117 -0.568981 -0.7461392 -0.75794303 0.40950567 -0.5748723 0.4609674
-0.37375546 0.6800287 -0.976369 -0.017399428 0.41266423 0.1872917 -0.6356455 -0.7350547
-0.24312042 -0.094686426 0.32717687 -0.03544614 -0.11810085 0.15604618 0.030085692 -0.05018547
0.3797991 -0.5176951 -0.0815504 -0.2374422 0.19496974 -1.1164738 -0.5667511 -1.1004848
-0.13098727 0.0964164 -0.2756749 -0.8893523 -0.16289674 -0.14608604 0.33247334 0.019828748
0.22642925 0.33519107 -0.28059018 -0.43546832 0.1602598 -0.48758903 0.23529506 -0.10405995
0.19831282 0.6589853 -0.056320738 0.46687078 -0.4958877 0.45858085 -0.22883049 0.49724734
-0.13983119 -0.3266278 -0.20430075 0.36814898 0.4259173 -0.33510214 -0.6543407 -0.23592138
0.4192795 0.23783438 -0.34878436 0.057956588 0.24065857 0.8698798 0.26891226 0.34586817
0.8575436 0.0028458033 1.0239384 0.07790282 0.2481708 0.14633395 -0.77709335 -0.20574911
-0.058100104 -0.13554884 -0.09520188 0.15846702 0.3559095 -0.35547307 -0.06604097 0.24588905
-0.06647591 0.21770921 0.5423162 0.043745138 0.5180285 0.45136788 -0.10987271 0.6958245
0.8546539 1.047051 -0.8046909 -0.38954613 -1.2383382 -0.4481193 -0.8986753 0.9673554
-0.70571804 1.2652699 -0.4445791 0.18534327 0.6490107 0.123422764 -0.7511902 -0.93411374
0.25469878 0.87996054 -0.40664014 0.0608038 -0.70314646 -0.020287354 -0.23599252 0.18469152
-0.031963237 0.010545849 -0.9891997 0.6392616 0.16925886 0.041035313 -0.91298234 -0.03848808
0.14425346 0.7715797 -0.45670485 -0.35120615 -0.8699269 0.2997808 -0.8331779 0.48410067
-0.5511735 0.9977106 -1.249103 -0.026196834 -0.6123872 0.7860378 -0.2657905 0.2778916
0.19015093 0.29901904 0.4121642 -1.0412924 -0.059730057 -0.55465513 -0.46845365 -0.00039445522
-0.54226935 0.38080937 -0.27065545 0.11845262 -0.8899572 0.5316653 0.86017555 0.0052931914
0.25689784 0.9120133 -0.33305812 -0.12734976 -0.66953266 0.2901367 -0.5055639 0.6386898
0.20760055 0.35899484 -0.19481345 0.55981296 0.6442352 -0.09649634 -0.8310253 -0.5602584
0.3303654 0.49776518 -0.11466774 0.22758262 -0.66951615 0.9090736 -0.61124367 1.2326292
-0.16082647 0.9821623 -0.48007354 0.42594272 0.55333763 0.13681453 -0.4920329 0.20227954
-0.14566202 0.58192325 -0.7367271 -0.25711933 -0.64808357 0.1832961 -0.3245165 0.59450775
-0.6119441 0.6136907 -1.0724978 -0.454702 -0.30805555 -0.06096213 -0.13668369 0.014320556
0.6823404 0.4281532 -0.10166414 0.06988921 -0.16955248 -0.4389842 -0.9657892 -0.047530856
-1.0239313 0.9866327 -0.07112445 0.28051835 -0.2903309 0.95903003 0.22353886 0.8044884
0.16164307 0.70495456 -0.8642783 -0.8022694 -0.91722643 -0.023269441 -0.6522668 0.41290963
-0.61272806 1.0845857 -0.9990111 0.74498045 -0.07387171 0.03694421 -0.7796776 -0.73882455
-0.026045322 -0.15410791 -0.1160373 -0.70631856 0.3839711 0.16389604 0.2764282 -0.018611642
-0.24019304 0.21497373 -0.10119883 -0.94339424 -0.2326591 0.06420279 0.44060713 0.36338872
