models/25102021_0010_mf_Movielens-100k.pt (torch, 169127 bytes, 2 tensors)

user_embedding.weight f4 [943, 16]
-0.6462362 -0.73250407 -0.12839518 -0.0683328 0.3325287 0.48147312 0.24239159 0.1363627
-0.18232481 0.3921319 0.53887177 -0.06522115 -0.52793163 -0.45878935 -0.662141 -0.36042324
0.22967425 0.122719385 1.6612264 0.57987946 -0.5353533 0.26505652 -1.341008 -0.091603585
0.51997846 0.40954792 0.8617537 -0.098452985 -0.811148 -0.5453757 0.68021417 -0.7926752
0.9698465 0.029458767 1.1135199 0.5065357 -0.8304592 1.0283505 -0.10895274 -0.867339
0.76505315 0.36741114 0.2543639 -0.34825256 -0.7516899 -0.3777679 0.34841177 -0.70511985
0.6916471 -1.4034142 0.95926017 0.14125402 0.27793118 1.4089113 -0.120971605 -0.12911494
0.4269586 -0.6855862 0.43211043 -0.5966382 -0.8894671 0.37915307 0.5306225 0.28210574
-0.8541141 -0.79264456 -0.33671242 -0.54005593 0.6758486 0.20668235 1.47679 0.50980085
0.07179954 0.26876575 -0.53448755 -0.24660873 -0.003567692 0.31364104 -0.44867477 0.5411555
-0.72935814 -0.6028928 0.41825026 0.28742927 0.30685094 0.581012 -0.17587627 -0.56114775
0.19601266 0.15868121 0.5589466 0.11694076 -0.3950605 -1.2241501 -0.6428078 -0.7498852
-0.8291747 -0.33447132 0.16264805 0.4166445 0.30853567 0.07511781 0.44192186 -0.6005143
-0.32747453 0.16700684 -0.3575933 0.0005533567 0.10442468 -0.28331113 -0.61585927 0.111994274
0.035724793 -1.0888776 0.92994475 0.004125246 -0.3250172 0.8576934 0.46312442 -1.2750938
0.42479217 0.34988824 0.61500865 0.40275142 -1.1804508 -0.10803047 -0.5889685 -0.44803464
-0.33621645 -0.27760747 0.56363 0.15415043 -0.5532198 0.6108003 0.36332592 -0.46953094
0.24498768 0.16164452 0.20063658 -0.4256133 -0.15725107 -1.475122 -0.419319 -0.31247288
0.042232774 -0.79213476 0.32892 0.41986266 -0.11994292 0.14038417 0.18090104 -0.61828345
-0.5338698 0.21990988 0.3644154 -0.026600005 -0.87289804 -0.4963641 -0.8912139 -0.49102542
-0.67411083 -0.5122015 0.38154313 0.50803155 0.17021723 -0.04909919 0.41568592 -0.28175008
-0.30141467 -0.15296741 -0.0726448 -0.16106123 -0.47675583 -0.61200285 -0.8505168 0.12782615
-1.051793 -0.9252009 0.49450815 -0.2191628 -0.009803449 0.23161341 0.7385897 -0.60236365
0.02125763 1.126077 0.13887836 -0.31189895 -0.97189516 -0.53695697 -0.53582567 -0.36543477
0.011249517 -0.6380084 0.19177487 -0.037913404 0.29006702 0.0792238 0.8648389 -0.69266903
-0.044318113 0.6686315 -0.2053633 -0.14693348 0.16786247 -0.1707584 -0.13016175 0.013602229
-0.7280635 -0.28270143 0.63500357 -0.38257492 -0.020227326 -0.11765035 -0.2802788 -0.034144606
-0.4127632 -0.049481906 0.033433437 -0.85446346 -0.4886377 -1.3619659 -0.7161366 -0.29904163
-0.404243 0.029991943 0.66205764 -0.842491 -0.2902099 0.62427133 -0.68102854 0.12239195
0.8554135 0.1953672 0.3512796 -0.17168298 -0.32545173 -0.11553244 1.1423492 -1.4317962
-0.5560742 0.014619357 0.18848072 -0.46777347 0.5752105 0.6197124 0.79078513 -0.986525
0.12998329 0.131713 -0.23309492 -0.23774607 -0.61142814 -0.32542065 -0.77836317 -0.3484166
00000000: bc6f 25bf 6385 3bbf 077a 03be 11f2 8bbd
00000010: 3441 aa3e a583 f63e 8035 783e aaa2 0b3e
00000020: 5bb3 3abe 83c5 c83e 80f3 093f ab92 85bd
00000030: 8726 07bf 70e6 eabe 1382 29bf 6589 b8be
00000040: ba2f 6b3e 4d54 fb3d 11a3 d43f fb72 143f
00000050: ea0c 09bf 7db5 873e 26a6 abbf a99a bbbd
00000060: 4f1d 053f 44b0 d13e e49b 5c3f b8a1 c9bd
00000070: 65a7 4fbf be9d 0bbf 8422 2e3f c3ec 4abf
00000080: dc47 783f 8353 f13c d287 8e3f 53ac 013f
00000090: f998 54bf fda0 833f 9d22 dfbd ee09 5ebf
000000a0: 86da 433f 501d bc3e fc3b 823e 294e b2be
000000b0: c06e 40bf cb6a c1be 0763 b23e bc82 34bf
000000c0: c90f 313f 14a3 b3bf 1392 753f e5a4 103e
000000d0: ff4c 8e3e 3557 b43f f6bf f7bd b536 04be
000000e0: 519a da3e 9482 2fbf 943d dd3e 48bd 18bf
000000f0: 1eb4 63bf 5a20 c23e e0d6 073f 2a70 903e
00000100: 39a7 5abf c1ea 4abf 9265 acbe 1b41 0abf
00000110: 6a04 2d3f 8aa4 533e 7407 bd3f 4f82 023f
00000120: a30b 933d aa9b 893e 2dd4 08bf 0087 7cbe
00000130: f0cf 69bb 8f95 a03e b3b8 e5be 2b89 0a3f
00000140: 37b7 3abf 2f57 1abf e624 d63e ee29 933e
00000150: 911b 9d3e 34bd 143f e918 34be 61a7 0fbf
00000160: 8bb7 483e 547d 223e 2017 0f3f a37e ef3d
00000170: 5f45 cabe f3b0 9cbf 0d8f 24bf 7af8 3fbf
00000180: cb44 54bf d33f abbe 368d 263e 6e52 d53e
00000190: 63f8 9d3e 5ed7 993d 9543 e23e 4ebb 19bf
000001a0: beaa a7be d703 2b3e 7816 b7be 240f 113a
000001b0: 9bdc d53d 280e 91be f4a8 1dbf 415d e53d
000001c0: 2954 123d 5760 8bbf dc10 6e3f 122d 873b
000001d0: a868 a6be cb91 5b3f a51e ed3e 4636 a3bf
000001e0: 5c7e d93e 8d24 b33e 3571 1d3f 6f35 ce3e
000001f0: 0319 97bf 143f ddbd a4c6 16bf cc64 e5be
00000200: 9024 acbe 9122 8ebe 0e4a 103f 9cd9 1d3e
00000210: d09f 0dbf 695d 1c3f db05 ba3e 5c66 f0be
00000220: 0dde 7a3e 2486 253e ad73 4d3e fde9 d9be
00000230: 6d06 21be ccd0 bcbf fbb0 d6be 72fc 9fbe
00000240: 46fc 2c3d 58c9 4abf 3468 a83e 3df8 d63e
00000250: a2a4 f5bd dec0 0f3e 1f3e 393e d347 1ebf
00000260: b1ab 08bf 0e30 613e a894 ba3e 41e8 d9bc
00000270: 3f76 5fbf 6f23 febe 9826 64bf af67 fbbe
00000280: 8792 2cbf a31f 03bf 9f59 c33e 5b0e 023f
00000290: 6d4d 2e3e 3b1c 49bd c9d4 d43e 8c41 90be
000002a0: 0653 9abe 7da3 1cbe ccc6 94bd 3ced 24be
000002b0: 5719 f4be 38ac 1cbf 78bb 59bf dce4 023e
000002c0: 27a1 86bf f7d9 6cbf 2c30 fd3e 376c 60be
000002d0: a59e 20bc 112c 6d3e 3714 3d3f 8134 1abf
000002e0: 7b24 ae3c 4b23 903f 2136 0e3e 38b1 9fbe
000002f0: 1fce 78bf 0376 09bf df2b 09bf 441a bbbe
00000300: e54f 383c 8554 23bf a260 443e 164b 1bbd
00000310: aa83 943e 1640 a23d 1566 5d3f c252 31bf
00000320: e986 35bd 6f2b 2b3f c24a 52be bb75 16be
00000330: 24e4 2b3e 4adb 2ebe 1f49 05be e2db 5e3c
00000340: 5f62 3abf 3ebe 90be 988f 223f dce0 c3be
00000350: c7b3 a5bc abf2 f0bd b480 8fbe 37db 0bbd
00000360: b355 d3be 8aad 4abd 80f1 083d 1ebe 5abf
00000370: b82e fabe e654 aebf ba54 37bf fc1b 99be
00000380: f0f8 cebe aab1 f53c 9c7c 293f 7dad 57bf
00000390: 6496 94be 3fd0 1f3f e357 2ebf a1a8 fa3d
000003a0: 61fc 5a3f 570e 483e ebda b33e aacd 2fbe
000003b0: 9ca1 a6be 469c ecbd 8038 923f 1945 b7bf
000003c0: e15a 0ebf 0786 6f3c 1701 413e 0180 efbe
000003d0: ff40 133f 79a5 1e3f e570 4a3f e78c 7cbf
000003e0: 571a 053e c6df 063e 6fb0 6ebe b573 73be
000003f0: 8e86 1cbf 899d a6be cf42 47bf a963 b2be

item_embedding.weight f4 [1682, 16]
-1.7681173 -0.11859786 0.9777062 -0.7751417 1.1032689 0.7236921 0.51967674 -0.62839794
0.15330319 0.79481626 0.79992074 -1.0002894 -1.0139127 -0.8101067 0.24742348 -1.0767827
-0.50312656 0.08872424 -0.65413064 -0.15815373 0.43500614 0.5695457 0.6236452 0.17698365
-0.32199636 0.2323548 -0.24879347 0.33085036 -0.4685209 -0.010271805 -0.70288783 0.42568666
-0.9688556 0.32839277 0.3629887 -0.020615837 0.6614231 0.12770493 0.1662737 0.5114209
0.33402687 0.089474894 0.23094118 -0.23913018 0.08551037 0.12947209 0.78923833 -0.47108993
-0.46979815 -0.42391273 0.30781576 -1.1148324 0.40714517 0.3683391 0.574677 -0.67825335
-0.8904384 0.37166837 0.67111844 -0.37384555 -0.44161516 0.09117335 -1.1528811 -0.1029316
-0.39289618 0.17403881 0.21283808 -0.09680066 0.54826134 0.18098293 0.9081584 -0.5703686
-0.6981534 0.13486896 -0.09527916 -0.88593185 0.81501675 0.17537804 -0.28286412 -0.284665
-0.45465797 0.95971894 0.25616825 -0.21964929 -0.7581842 0.4037494 -0.29022747 0.32902122
0.17085068 -0.19129148 0.37943113 0.112049274 -0.55166185 -0.7525457 0.14105147 -0.87850726
-0.8832509 -0.31762955 0.13048166 -0.72519577 0.29497817 1.1270773 0.40263367 -0.35576966
-0.23928587 1.0696718 1.0445023 -0.90404916 -0.5839432 -0.6482441 1.0461414 -1.0135182
-0.3259446 -0.97253203 0.47807926 -0.2940212 0.48615268 0.15334599 0.5316246 0.35026455
-0.55492324 0.31270579 0.3318365 -0.05420076 -0.9149204 -0.36358765 -0.68587464 0.20173103
-0.42301238 0.06337488 1.0336945 -0.9909643 -0.09614961 0.28378013 -0.24552512 -0.5484892
0.2588098 0.080734074 0.5894253 -0.63216794 -1.0348487 -1.1791676 -0.010336053 -1.0539389
-0.8645931 1.0797565 0.29392907 0.07376105 0.56035006 0.107305646 -0.2096839 0.2860995
0.08839074 0.62457675 0.5917403 0.01746566 -0.2937745 -0.100346036 0.25755575 -0.95473754
-0.4838976 -0.8508678 0.49268082 -0.36657953 0.6460949 0.7527885 0.41681936 -0.499426
-0.7277294 0.05566968 0.50734353 -0.37590495 -1.3031191 -0.09720525 -0.2018183 0.23574223
-0.7403481 -0.5430752 0.4607721 0.101489075 0.3731738 0.73332995 1.194537 -0.6580625
-0.54555327 0.3640406 0.5588976 -0.18125531 -0.6298283 -1.0156109 -0.73589027 -0.5940797
-0.90556085 -0.1559766 0.62269557 -1.2315361 0.1510921 0.16862164 -0.23378415 0.5278714
-0.59323126 0.1751298 0.2760664 -0.6003759 -0.34421667 -0.99522823 0.11501552 -0.71842295
-0.5381778 0.3191425 1.0205355 0.32998648 0.5503415 0.020349912 -1.1513352 -0.666987
0.2868992 0.36112672 0.8777997 -0.9307468 -0.79468644 -1.0988753 -0.45380926 -1.0676504
-1.1614859 -0.2438141 0.3561405 -0.53643596 0.57932025 1.0060104 -0.6954628 -0.18775791
0.81246966 0.7590794 0.14357184 -0.6883427 -1.0326786 -0.58297545 0.29075244 -0.8454011
-0.043811284 0.14815764 0.4146461 -0.14401028 0.092693865 -0.36427075 -0.5071956 0.16078731
0.50734186 -0.3192427 -0.26284316 -0.37165228 0.51940536 -0.5320309 0.6474795 -0.76020724
00000000: ab51 e2bf 6fe3 f2bd f44a 7a3f b06f 46bf
00000010: ea37 8d3f e343 393f 8909 053f b0de 20bf
00000020: 83fb 1c3e 1479 4b3f 9bc7 4c3f 7c09 80bf
00000030: e4c7 81bf 2763 4fbf 955c 7d3e 04d4 89bf
00000040: e7cc 00bf 0eb5 b53d 1b75 27bf 0df3 21be
00000050: 20b9 de3e bfcd 113f 36a7 1f3f 343b 353e
00000060: b5dc a4be 6bee 6d3e b7c3 7ebe 3865 a93e
00000070: f9e1 efbe 134b 28bc 75f0 33bf 9af3 d93e
00000080: ec06 78bf 1923 a83e a8d9 b93e 8be2 a8bc
00000090: 0653 293f 15c5 023e a743 2a3e 7bec 023f
000000a0: 9205 ab3e 9d3e b73d d87b 6c3e 8bde 74be
000000b0: 1020 af3d 5594 043e 860b 4a3f b332 f1be
000000c0: 6289 f0be 170b d9be 079a 9d3e d4b2 8ebf
000000d0: 5575 d03e f196 bc3e 081e 133f 03a2 2dbf
000000e0: c5f3 63bf 514b be3e 6bce 2b3f af68 bfbe
000000f0: 621b e2be 18b9 ba3d 9c91 93bf cdcd d2bd
00000100: b029 c9be 3b37 323e 3af2 593e 6d3f c6bd
00000110: db5a 0c3f 9753 393e 127d 683f ad03 12bf
00000120: 2eba 32bf 171b 0a3e b821 c3bd 6ecc 62bf
00000130: f0a4 503f 4d96 333e 91d3 90be 9cbf 91be
00000140: eec8 e8be 24b0 753f 7c28 833e beeb 60be
00000150: 5c18 42bf 3eb8 ce3e b298 94be 7875 a83e
00000160: 7bf3 2e3e eae1 43be cc44 c23e 177a e53d
00000170: b639 0dbf d6a6 40bf cc6f 103e dae5 60bf
00000180: bb1c 62bf 57a0 a2be fc9c 053e 6ea6 39bf
00000190: 6107 973e 1244 903f 0026 ce3e 7127 b6be
000001a0: 5b07 75be 01eb 883f 40b2 853f c46f 67bf
000001b0: 4d7d 15bf 53f3 25bf f6e7 853f f7ba 81bf
000001c0: 36e2 a6be dcf7 78bf cec6 f43e f289 96be
000001d0: 01e9 f83e bb06 1d3e 8d18 083f e055 b33e
000001e0: 730f 0ebf f91a a03e 79e6 a93e 9e01 5ebd
000001f0: 3938 6abf 2928 babe 7b95 2fbf 9492 4e3e
00000200: 1495 d8be b0ca 813d 1a50 843f d6af 7dbf
00000210: 16ea c4bd a14b 913e f06a 7bbe ca69 0cbf
00000220: b882 843e e857 a53d 94e4 163f c2d5 21bf
00000230: ec75 84bf f7ee 96bf 8c58 29bc 78e7 86bf
00000240: f955 5dbf 7635 8a3f df7d 963e 0910 973d
00000250: 1a73 0f3f 10c3 db3d 60b7 56be a27b 923e
00000260: 3406 b53d 43e4 1f3f 4b7c 173f 2514 8f3c
00000270: 9c69 96be 3982 cdbd 59de 833e ae69 74bf
00000280: 6dc1 f7be 79d2 59bf a940 fc3e 50b0 bbbe
00000290: 7a66 253f bfb6 403f 5969 d53e c4b4 ffbe
000002a0: 794c 3abf e405 643d 44e1 013f 9d76 c0be
000002b0: 9bcc a6bf 8c13 c7bd 75a9 4ebe 6966 713e
000002c0: 7487 3dbf fa06 0bbf 52ea eb3e 81d9 cf3d
000002d0: a310 bf3e 83bb 3b3f 97e6 983f c976 28bf
000002e0: 61a9 0bbf 8863 ba3e ea13 0f3f fe9a 39be
000002f0: 6d3c 21bf 8aff 81bf 4e63 3cbf 9b15 18bf
00000300: d6d2 67bf 54b8 1fbe fa68 1f3f faa2 9dbf
00000310: e3b7 1a3e 27ab 2c3e 1d65 6fbe 9422 073f
00000320: 01de 17bf 3a55 333e 9358 8d3e 3cb2 19bf
00000330: 2b3d b0be 47c7 7ebf 428d eb3d 91ea 37bf
00000340: 05c6 09bf a566 a33e e8a0 823f fdf3 a83e
00000350: 2ee3 0c3f dcb4 a63c f45e 93bf a9bf 2abf
00000360: 74e4 923e 9ae5 b83e 7bb7 603f 6c45 6ebf
00000370: 9270 4bbf f2a7 8cbf b059 e8be c5a8 88bf
00000380: 92ab 94bf 67aa 79be 0c58 b63e de53 09bf
00000390: 554e 143f f3c4 803f da09 32bf 9c43 40be
000003a0: 03fe 4f3f 0753 423f 7f04 133e 3a37 30bf
000003b0: d02e 84bf e13d 15bf 81dd 943e 356c 58bf
000003c0: 7673 33bd a3b6 173e 7e4c d43e 6e77 13be
000003d0: 48d6 bd3d b281 babe 92d7 01bf 6ea5 243e
000003e0: 28e1 013f c773 a3be 6193 86be 3549 bebe
000003f0: c0f7 043f 2d33 08bf 37c1 253f f19c 42bf
