models/25102021_0004_ngcf_Movielens-100k.pt (torch, 212999 bytes, 10 tensors)

GC_Linear_list.0.weight f4 [64, 16]
0	0xbf0cdb3c	-0.55022025
1	0x3ed4cc39	0.4156206
2	0xbcef83a1	-0.02923757
3	0x3eebbd92	0.46043068
4	0x3f2580e6	0.6464981
5	0xbe9c1a4d	-0.30488816
6	0x3e2ca334	0.16859132
7	0xbdc369e8	-0.095416844
8	0x3e96a7fe	0.29425043
9	0x3e875d8e	0.26438564
10	0x3ef6df0b	0.48217043
11	0xbf09397e	-0.5360335
12	0x3eb41d34	0.3517853
13	0x3e34bd69	0.17650379
14	0x3e9b8a2e	0.3037886
15	0xbe38f91d	-0.18063779
16	0xbe941684	-0.28923428
17	0xbed2af0d	-0.41149178
18	0x3e960e96	0.29308003
19	0xbe21d5fb	-0.15804283
20	0xbe45578f	-0.19271682
21	0xbe1b320a	-0.15155807
22	0x3e824662	0.25444323
23	0x3e05bb6b	0.13059776
24	0x3c6cdad0	0.014456466
25	0xbe650825	-0.22366388
26	0xbecf8e38	-0.40538192
27	0x3f07b86a	0.5301577
28	0x3e663c06	0.22483835
29	0xbd5464ba	-0.051853873
30	0x3e64d092	0.22345188
31	0xbd381ba5	-0.04494824
32	0x3e353b8d	0.17698498
33	0x3e7cce16	0.2468799
34	0x3e4893d8	0.19587648
35	0xbe9954f2	-0.2994762
36	0x3db26dae	0.08712326
37	0xbe37fad2	-0.17966774
38	0x3ebc23db	0.36746106
39	0x3ee73aed	0.45162144
40	0xbd6b755e	-0.057484977
41	0x3e278b9c	0.1636185
42	0xbe9520d4	-0.29126608
43	0xbd67f1d1	-0.0566271
44	0xbd2bbeef	-0.041930135
45	0x3d57d714	0.05269535
46	0x3e8aa988	0.27082467
47	0xbdf56cee	-0.11983667
48	0xbe9183ed	-0.28420964
49	0xbe3d748c	-0.1850149
50	0x3dbe7a0c	0.09300622
51	0xbc7ff4f6	-0.015622368
52	0x3d86a3f7	0.065742426
53	0x3df5e960	0.120074034
54	0xbe3b4ef5	-0.18291838
55	0x3ee65878	0.4498937
56	0x3f1fa273	0.6235725
57	0xbe94c76b	-0.29058394
58	0xbe74c3de	-0.23902842
59	0x3e9d0981	0.30671313
60	0x3e6361ab	0.22205226
61	0xbe7703c7	-0.24122535
62	0xbe58c65f	-0.21169423
63	0x3d5e2090	0.054230273
64	0x3f0470db	0.51734704
65	0x3e4cc0bc	0.19995397
66	0xbeb7fea4	-0.35936463
67	0xbd6ba020	-0.057525754
68	0x3f192e32	0.59836113
69	0x3df38754	0.11891046
70	0x3d558786	0.0521312
71	0x3df3be1b	0.11901494
72	0x3ebb9bc8	0.3664229
73	0x3e6ee889	0.23330893
74	0xbd9d50e4	-0.07681444
75	0xbe6156d3	-0.22005777
76	0x3ebfda7a	0.37471372
77	0xbccbaee6	-0.024863672
78	0x3f33aac0	0.7018242
79	0xbefcd2da	-0.49379617
80	0xbf56851f	-0.83796877
81	0xbe62cb97	-0.22147976
82	0xbe0dac04	-0.1383515
83	0x3e913ec9	0.28368214
84	0xbe2ebded	-0.17064638
85	0xbec7d33a	-0.3902834
86	0x3f14c7ff	0.5811767
87	0xbe9a78c2	-0.30170256
88	0x3d95ab1a	0.07308026
89	0xbe9bc8f4	-0.30426753
90	0x3e83fe70	0.25780058
91	0xbf3d68ac	-0.7398784
92	0x3ec7b6bd	0.39006606
93	0xbe88cb01	-0.2671738
94	0xbed27e29	-0.41111878
95	0xbf1c1dae	-0.6098279
96	0x3e0e2b9d	0.13883825
97	0x3e9887c6	0.29791087
98	0x3e450a79	0.19242276
99	0x3ec03fc1	0.3754864
100	0xbe0152b8	-0.12629211
101	0x3e94c1c7	0.2905409
102	0xbdb7d82a	-0.08976777
103	0x3e362b79	0.17790021
104	0xbd47b132	-0.04875297
105	0xbd96464a	-0.07337625
106	0x3e3668e4	0.1781345
107	0x3edd9671	0.4327884
108	0xbdd6a458	-0.10480565
109	0xbe95c7e6	-0.29254073
110	0x3e9503af	0.29104373
111	0x3e7600eb	0.24023788
112	0xbed7c7be	-0.4214458
113	0x3ef7e422	0.4841624
114	0x3ed6081d	0.41803065
115	0x3ed669bf	0.41877553
116	0x3e081ac6	0.13291463
117	0xbb9897f4	-0.004656786
118	0xbdd17ade	-0.10228513
119	0x3ea7ebf3	0.32797202
120	0x3eca15ae	0.39469665
121	0x3e534538	0.20631874
122	0xbf141f2a	-0.5786005
123	0x3e2e4039	0.17016686
124	0xbea9a44f	-0.3313317
125	0xbee0af49	-0.43883732
126	0xbe9dd7bc	-0.30828655
127	0xbe98d557	-0.29850265
128	0x3c4a1de6	0.01233623
129	0x3c413beb	0.011794071
130	0x3d4be6b7	0.049780574
131	0x3da08591	0.07837976
132	0x3d292086	0.041290782
133	0x3d0f86b3	0.03504057
134	0xbb2d7e1c	-0.0026472872
135	0xbcbcfecd	-0.023070717
136	0xbe2290f8	-0.15875614
137	0x3e008b80	0.12553215
138	0x3dbfc741	0.093641765
139	0xbddaea21	-0.10689188
140	0x3d6b9a6a	0.057520308
141	0xbc63fedb	-0.013915743
142	0x3d6408af	0.055672344
143	0x3cb8a60a	0.022540111
144	0xbe6b54e3	-0.229816
145	0xbf5dd115	-0.8664716
146	0x3e88f4c9	0.26749256
147	0xbeb3cec2	-0.3511868
148	0xbc052d44	-0.008128468
149	0x3ef1c722	0.4722224
150	0x3d58db6d	0.052943636
151	0xbe6b798d	-0.22995587
152	0x3d893514	0.06699577
153	0x3e7bb5e9	0.24581112
154	0x3d20adf5	0.0392284
155	0xbdd641be	-0.10461758
156	0x3e7c0568	0.24611437
157	0x3f186f55	0.5954488
158	0xbed58975	-0.41706434
159	0x3f11ca41	0.5694924
160	0x3f08d52f	0.5345029
161	0x3f267ea7	0.65037006
162	0x3e7d4a76	0.24735436
163	0xbe6cc766	-0.2312294
164	0x3e95ef51	0.29284146
165	0x3e9791ae	0.29603332
166	0xbe0ae188	-0.13562596
167	0xbd2d6aa8	-0.042338043
168	0xbe34d56f	-0.17659543
169	0x3ebd61a4	0.36988556
170	0x3e30308f	0.17206024
171	0x3f06afd8	0.52612066
172	0x3e5d23de	0.21595713
173	0xbe34af17	-0.17644916
174	0xbde572e7	-0.112035565
175	0x3e117f92	0.1420882
176	0xbe884019	-0.26611403
177	0xbe12cbac	-0.14335507
178	0xbd385c1f	-0.04500973
179	0xbe24e9b6	-0.16104779
180	0x3d4906b6	0.049078666
181	0xbe13db0e	-0.14439031
182	0x3d3bf354	0.045886353
183	0xbd65874b	-0.05603723
184	0xbe776117	-0.2415813
185	0x3d6ac142	0.05731321
186	0x3d98902c	0.074493736
187	0x3dcdd09d	0.100495555
188	0x3e58d16b	0.21173637
189	0xbbf36d0c	-0.007428771
190	0xbd7d6578	-0.061864346
191	0x3e7e998a	0.24863258
192	0x3e3cdc59	0.18443431
193	0xbec87a77	-0.39155933
194	0x3dd21d2a	0.10259469
195	0xbe436888	-0.19082844
196	0xbd174758	-0.036933273
197	0x3ec6f938	0.38862014
198	0x3e0ba1b0	0.13635898
199	0xbd949fcf	-0.072570436
200	0x3e577667	0.2104126
201	0x3e4f3bac	0.20237607
202	0xbd332e3c	-0.043745264
203	0x3e08137e	0.13288686
204	0x3ef13019	0.47107008
205	0x3f0d97c2	0.5530969
206	0xbe5a3013	-0.21307401
207	0x3f37fb46	0.7186779
208	0xbe9cc6cc	-0.3062042
209	0x3c696134	0.014244366
210	0x3e5eb8a3	0.21750121
211	0x3d574e91	0.05256516
212	0x3cf6fecc	0.030150793
213	0x3d53c84d	0.051704694
214	0xbd6397c1	-0.055564646
215	0xbe62aec1	-0.22136976
216	0xbe2672cb	-0.16254728
217	0xbd1b0023	-0.037841927
218	0xbd36c8d8	-0.044625133
219	0xbeb541d9	-0.354018
220	0x3d10665b	0.035253864
221	0xbdd333db	-0.10312625
222	0x3d4522f0	0.048129022
223	0xbe0c37f1	-0.13693215
224	0x3ed079e8	0.40718007
225	0x3eba10cf	0.3634095
226	0xbdb5044f	-0.088387124
227	0x3c0a94f4	0.008458365
228	0xbe0eab47	-0.13932525
229	0x3efe6673	0.49687538
230	0xbd221997	-0.039575186
231	0x3d9514c5	0.07279352
232	0x3ef3efeb	0.4764398
233	0x3e271d6c	0.16319817
234	0x3bbcee39	0.005765703
235	0x3f072332	0.5278808
236	0x3e1b9451	0.15193297
237	0x3e2be4da	0.16786519
238	0x3dec5870	0.115403056
239	0x3f56dbe1	0.8392926
240	0xbe50630f	-0.20350288
241	0xbe8d4982	-0.27595145
242	0x3d7bd9bc	0.061486945
243	0x3cc102b7	0.023560865
244	0x3ef528e3	0.47882757
245	0xbea528e3	-0.32257757
246	0xbf11293f	-0.5670356
247	0xbe8ffcbd	-0.28122512
248	0xbdcf96ee	-0.101362094
249	0xbf02704e	-0.50952613
250	0xbf045492	-0.51691544
251	0xbebe17e6	-0.37127608
252	0x3e60cbd5	0.21952756
253	0xbe2439c6	-0.16037664
254	0x3e8a01cf	0.26954505
255	0xbf13bb4f	-0.57707685

GC_Linear_list.0.bias f4 [64]
0	0xbe582ea1	-0.21111538
1	0xbe38be49	-0.18041338
2	0xbe0e9ad8	-0.13926256
3	0xbdec5f56	-0.115416214
4	0xbd1e7c6f	-0.038692888
5	0xbecfa2e6	-0.4055397
6	0xbe5aefaf	-0.21380495
7	0xbe1d070f	-0.15334724
8	0xbed51c28	-0.41623044
9	0xbda3933c	-0.07987067
10	0xbeac5904	-0.33661664
11	0xbf1c2cf0	-0.6100607
12	0xbe9ee583	-0.3103448
13	0xbd9c3e4f	-0.07629072
14	0xbeac51d8	-0.33656192
15	0xbe82ffcc	-0.25585783
16	0xbe84d9ef	-0.2594752
17	0xbe0809dd	-0.13285013
18	0xbef8622b	-0.48512396
19	0xbdb23e6e	-0.08703314
20	0xbe14bc43	-0.14524941
21	0xbe1ce0cc	-0.15320128
22	0xbf426f2e	-0.75950897
23	0xbd902448	-0.0703817
24	0xbe1707a6	-0.14749011
25	0xbdd23954	-0.10264841
26	0xbdeb6182	-0.114932075
27	0xbf39d2b6	-0.72587144
28	0xbeb6ee74	-0.357288
29	0xbe128716	-0.14309344
30	0xbeb8b66a	-0.3607667
31	0xbdb8350f	-0.08994495
32	0xbe883c97	-0.26608726
33	0xbd91ef33	-0.07125702
34	0xbf46a93b	-0.77601975
35	0xbf028662	-0.509863
36	0xbebf93f4	-0.37417567
37	0xbd4c1f01	-0.049834255
38	0xbc91b460	-0.017786205
39	0xbde90ced	-0.113794185
40	0xbee68f8e	-0.450314
41	0xbd4f13f1	-0.050556127
42	0xbde132d8	-0.10996026
43	0xbe99b29c	-0.3001908
44	0xbf12211d	-0.57081777
45	0xbe0aba6b	-0.13547675
46	0xbf1374d0	-0.57600117
47	0xbe820195	-0.25391832
48	0xbf08ee2d	-0.5348843
49	0xbe5312c1	-0.20612623
50	0xbf1672d1	-0.58768946
51	0xbd4f574d	-0.050620366
52	0xbd07adb5	-0.033124644
53	0xbe2c35f9	-0.16817464
54	0xbcf2a0b6	-0.029617649
55	0xbe9ce1dc	-0.30641067
56	0xbde9e65d	-0.114208914
57	0xbd4f5b6c	-0.050624296
58	0xbeb0d052	-0.34533936
59	0xbd0684ab	-0.032841366
60	0xbe4892ea	-0.19587293
61	0xbeb63df9	-0.35594156
62	0xbe8203c1	-0.2539349
63	0xbea056bb	-0.3131617

GC_Linear_list.1.weight f4 [64, 64]
0	0xbdf2650e	-0.11835681
1	0xbe7d8937	-0.24759375
2	0xbcbb98ac	-0.022899948
3	0xbda4a661	-0.08039547
4	0x3bf6b031	0.007528328
5	0xbd0e9181	-0.034806732
6	0x3ccbad07	0.02486278
7	0xbc8acf3a	-0.016944516
8	0x3b209de6	0.0024508177
9	0x3d4398d9	0.04775319
10	0xbdcc36c2	-0.09971382
11	0xbe02d206	-0.1277543
12	0xbce7ef64	-0.028312393
13	0xbe45a991	-0.19302966
14	0x3d6a67e7	0.057227995
15	0xbdb77877	-0.08958524
16	0xbc6b260c	-0.014352333
17	0xbcbce303	-0.023057466
18	0xbdcdd266	-0.10049896
19	0xbd15e8a3	-0.036598813
20	0x3c3dc55a	0.011582697
21	0x3d0de2a2	0.034639962
22	0xbc64939a	-0.013951207
23	0xbdc677bf	-0.096908085
24	0xbe276fe5	-0.16351278
25	0x3d8ab0a3	0.06771972
26	0xbb02d6af	-0.0019964387
27	0x3d34b048	0.044113427
28	0xbd59986a	-0.05312387
29	0xba6326d9	-0.00086651515
30	0xbc9830eb	-0.018578013
31	0xbe0e6a87	-0.13907824
32	0xbca0caec	-0.01962801
33	0xbd265a04	-0.04061319
34	0x3e61a480	0.22035408
35	0x3d3928fe	0.04520511
36	0xbdc51313	-0.09622779
37	0x3c969c1e	0.01838499
38	0xbca217c5	-0.019786725
39	0x3d3ad353	0.04561169
40	0xbcd5df39	-0.026107417
41	0x3d6a954a	0.05727128
42	0xbe3f714c	-0.18695563
43	0x3ca8609e	0.020553883
44	0x3d9c8e9d	0.07644389
45	0xbe10fe26	-0.1415945
46	0x3de772b1	0.113011725
47	0xbd55f95e	-0.05223977
48	0xbd05a068	-0.03262368
49	0xbd0626af	-0.032751735
50	0xbc0d38da	-0.0086195115
51	0xbbed9ce4	-0.007251369
52	0xbd9170b7	-0.07101577
53	0xbe1930b8	-0.14959991
54	0xbdf54fed	-0.11978135
55	0xbd6e4acd	-0.058176804
56	0xbdc128b9	-0.09431595
57	0xbe159230	-0.14606547
58	0xbd4b432e	-0.049624614
59	0xbccacacf	-0.02475491
60	0xbe81eae6	-0.25374526
61	0x3e9c9d5a	0.305888
62	0xbdfbab2a	-0.12288506
63	0xbe6528c6	-0.22378835
64	0x3ec0c69c	0.37651527
65	0xbeafafc7	-0.34313795
66	0xbe42af20	-0.19012117
67	0xbe1694ab	-0.1470515
68	0xbe32657c	-0.17421526
69	0x3f160ea7	0.5861611
70	0xbe850e3c	-0.25987422
71	0xbd9b4eb3	-0.0758337
72	0xbe32160d	-0.17391224
73	0xbea75214	-0.32679808
74	0xbe76dd21	-0.24107791
75	0xbd5007f0	-0.05078882
76	0xbe1342fd	-0.14381023
77	0x3ddec6d3	0.108777665
78	0xbe823138	-0.25428176
79	0x3debfd8c	0.115229696
80	0x3bab6795	0.005230854
81	0xbe26ac01	-0.16276552
82	0xbe4f4227	-0.20240079
83	0xbe2e9b7c	-0.170515
84	0x3ea2caab	0.31795248
85	0xbfad9c80	-1.3563385
86	0x3d8507c4	0.06495622
87	0xbe69664c	-0.2279293
88	0xbd3b036b	-0.045657557
89	0xbeb3e622	-0.35136515
90	0xbeac9ffe	-0.33715814
91	0x3e84fbdb	0.259734
92	0xbf87ac2c	-1.0599418
93	0xbe7d4807	-0.24734508
94	0xbe33b552	-0.17549637
95	0xbe194a3e	-0.14969727
96	0x3c8ac31c	0.016938739
97	0x3dae6aeb	0.08516487
98	0x3f002aee	0.50065506
99	0x3d9e6c92	0.07735552
100	0x3d3c4fe4	0.045974627
101	0xbce8508e	-0.028358724
102	0xbd46787b	-0.048454743
103	0xbd744989	-0.05964044
104	0xbe5040a6	-0.20337161
105	0xbe3d545d	-0.18489213
106	0xbe825559	-0.2545574
107	0xbea6bf88	-0.32568002
108	0x3eb1ef1d	0.3475274
109	0xbd11cb5b	-0.035594326
110	0x3eb52bc7	0.35384962
111	0xbe679894	-0.22616798
112	0x3b9ecd6c	0.0048462655
113	0xbe722d70	-0.23650146
114	0xbc4f6bc3	-0.01265997
115	0x3af1b664	0.0018441197
116	0xbed7dc23	-0.42160138
117	0xbe553c9f	-0.20823906
118	0xbc958c25	-0.018255303
119	0xbd923a66	-0.07140045
120	0xbe98fa42	-0.29878432
121	0xbd8971d4	-0.06711164
122	0xbf07a081	-0.52979285
123	0x3d962974	0.07332125
124	0x3cbb431a	0.022859145
125	0x3db407d3	0.08790555
126	0xbdc4573e	-0.095869526
127	0xbeea6606	-0.45780963
128	0x3df35121	0.118807085
129	0xbd0ea22d	-0.03482263
130	0x3e1309e7	0.14359246
131	0xbc81a1fe	-0.015824314
132	0xbd29bc69	-0.041439448
133	0x3e1d051f	0.15333985
134	0x3d85dc65	0.065361775
135	0xbdd2b466	-0.102883145
136	0xbe133366	-0.14375076
137	0xbe0a6ff4	-0.13519269
138	0x3cb1e820	0.021717131
139	0xbd7228dc	-0.059120998
140	0x3cd4ae91	0.025962146
141	0x3cfe2368	0.031022742
142	0xbddaa7fd	-0.106765725
143	0xbd9655cb	-0.073405825
144	0x3cd94645	0.026522765
145	0xbe52f0e5	-0.20599706
146	0xbdf18caa	-0.11794408
147	0x3ce38560	0.02777356
148	0x3de242d4	0.11047903
149	0xbd743b89	-0.05962709
150	0xbc6d95cd	-0.014501047
151	0xbdbfa229	-0.093571015
152	0x3cd3c8cc	0.025852583
153	0xbe096a57	-0.13419472
154	0x3d855964	0.065111905
155	0x3d0ff99c	0.035150155
156	0xbd6e83b8	-0.058231086
157	0x3d1ff671	0.039053384
158	0xbdb3aa85	-0.087727584
159	0x3e09c5a6	0.13454303
160	0xbd8bff00	-0.06835747
161	0xbe07f8d8	-0.1327852
162	0x3dc3a146	0.09552245
163	0xbde12be8	-0.109947026
164	0xbd965728	-0.073408425
165	0xbe4f93b2	-0.20271185
166	0xbd9f0005	-0.077636756
167	0xbe3da068	-0.18518221
168	0xbe1600db	-0.14648764
169	0xbe03f5cd	-0.12886734
170	0x3da2f211	0.07956327
171	0x3ced6e79	0.028983342
172	0x3d93515c	0.071932524
173	0xbe372dce	-0.17888567
174	0x3d9bd21f	0.07608437
175	0x3ada1c6f	0.0016640554
176	0x3c827663	0.015925592
177	0xbd6c24a5	-0.057652134
178	0xbd93ea19	-0.07222385
179	0xbde4f755	-0.11179987
180	0xbd447139	-0.04795954
181	0xbdb3cb8a	-0.08779056
182	0xbd39b479	-0.045338128
183	0x3bdb4f8c	0.0066928323
184	0x3db91887	0.09037881
185	0xbdfda6e2	-0.12385346
186	0xbd522835	-0.051307876
187	0xbe3a3c42	-0.18187049
188	0xbd8f45d2	-0.06995739
189	0xbd7f1215	-0.062273104
190	0xbdb83021	-0.08993555
191	0x3c4aa990	0.012369528
192	0xbdca9ac9	-0.09892804
193	0xbddbb918	-0.10728663
194	0xba9d729c	-0.0012012306
195	0x3ccf9849	0.02534117
196	0xbdc00e8d	-0.09377775
197	0x3e71df86	0.23620424
198	0xbe103ec6	-0.14086446
199	0x3d7b2fe4	0.06132497
200	0xbdc460de	-0.095887884
201	0xbd873555	-0.06601969
202	0xbe4c83a0	-0.19972086
203	0xbd00627a	-0.031343915
204	0xbdbfa90c	-0.09358415
205	0xbcac6c3d	-0.021047706
206	0xbdc4f1b0	-0.09616411
207	0x3e79d94b	0.24399297
208	0x3e95b5ea	0.29240352
209	0xbcc8920b	-0.024483701
210	0xbe143dad	-0.14476652
211	0xbe0b4159	-0.13599147
212	0x3e3193a6	0.1734148
213	0xbe5b4d9b	-0.21416323
214	0x3e1250d7	0.1428865
215	0xbe271efc	-0.16320413
216	0x3b588e5b	0.0033043835
217	0xbe6ce4ba	-0.23134127
218	0xbd607953	-0.054803204
219	0x3e4b4024	0.19848686
220	0xbd0c6f71	-0.034285966
221	0xbd3273fe	-0.04356765
222	0xbde68454	-0.11255708
223	0xbcc253fc	-0.023721687
224	0x3dda6e1f	0.10665535
225	0x3d7ca122	0.061677106
226	0x3bcfa4a3	0.006336765
227	0x3e8296ed	0.25505772
228	0xbd278d48	-0.04090622
229	0xbcd72e7d	-0.026267285
230	0xbe36ff7e	-0.178709
231	0xbce10d80	-0.027472258
232	0xbe37acdd	-0.17937036
233	0xbd83e816	-0.06440751
234	0x3d6ff912	0.05858714
235	0xbe0b3ce3	-0.13597445
236	0x3dbaad27	0.091150574
237	0xba7f893c	-0.00097479275
238	0x3e436602	0.19081882
239	0xbe5f72cb	-0.21821134
240	0xbdc7cc50	-0.097557664
241	0xbd877e03	-0.06615832
242	0xbe106951	-0.14102675
243	0xbcaad766	-0.020854663
244	0xbe81e68b	-0.25371203
245	0xbd85d5de	-0.065349326
246	0xbe14070a	-0.1445581
247	0xbe1007ed	-0.14065523
248	0xbee3302b	-0.44372687
249	0xbdcab8e0	-0.09898543
250	0xbe0b1ea3	-0.13585906
251	0xbe1a7c6b	-0.15086524
252	0x3dd4fd21	0.10399843
253	0x3e1f2d70	0.15544677
254	0xbdffa626	-0.12482862
255	0xbdcd2102	-0.10016061

GC_Linear_list.1.bias f4 [64]
0	0x3ce7fcd1	0.028318794
1	0x3ddc3812	0.10752882
2	0xbd4e09a2	-0.050302155
3	0x3dbd9ce3	0.092584394
4	0x3db9a42b	0.09064516
5	0x3cd94f44	0.026527055
6	0xbd179d2b	-0.03701512
7	0x3d89d7be	0.06730603
8	0x3d887e09	0.06664664
9	0x3e666a40	0.22501469
10	0xbe54fa80	-0.20798683
11	0x3c6e65c5	0.014550631
12	0xbe57832c	-0.21046132
13	0x3e138d67	0.1440941
14	0x3e527908	0.20553982
15	0x3dda6515	0.10663811
16	0x3e2c0c67	0.16801606
17	0xbdc1ba6b	-0.094593845
18	0xbdf01066	-0.11721878
19	0x3d94a6c3	0.0725837
20	0x3d371e70	0.04470676
21	0xbe2d7ccd	-0.16942139
22	0x3bfb83f9	0.0076756445
23	0xbe0d6264	-0.13807064
24	0x3d83dc2e	0.0643848
25	0xbdb4aa5e	-0.088215575
26	0x3eadcc5a	0.3394497
27	0x3e125e0d	0.1429369
28	0x3ca06128	0.019577578
29	0x3ed0e4e6	0.40799636
30	0x3d1ad51c	0.037800893
31	0xbe2a2ddc	-0.16619056
32	0x3d7db79a	0.061942674
33	0xbe8a5364	-0.27016747
34	0x3d9fd967	0.07805138
35	0x3e9c3f79	0.30517176
36	0xbe4d81b9	-0.20069017
37	0x3d8d4095	0.06897084
38	0xbe026e9a	-0.12737504
39	0xbeceb105	-0.4036943
40	0x3da74802	0.08168031
41	0x3e8b7cf6	0.27243775
42	0xbdbd371a	-0.092390254
43	0xbda45cff	-0.0802555
44	0x3dff1dbc	0.12456843
45	0xbe812977	-0.25226948
46	0x3dfd3c32	0.12364997
47	0x3ded706c	0.115937084
48	0xbde16f6b	-0.110075794
49	0x3e84858f	0.25883147
50	0xbdc69683	-0.096966766
51	0xbdacc0fd	-0.08435247
52	0xbdfef2d4	-0.124486595
53	0xbd951d2c	-0.07280955
54	0x3d9e2e8e	0.07723723
55	0x3ec41987	0.38300726
56	0x3d45bf17	0.04827794
57	0xbf319dcb	-0.693814
58	0xbd97a067	-0.07403641
59	0xbd500757	-0.05078825
60	0xbd4b2bf0	-0.04960245
61	0xbda40fbf	-0.08010816
62	0x3daa0f40	0.0830369
63	0xbde52f70	-0.111906886

Bi_Linear_list.0.weight f4 [64, 16]
0	0xbef16d55	-0.47153726
1	0xbf84a49e	-1.0362737
2	0xbf9852c9	-1.1900264
3	0xbebd4ca1	-0.36972526
4	0xbed83e5b	-0.42235073
5	0xbfb5fa9f	-1.4217108
6	0xbff3281f	-1.8996619
7	0x3f078967	0.52944034
8	0xc007d470	-2.1223412
9	0xbf537efa	-0.82615626
10	0xbf09ca47	-0.53824276
11	0xbfa896cf	-1.3171023
12	0xbf6aad2f	-0.9167051
13	0xbf935ea4	-1.1513257
14	0xbf35ffe9	-0.7109361
15	0xbf40763d	-0.7518042
16	0xbfdaf74d	-1.710672
17	0xbfed8bd2	-1.8558295
18	0xbfdba6fe	-1.7160337
19	0xbf90127c	-1.1255641
20	0xbfb9f169	-1.4526798
21	0xbf594cff	-0.8488311
22	0xbd7f9a66	-0.062403105
23	0xbf8e00e2	-1.109402
24	0xbfbeb4c7	-1.4898919
25	0xbf772d72	-0.9655372
26	0xbfe32624	-1.7746015
27	0xbf808784	-1.0041356
28	0x3eeabda4	0.4584781
29	0xbf3e190f	-0.74256986
30	0xbfc13b06	-1.5096138
31	0xbfdd7417	-1.7301053
32	0xc0644e50	-3.5672798
33	0xc05a7dc0	-3.4139252
34	0xbf019eb4	-0.50632787
35	0xbffadca9	-1.959859
36	0xbfef6fb8	-1.8705969
37	0xbfd9bdca	-1.7011044
38	0xbfee8bae	-1.8636377
39	0xc02cad57	-2.6980798
40	0xbf8c16d5	-1.0944468
41	0xbf478b9c	-0.779474
42	0xbfd0f594	-1.6324944
43	0xc0533acb	-3.3004634
44	0xbfed2ed2	-1.8529913
45	0xc0040344	-2.0626993
46	0xbf9e0784	-1.2346044
47	0xc025a514	-2.5882006
48	0xbf472a48	-0.7779889
49	0xc0405263	-3.0050285
50	0xc02d3240	-2.706192
51	0xbf7b9c9a	-0.9828583
52	0xc03c3699	-2.9408324
53	0xc06cc526	-3.699533
54	0xbfd36abf	-1.6516951
55	0xbfd42710	-1.6574421
56	0xc056e8b2	-3.3579526
57	0xc02a892c	-2.6646223
58	0xc005db9a	-2.0915284
59	0xc00429e0	-2.0650558
60	0xbfd8c4a2	-1.6935008
61	0xc0559470	-3.337185
62	0xc027d49c	-2.6223516
63	0xc057f7e5	-3.3745053
64	0xbf3decce	-0.7418946
65	0xc0457d72	-3.0857816
66	0xbfa0d8a4	-1.2566113
67	0xbfae9ace	-1.3640993
68	0xc009ad62	-2.1512074
69	0xc0031ec3	-2.0487525
70	0xbf7e95f4	-0.9944756
71	0xc0149acf	-2.3219488
72	0xbfb010b2	-1.3755095
73	0x3c35db2c	0.011099618
74	0xc011e0c7	-2.2793443
75	0xbfb97d31	-1.449133
76	0xbf89ccc1	-1.0765611
77	0xbf1da36c	-0.61577487
78	0xbfc528cf	-1.5403079
79	0xbf9be572	-1.2179396
80	0xbff02b45	-1.8763205
81	0xc02f2a34	-2.7369509
82	0xc014823c	-2.3204489
83	0xbfff22fd	-1.9932553
84	0xbff94b16	-1.947604
85	0xc01a8b3e	-2.4147487
86	0xc0307f06	-2.757753
87	0xbfdb76ce	-1.7145631
88	0xc04de5fc	-3.2171621
89	0xc009aa88	-2.1510334
90	0xc040e3a5	-3.0138943
91	0xc00a253e	-2.158523
92	0xc02078c5	-2.5073712
93	0xc01c2c71	-2.4402125
94	0xc0275a74	-2.6148958
95	0xc03d529b	-2.9581668
96	0xbe97346e	-0.29532188
97	0xbf6e8c1a	-0.9318253
98	0xbf565eae	-0.8373822
99	0xbeed225d	-0.4631528
100	0xbf16bba4	-0.58880067
101	0xbfa064eb	-1.2530798
102	0xbf2a9d4b	-0.6664626
103	0x3d9337d9	0.071883865
104	0xbf0ded80	-0.5544052
105	0xbe081bfe	-0.13291928
106	0xbf0f4645	-0.559666
107	0xbfa9e9f8	-1.3274527
108	0xbed38046	-0.41308802
109	0xbecb2fa7	-0.39684793
110	0xbf098251	-0.5371447
111	0xbfc4ed7a	-1.5384972
112	0xbd060202	-0.03271676
113	0xbf387c39	-0.7206455
114	0xbf558028	-0.83398676
115	0xbebd0bab	-0.36922964
116	0xbf0ed31d	-0.55790883
117	0xbfa5452b	-1.2911733
118	0xbec3f898	-0.382756
119	0x3e0955fe	0.1341171
120	0xbf7794b4	-0.9671128
121	0xbf71b5d5	-0.9441808
122	0xbf95f48b	-1.1715254
123	0xbf28a8f4	-0.658828
124	0xbef8e5fa	-0.48612958
125	0xbfc44556	-1.533366
126	0xbed69b81	-0.41915515
127	0xbf90cde8	-1.1312838
128	0xbf716ea6	-0.9430946
129	0xbf96adb6	-1.1771762
130	0xbecf3967	-0.40473482
131	0xbf12e6c8	-0.57383394
132	0xbf7cff74	-0.9882729
133	0x3e3f8076	0.18701348
134	0xbf6b1458	-0.9182792
135	0xbf378bf3	-0.7169792
136	0xbef1805b	-0.4716824
137	0xbed6761a	-0.4188698
138	0xbf45b53f	-0.77229685
139	0xbeb7cf46	-0.35900325
140	0xbf780e55	-0.9689687
141	0xbeb06c51	-0.3445764
142	0xbf4270bf	-0.75953287
143	0xbd573806	-0.052543662
144	0x3d5cea32	0.053934284
145	0xbf6fba30	-0.93643475
146	0xbf92b20e	-1.1460588
147	0xbfa088f1	-1.2541791
148	0xbf9c6571	-1.2218457
149	0xbf6d4b1e	-0.92692745
150	0x3d75249b	0.059849363
151	0xbf0e7843	-0.55652255
152	0xbfc8c491	-1.5684987
153	0xbf90dfcf	-1.1318301
154	0xbfa084e7	-1.2540559
155	0xbf79cb8b	-0.97576207
156	0xbea1fef0	-0.31639814
157	0xbf1adb44	-0.6049082
158	0xbf9af9c6	-1.2107475
159	0xbf9fedeb	-1.2494482
160	0xbf7bb4c3	-0.98322695
161	0xbf49c3ff	-0.7881469
162	0x3dfc0997	0.123065166
163	0xbfb846d8	-1.439662
164	0xbfb25749	-1.3932887
165	0xbf9e1d4a	-1.2352688
166	0xbdaf2a3a	-0.08552976
167	0xbea9be43	-0.3315297
168	0xbf08195d	-0.531637
169	0x3f30ea14	0.69107175
170	0xbd85fd39	-0.06542439
171	0xbffc981c	-1.973392
172	0x3ea33034	0.31872714
173	0xbed25cd6	-0.41086453
174	0xbf290ff2	-0.66039956
175	0xc014c814	-2.3247118
176	0xbf93f66d	-1.1559578
177	0xbfa756d9	-1.3073379
178	0xbf303cac	-0.6884258
179	0xbf27ccb1	-0.6554671
180	0xbf8fd533	-1.1236938
181	0x3d7cb010	0.061691344
182	0xbf9f58e3	-1.2449001
183	0xbf952829	-1.1652881
184	0xbf5511e2	-0.8323041
185	0xbf6d7471	-0.927558
186	0xbfa4762c	-1.2848563
187	0xbf725ec1	-0.94675833
188	0xbfad16c3	-1.3522571
189	0xbeb2fac4	-0.34956944
190	0xbf5c9329	-0.8616205
191	0xbe3051d0	-0.17218709
192	0x3dab252f	0.083567016
193	0xbeafa79e	-0.3430757
194	0xbe23fb85	-0.16013916
195	0xbeb28404	-0.34866345
196	0xbe7da4c5	-0.24769886
197	0xc00079ba	-2.0074296
198	0xbe8e7264	-0.27821648
199	0x3debdae0	0.115163565
200	0xbfcc8930	-1.5979366
201	0xbe321656	-0.17391333
202	0xbf6108ac	-0.8790386
203	0xbfaf92c0	-1.371666
204	0x3ec36945	0.38166252
205	0xc00861ce	-2.1309695
206	0xbef9dde9	-0.48802117
207	0xc03562e0	-2.8341599
208	0xbdbc2088	-0.09185892
209	0x3d53c8e6	0.051705264
210	0xbf1665d2	-0.58749115
211	0x3e5eae7e	0.21746251
212	0x3f0d24db	0.5513436
213	0xbeb4d971	-0.35322145
214	0xbea14936	-0.31501168
215	0xbe0b707e	-0.13617131
216	0xbde5ba9a	-0.11217232
217	0xbd98a6ae	-0.074536666
218	0xbf50fef6	-0.8163904
219	0x3e06de41	0.1317072
220	0xbf0ae048	-0.54248476
221	0x3e1ae367	0.1512581
222	0x3d939ccd	0.07207642
223	0xbdd45ecc	-0.103696436
224	0xbd1f8e93	-0.03895433
225	0xbef0168f	-0.4689221
226	0xbe237fe8	-0.15966761
227	0xbf29f202	-0.663849
228	0xbede041c	-0.4336251
229	0xc002b9ff	-2.0426023
230	0xbed0b067	-0.40759584
231	0xbd5fdca5	-0.054653782
232	0xbfcd0482	-1.6017001
233	0xbf0582b5	-0.5215257
234	0xbf27cd2a	-0.6554743
235	0xbfb913a5	-1.445912
236	0xbc710989	-0.014711746
237	0xc014eccf	-2.3269536
238	0xbeaadb5c	-0.33370483
239	0xc0543da7	-3.316263
240	0x3f4a0a39	0.7892185
241	0x3e8b4435	0.27200475
242	0xbfc89a56	-1.56721
243	0x3ed4ea8e	0.415852
244	0x3ee5f34f	0.44912192
245	0xbeb2d9d1	-0.34931806
246	0xc0060c17	-2.094488
247	0xbe986ae1	-0.29769042
248	0xbf57092e	-0.8399838
249	0xbfa8a8d0	-1.3176517
250	0xbfddab7e	-1.731796
251	0x3f4ab5fe	0.7918395
252	0xbfd9bc94	-1.7010674
253	0xbef9fa57	-0.48823807
254	0x3eac449d	0.33646098
255	0x3ebf92e3	0.37416753

Bi_Linear_list.0.bias f4 [64]
0	0xbf01d971	-0.50722414
1	0xbf98dbd8	-1.1942091
2	0xbf40c996	-0.75307596
3	0xbfdc4f06	-1.7211616
4	0xbfbf7cef	-1.4960002
5	0xbfc4f620	-1.5387611
6	0xbd682f4e	-0.05668574
7	0xbe242668	-0.16030276
8	0x3d41a102	0.04727269
9	0xbf71a855	-0.9439748
10	0xbdf0fba7	-0.11766749
11	0x3da69b78	0.08135122
12	0x3cd025ca	0.025408644
13	0xbd6c69a8	-0.05771795
14	0x3c19b8b9	0.00938242
15	0xbf9d0587	-1.2267312
16	0xbf4afd08	-0.79292345
17	0xc00c659b	-2.1937015
18	0x3d8c4b07	0.06850248
19	0xbdc52378	-0.09625906
20	0xbf835cd3	-1.0262703
21	0xbf9cea66	-1.2259033
22	0xbd040c6a	-0.0322384
23	0xbe541b68	-0.2071358
24	0xbdab1997	-0.0835449
25	0xc014cbf9	-2.3249495
26	0xbdd45f8c	-0.103697866
27	0xbf1114d2	-0.56672394
28	0xbe4d70b1	-0.2006252
29	0xbfffe79f	-1.999256
30	0xbc6ac0c3	-0.014328185
31	0xbf927e56	-1.1444805
32	0xbd61eb47	-0.05515602
33	0xbdb8404d	-0.089966394
34	0xbfc3d65c	-1.5299792
35	0xbfa62c53	-1.2982277
36	0xbd81b97b	-0.06334206
37	0xbf73d091	-0.9524012
38	0xc00a9607	-2.165407
39	0xbf6d3d45	-0.92671615
40	0x3d1667cd	0.036720086
41	0xbf69d4f6	-0.9134058
42	0xbf959a06	-1.1687629
43	0xc0173eef	-2.3632162
44	0xbe004605	-0.1252671
45	0xbc40fe6a	-0.011779407
46	0xbfb9c683	-1.4513706
47	0xbc2dd06e	-0.010608776
48	0xbcf9c262	-0.030488197
49	0xc02b9a3a	-2.6812882
50	0x3d187719	0.037222955
51	0xbfbe725c	-1.487865
52	0xbffdeb14	-1.9837365
53	0xbc6dd1bf	-0.014515339
54	0x3c34e96c	0.01104198
55	0x3c0416af	0.008062049
56	0xbef9b69d	-0.48772135
57	0xbd82d6ab	-0.06388601
58	0x3d083844	0.033256784
59	0xbff09bfd	-1.8797604
60	0xbf7a38db	-0.97743005
61	0xbeae2724	-0.34014237
62	0xbd865eb1	-0.0656103
63	0xbf78c231	-0.9717131

Bi_Linear_list.1.weight f4 [64, 64]
0	0x3f0096b1	0.50229937
1	0x3e14fa40	0.14548588
2	0xbcf57556	-0.029963177
3	0xbcc904de	-0.024538454
4	0x3e670263	0.22559504
5	0x3ec345e7	0.3813927
6	0xbe44ed1b	-0.19231074
7	0xbe185658	-0.14876688
8	0xbe74d907	-0.23910914
9	0x3da77761	0.081770666
10	0xbe5b98a4	-0.21444947
11	0xbe12d2ad	-0.14338179
12	0xbe7d6643	-0.24746041
13	0x3d1450b7	0.03620979
14	0xbd8c1b05	-0.06841091
15	0x3dd2911e	0.10281585
16	0xbe44ea83	-0.19230084
17	0xbe52d3cd	-0.20588608
18	0xbea557fc	-0.3229369
19	0x3c1e1c7a	0.009650344
20	0x3ca41d22	0.020033423
21	0xbe943322	-0.2894526
22	0xbcea2d83	-0.028586155
23	0xbdd77116	-0.10519616
24	0xbe0adcd7	-0.13560806
25	0xbe1611cc	-0.14655226
26	0x3e8ee7cf	0.2791123
27	0xbea0ed9f	-0.3143129
28	0x3e7f0a0d	0.24906178
29	0xbe132bca	-0.14372173
30	0xbe2bf954	-0.1679433
31	0xbccee066	-0.025253486
32	0x3ddbc4dc	0.10730907
33	0x3dbe3f3e	0.09289406
34	0xbe9d30d0	-0.30701303
35	0xbc20d06d	-0.009815318
36	0xbe04caa5	-0.12967928
37	0x3d84063c	0.064465016
38	0xbb75991c	-0.0037475294
39	0xbc06b492	-0.008221762
40	0xbe2a99d8	-0.16660249
41	0x3f12259f	0.57088655
42	0x3d3ba7c2	0.045814283
43	0xbbbe3fca	-0.005805944
44	0x3e1018db	0.14071982
45	0xbd47aa03	-0.04874612
46	0x3d9190d0	0.07107699
47	0x3e6507a4	0.22366196
48	0x3b8d00c9	0.004303072
49	0xbe383fc4	-0.17993075
50	0xbe4d6abe	-0.2006025
51	0xbda11cd5	-0.078668274
52	0xbd7b9f52	-0.061431237
53	0xbdba6c3c	-0.09102675
54	0xbc7bb956	-0.015364012
55	0xbe1ad1e4	-0.1511913
56	0xbe12658f	-0.14296554
57	0x3db43187	0.08798509
58	0xbe6865a6	-0.22695026
59	0x3e1327a8	0.14370596
60	0x3e87be88	0.2651255
61	0xbd8157f3	-0.06315603
62	0xbe239972	-0.15976503
63	0xbda32ff3	-0.0796813
64	0x3f40fe44	0.7538798
65	0x3ccc2903	0.0249219
66	0x3d52bf42	0.05145193
67	0xbe267ec1	-0.1625929
68	0x3cabb2a0	0.020959198
69	0x3ea9cfba	0.33166295
70	0xbe5496ba	-0.20760623
71	0x3d7e18d9	0.062035415
72	0xbd95f3b5	-0.07321874
73	0x3e896635	0.2683579
74	0xbdf810c7	-0.12112575
75	0xbdd8c5a9	-0.10584576
76	0xbe4a4599	-0.19753112
77	0x3dabf91a	0.08397122
78	0xbea1b883	-0.31586084
79	0x3e754c64	0.23954922
80	0xbd7321dc	-0.059358463
81	0xbdad317b	-0.08456703
82	0xbd10a6ba	-0.035315253
83	0x3e815b29	0.25264862
84	0x3e477cae	0.19481155
85	0xbdd9123f	-0.10599183
86	0xbe973b43	-0.295374
87	0xbe93e07e	-0.2888221
88	0x3e1cd8d9	0.15317096
89	0xbe92d7e3	-0.28680333
90	0xbd84dffa	-0.06488033
91	0xbc820b7c	-0.015874617
92	0x3e84d655	0.25944772
93	0xbe8faede	-0.280631
94	0xbea1abcc	-0.31576383
95	0xbc888e65	-0.016669462
96	0x3d878c33	0.06618538
97	0x3daccb1b	0.08437177
98	0xbeb07d5a	-0.34470636
99	0x3c3e01dd	0.011597124
100	0x3e1e4026	0.15454158
101	0xbd481fe3	-0.048858535
102	0xbe646209	-0.22303022
103	0x3e3ea113	0.18616132
104	0xbe36839c	-0.17823642
105	0x3ee44c72	0.44589573
106	0x3e11f9c7	0.14255439
107	0xbe2d3551	-0.1691487
108	0x3cb0473b	0.02151834
109	0xbd86e49e	-0.06586574
110	0x3e30d0db	0.17267172
111	0xbe6d7818	-0.23190343
112	0xbe2ce18b	-0.16882913
113	0xbe99b7f6	-0.30023164
114	0xbe319fad	-0.17346068
115	0xbdb6df38	-0.08929294
116	0xbebea7e9	-0.3723748
117	0xbde71904	-0.11284068
118	0xbe010268	-0.12598574
119	0x3c1d5f7b	0.009605284
120	0xbefc462f	-0.49272296
121	0x3e548742	0.20754722
122	0xbeeea463	-0.46609792
123	0x3c3b1a34	0.0114198215
124	0x3eb83367	0.35976717
125	0xbc76c8b9	-0.015062504
126	0xbe2c1a3d	-0.16806884
127	0xbdf66932	-0.12031783
128	0xbe4246e9	-0.18972363
129	0x3eb7696b	0.35822615
130	0x3e8e5403	0.2779847
131	0xbe85ef05	-0.2615892
132	0x3d9227e7	0.07136517
133	0x3ec5a3c7	0.38601515
134	0xbdde5b27	-0.1085723
135	0x3da8b805	0.08238224
136	0xbe12f8e3	-0.14352755
137	0x3e0e08ce	0.13870546
138	0xbdcd5c68	-0.10027391
139	0xbde65056	-0.112457916
140	0xbe62c756	-0.22146353
141	0x3dc293b6	0.0950083
142	0xbdd06e7a	-0.10177322
143	0x3e208886	0.1567708
144	0xbcc98aa2	-0.024602238
145	0xbe96dcdd	-0.2946538
146	0xbefd1f7b	-0.4943808
147	0xbd37baa0	-0.044855714
148	0x3e2861cd	0.16443558
149	0xbc8dc1f7	-0.017304404
150	0xbd7c250d	-0.061558772
151	0xbdad7117	-0.08468836
152	0xbe400f6e	-0.18755886
153	0xbe823002	-0.25427252
154	0xbe3bdc5e	-0.18345782
155	0xbdb98840	-0.09059191
156	0x3da1d933	0.079027556
157	0xbe7733d5	-0.24140866
158	0xbe453fc1	-0.19262601
159	0x3d04611d	0.032319177
160	0x3ca88825	0.020572731
161	0xbd6e7d70	-0.058225095
162	0xbf1a294b	-0.6021926
163	0x3e4520a8	0.19250739
164	0x3df52bed	0.11971269
165	0xbba192aa	-0.004930814
166	0xbe3e48af	-0.18582414
167	0xbc9bdfd7	-0.019027634
168	0xbd97319a	-0.073825076
169	0xbe389b09	-0.18027891
170	0x3e8d83e2	0.2763968
171	0x3c669d6e	0.01407562
172	0x3eab879b	0.33501896
173	0xbe4a9923	-0.1978498
174	0xbde529a2	-0.111895815
175	0xbe064c70	-0.13115096
176	0xbc1c2553	-0.009530383
177	0xbe096148	-0.13416016
178	0xbe947478	-0.2899511
179	0xbe3e6f9b	-0.18597262
180	0x3e002562	0.1251426
181	0xbe87803b	-0.2646502
182	0xbdafab75	-0.08577625
183	0xbe608e26	-0.21929225
184	0x3d847850	0.0646826
185	0x3dad5da1	0.08465124
186	0xbe860941	-0.26178935
187	0xbe28d2eb	-0.16486709
188	0x3ed120c1	0.40845302
189	0x3eace1b1	0.3376594
190	0xbe67b83a	-0.2262887
191	0x3daf3239	0.08554501
192	0xbe20f0f1	-0.15716912
193	0x3d67fe6f	0.05663913
194	0xbcad17aa	-0.021129448
195	0x3d2e9cea	0.042630114
196	0xbe0f598f	-0.13999008
197	0xbe894ad0	-0.2681489
198	0xbe5b96d3	-0.21444254
199	0xbdd69eda	-0.10479517
200	0xbe223cdb	-0.15843527
201	0x3eed87bf	0.4639263
202	0xbea7d33e	-0.32778352
203	0xbdd46d4e	-0.10372411
204	0xbe9c447b	-0.30520996
205	0x3cde355d	0.027125055
206	0xbed45fd6	-0.41479367
207	0xbe4d0aa4	-0.2002359
208	0xbd1117d5	-0.03542312
209	0xbe84b4e8	-0.2591927
210	0xbe83505e	-0.25647253
211	0x3df365ec	0.118846744
212	0xbdb484f2	-0.0881442
213	0x3ca39c80	0.019972086
214	0x3cd77255	0.026299635
215	0xbe074fa7	-0.13213979
216	0xbdb06376	-0.08612721
217	0xbe8dc6b6	-0.27690667
218	0xbdf36f8c	-0.1188651
219	0xbe47ddea	-0.19518247
220	0x3eed7ff9	0.46386698
221	0xbe44b9ff	-0.19211577
222	0xbeaa2ced	-0.332374
223	0xbce99733	-0.02851448
224	0xbe3d49ba	-0.18485156
225	0xbe35d01b	-0.17755167
226	0xbf5fa6e8	-0.87364054
227	0xbe4fbdf8	-0.20287311
228	0x3e79c506	0.24391565
229	0xbdc05b58	-0.093924224
230	0x3cb1639c	0.021653943
231	0xbdf745af	-0.12073838
232	0xbe4df5c7	-0.20113288
233	0x3d8adf26	0.067808434
234	0xbd129eae	-0.03579586
235	0x3e4d0562	0.20021585
236	0xbe6cc5d8	-0.23122346
237	0xbe26d776	-0.1629313
238	0xbeaf5bd6	-0.34249753
239	0xbe85e81a	-0.26153642
240	0x3da24916	0.07924096
241	0x3d8e0325	0.069341935
242	0xbe068ea2	-0.13140348
243	0xbeaa681e	-0.3328256
244	0xbe632076	-0.22180352
245	0xbd9aa210	-0.07550442
246	0xbeba6e1b	-0.3641213
247	0xbe56df94	-0.20983726
248	0x3f5b61f5	0.85696346
249	0xbd1f2355	-0.038852055
250	0xbddd7d04	-0.108148605
251	0xbe993fbb	-0.29931435
252	0x3c8f1cc9	0.01746978
253	0xbd75f34f	-0.06004649
254	0xbe83f9a0	-0.25776386
255	0xbeadc652	-0.3394037

Bi_Linear_list.1.bias f4 [64]
0	0xbdc284bf	-0.094979756
1	0x3d06b55a	0.032887794
2	0xbe345628	-0.17610991
3	0x3d956ae5	0.07295779
4	0xbd16bc55	-0.0368007
5	0xbe4f8c2b	-0.20268314
6	0xbd9a02f6	-0.07520096
7	0x3e11e3e3	0.14247088
8	0xbda7db75	-0.08196155
9	0xbdac1e81	-0.08404256
10	0xbd3d8747	-0.04627159
11	0x3e1844fb	0.14870064
12	0xbe823177	-0.25428364
13	0x3e4c54f1	0.19954278
14	0x3e10d5e7	0.14144097
15	0x3eb926b3	0.36162338
16	0x3e6de703	0.23232655
17	0xbe354435	-0.177018
18	0xbdf02207	-0.1172524
19	0x3e34df6f	0.17663358
20	0x3e0e62d4	0.13904887
21	0xbda82748	-0.08210617
22	0xbe020d72	-0.12700441
23	0xbe2fb525	-0.17158945
24	0x3ea5491c	0.3228234
25	0xbd67060e	-0.05640226
26	0x3e2684c5	0.16261585
27	0x3ed722b1	0.42018655
28	0xbe71de78	-0.23620021
29	0x3d894222	0.06702067
30	0xbdb08afb	-0.086202584
31	0x3e31824e	0.17334864
32	0x3d763220	0.060106397
33	0x3db16e63	0.08663633
34	0xbd55f2ff	-0.052233692
35	0xbdb21a7b	-0.08696457
36	0xbdc4033e	-0.09570931
37	0xbdc09049	-0.0940252
38	0xbe9be188	-0.30445504
39	0xbdfd89bc	-0.12379786
40	0x3d7d83d8	0.061893314
41	0x3ec9510c	0.39319646
42	0x3d8c3b67	0.068472676
43	0xbe7454b4	-0.23860437
44	0x3e5e3a0d	0.21701832
45	0x3ddda1de	0.10821889
46	0x3eceb80f	0.403748
47	0xbe6b8049	-0.22998156
48	0x3e45f3fb	0.19331352
49	0x3e5ea56d	0.21742792
50	0x3e013de8	0.12621272
51	0xbe2253cf	-0.15852283
52	0xbeea3bf5	-0.4574887
53	0xbdb86df3	-0.09005346
54	0xbd8e7275	-0.06955425
55	0x3e3cacf6	0.18425354
56	0xbd15c5c2	-0.03656555
57	0x3e05db07	0.13071834
58	0x3e12b0ef	0.14325307
59	0xbd8f47df	-0.0699613
60	0xbdafd2e8	-0.08585149
61	0xbe094770	-0.13406157
62	0xbeab6abe	-0.33479875
63	0xbd9dd9ff	-0.07707595

user_embedding.weight f4 [943, 16]
0	0x3e8e2e76	0.27769822
1	0x3ed95696	0.42448872
2	0x3d68285e	0.056679122
3	0xbed6c365	-0.4194595
4	0xbdac1926	-0.08403234
5	0x3ed611b6	0.41810387
6	0xbed14553	-0.40873203
7	0x3e7c3ff9	0.24633779
8	0x3e9f6b79	0.31136683
9	0x3eecfc5c	0.46286285
10	0xbe840f09	-0.2579272
11	0x3f1f7d3a	0.62300456
12	0xbee7ed25	-0.45298114
13	0x3e2a74cc	0.16646117
14	0x3afbe07e	0.0019216684
15	0x3e9fc95c	0.31208313
16	0xbe108db4	-0.14116555
17	0x3b6314cd	0.003464985
18	0x3f3b8786	0.7325367
19	0x3e2ecff6	0.17071518
20	0x3f6c688a	0.92347014
21	0x3f2d8eaf	0.6779584
22	0xbeda655a	-0.4265545
23	0x3ec9237f	0.39284894
24	0x3f3f9898	0.74842215
25	0x3f18a5c4	0.5962794
26	0xbf679e27	-0.90475696
27	0xbe5c652e	-0.21522972
28	0xbf4e8905	-0.80677825
29	0x3e2498e1	0.16073944
30	0xbf86cc3e	-1.053108
31	0x3e624ab7	0.22098814
32	0xbe765a11	-0.24057795
33	0x3e7d5ce1	0.24742462
34	0x3e739306	0.23786554
35	0xbe097a4d	-0.1342556
36	0x3ec12f1a	0.37731248
37	0x3de76276	0.11298077
38	0xbf8abed5	-1.0839487
39	0x3f4249ed	0.7589405
40	0x3f7607f7	0.96105903
41	0x3e833b76	0.25631303
42	0xbf55f980	-0.8358383
43	0x3e95b83f	0.2924213
44	0xbf384203	-0.71975726
45	0x3dab319b	0.08359071
46	0xbe8121f9	-0.25221232
47	0x3e1df084	0.1542378
48	0xbcaa6906	-0.020802032
49	0x3efe95f8	0.49723792
50	0x3f0f5617	0.5599074
51	0xbe2b3534	-0.16719514
52	0x3eb496bd	0.35271254
53	0xbd8bd177	-0.068270616
54	0xbf5d322a	-0.8640467
55	0x3d95db32	0.07317199
56	0x3f11126e	0.56668746
57	0x3f0214ba	0.50812876
58	0xbf8ce0c8	-1.1006098
59	0x3e2a2c43	0.16618447
60	0xbf4e102b	-0.8049342
61	0x3d797647	0.060903814
62	0xbe382977	-0.17984568
63	0xbdb43392	-0.08798899
64	0x3f0bf038	0.5466342
65	0xbe16c889	-0.14724936
66	0xbd3df209	-0.0463734
67	0xbed179e5	-0.4091331
68	0x3e022bc0	0.12712002
69	0xbe14a450	-0.14515805
70	0x3e23f6f0	0.16012168
71	0xbe5d4309	-0.21607603
72	0x3d289c97	0.04116496
73	0xbe7143fe	-0.23561093
74	0xbe90fb32	-0.28316647
75	0x3ec4b893	0.3842207
76	0x3b3ca3d8	0.0028784182
77	0x3d70275c	0.058631286
78	0x3ee522c1	0.44753078
79	0x3de2a935	0.1106743
80	0x3e623181	0.22089197
81	0x3ef30227	0.4746258
82	0x3e86394a	0.26215583
83	0xbdd039aa	-0.101672485
84	0xbdb38335	-0.0876526
85	0x3f06526c	0.52469516
86	0xbf3f2557	-0.7466635
87	0xbe4b75f0	-0.19869208
88	0x3d8087b0	0.0627588
89	0x3e2e8911	0.17044474
90	0x3e0819b9	0.13291062
91	0x3f6b5ba8	0.9193673
92	0xbf54ca91	-0.8312159
93	0x3d93080e	0.07179271
94	0xbe1ad0cc	-0.15118712
95	0x3e9be5b6	0.30448693
96	0x3e380385	0.17970093
97	0x3eccd5ef	0.40006968
98	0xbd84f608	-0.06492239
99	0xbe901399	-0.28139952
100	0xbe84091d	-0.25788203
101	0xbcaf2ddd	-0.021384174
102	0xbee9cbb7	-0.45663235
103	0x3d1139da	0.035455562
104	0xbdba2908	-0.09089857
105	0xbd94ea70	-0.07271278
106	0x3e467e6a	0.1938416
107	0xbd0e594c	-0.03475313
108	0xbe98ded1	-0.29857495
109	0xbda2ce95	-0.07949559
110	0x3e3e19c1	0.18564512
111	0x3df0806b	0.11743244
112	0x3f033467	0.51251835
113	0x3e2aa2c1	0.16663648
114	0x3e9cdb72	0.30636173
115	0xbf5abbef	-0.85443014
116	0x3dc3b152	0.095553055
117	0xbd419825	-0.047264237
118	0xbd52bea7	-0.05145135
119	0xbdbf6bab	-0.09346708
120	0x3f326823	0.6969015
121	0x3ee69b6d	0.45040455
122	0xbf054f52	-0.5207416
123	0x3f0759ee	0.52871597
124	0xbd142168	-0.03616467
125	0x3ebb9942	0.36640364
126	0xbeb5dda1	-0.35520652
127	0x3d8f6878	0.07002348
128	0x3eda1fd8	0.4260242
129	0x3f41ae2a	0.7565638
130	0x3d0e00fe	0.034668915
131	0x3e8b6e69	0.27232674
132	0x3e84b3ac	0.2591833
133	0x3eb49870	0.3527255
134	0xbf984c25	-1.1898237
135	0x3eedce9e	0.464467
136	0x3eedec86	0.46469516
137	0xbd8e8570	-0.06959045
138	0x3deacf49	0.11465318
139	0x3fb2e250	1.3975315
140	0xbf550fbc	-0.83227134
141	0x3db1fa30	0.086902976
142	0x3e24e5bd	0.16103263
143	0x3f0b925b	0.54520196
144	0x3e8d635f	0.27614877
145	0x3f0223a2	0.5083562
146	0xbdb07ba5	-0.08617333
147	0xbd97e613	-0.0741693
148	0xbea7e724	-0.32793534
149	0x3f0434b9	0.5164295
150	0xbe9c0cf0	-0.3047862
151	0x3da31f4d	0.079649545
152	0xbdf1f34d	-0.11813984
153	0x3ee5b673	0.4486576
154	0x3e8129f5	0.25227323
155	0x3e3b1ac4	0.18271929
156	0xbf090b1a	-0.53532565
157	0x3caf2bc0	0.021383166
158	0x3ef5af09	0.47985104
159	0xbe05671f	-0.13027619
160	0x3ef07e82	0.46971518
161	0x3ebb9c6d	0.3664278
162	0xbe191261	-0.14948417
163	0xbe920105	-0.28516403
164	0xbd501b6b	-0.050807398
165	0x3def7021	0.11691309
166	0xbebe8cd9	-0.37216833
167	0xbe14ab52	-0.14518479
168	0xbdce9009	-0.10086066
169	0x3e5e5f07	0.21715938
170	0xbecd33ed	-0.4007868
171	0x3edb81ed	0.42872563
172	0xbea8ce13	-0.32969722
173	0x3d30b9d8	0.043145984
174	0x3e5cdbe2	0.21568254
175	0x3ed5c9bf	0.41755483
176	0x3c71c95a	0.014757479
177	0xbdb79f60	-0.08965945
178	0x3e9c9123	0.3057948
179	0x3e4c674b	0.19961278
180	0x3d1eea61	0.03879774
181	0x3f478e16	0.7795118
182	0xbe733ff3	-0.23754863
183	0xbf0009e7	-0.5001511
184	0x3e4718b0	0.19443011
185	0x3efd329f	0.49452683
186	0xbd2633fc	-0.04057692
187	0x3eafcc62	0.3433562
188	0xbf6c1532	-0.9221984
189	0x3ed12b74	0.40853465
190	0xbc938670	-0.01800844
191	0x3eeaf2b6	0.458883
192	0x3edafdd8	0.42771792
193	0xbd0a83aa	-0.03381697
194	0x3dce3cd7	0.10070198
195	0xbe2adcdb	-0.16685812
196	0x3cd0dca0	0.025495827
197	0xbe3fc1a8	-0.18726218
198	0xbebc7c93	-0.36813793
199	0x3dc26e6e	0.09493719
200	0x3e05dde3	0.13072924
201	0x3e214c98	0.15751874
202	0x3e7f9a71	0.24961258
203	0x3efecafa	0.49764234
204	0xbf78816e	-0.97072494
205	0x3d4b2f23	0.0496055
206	0x3e5c6418	0.21522558
207	0xbe809ac4	-0.25118077
208	0xbe65882f	-0.22415231
209	0x3d3f51fc	0.046709046
210	0x3e1ec6fd	0.15505596
211	0xbe5f8037	-0.21826254
212	0xbe0fc06b	-0.14038245
213	0x3f562dab	0.83663434
214	0xbed92095	-0.4240767
215	0x3df673a9	0.12033779
216	0x3ebbc168	0.36670995
217	0x3e9499f0	0.29023695
218	0xbe71e960	-0.23624182
219	0x3e546325	0.20740946
220	0xbcebc970	-0.028782576
221	0x3f1981cd	0.59963685
222	0xbeae452a	-0.34037143
223	0x3ebe301d	0.37146083
224	0xbe241d9f	-0.16026925
225	0xbf067621	-0.52524
226	0x3eea085f	0.45709512
227	0x3c12ab98	0.008952044
228	0x3ed1a661	0.4094725
229	0x3f360930	0.7110777
230	0xbd9a703e	-0.0754094
231	0xbe52624c	-0.2054531
232	0x3ee480a6	0.446294
233	0x3f5dcdec	0.86642337
234	0xbf045324	-0.5168936
235	0xbe03d28d	-0.12873287
236	0xbf1e0db9	-0.6173969
237	0x3f41b2b6	0.75663316
238	0xbeee87d3	-0.46588
239	0x3d8327c2	0.064040676
240	0x3efb4d48	0.49082398
241	0x3ea3c8d6	0.31989163
242	0x3ecb5959	0.39716604
243	0xbe4ed4b0	-0.20198321
244	0xbd59b42a	-0.053150333
245	0x3e4a8619	0.19777717
246	0xbe968b34	-0.2940308
247	0x3b999542	0.0046869824
248	0xbd04a14c	-0.032380387
249	0xbdadd244	-0.084873706
250	0xbd56c301	-0.052432064
251	0x3f718e5f	0.94357866
252	0xbe6445bb	-0.22292225
253	0xbd057f7c	-0.03259228
254	0x3de06fe8	0.109588444
255	0x3f014fac	0.50512195

item_embedding.weight f4 [1682, 16]
0	0x3f173b3f	0.5907478
1	0xbd9fc991	-0.078021176
2	0x3f2164b2	0.63044274
3	0xbf12858d	-0.5723503
4	0x3d977634	0.07395592
5	0x3fb0161d	1.3756748
6	0xbf70531d	-0.9387682
7	0xbf37d476	-0.71808565
8	0x3f64a0e8	0.89308023
9	0x3f678ecc	0.90452266
10	0xbf07943b	-0.52960557
11	0x3f2d1b04	0.6761935
12	0xbef1c374	-0.4721943
13	0x3f95ecd9	1.1712905
14	0xbe8e5e67	-0.27806398
15	0x3fa27844	1.2692952
16	0x3f0fd180	0.56179047
17	0xbe7ee74f	-0.24892925
18	0xbebc9c36	-0.3683793
19	0xbf147362	-0.5798856
20	0xbeb78719	-0.3584526
21	0xbd1be280	-0.038057804
22	0x3e9d03f8	0.3066709
23	0xbf010287	-0.5039448
24	0x3d522000	0.05130005
25	0xbcc8c68d	-0.024508739
26	0x3eb8d72c	0.36101663
27	0x3e53944e	0.20662042
28	0x3df4f6d4	0.11961141
29	0x3cc40d16	0.023932021
30	0x3e1f4f9a	0.1555771
31	0x3e0f8575	0.14015754
32	0x3df42d03	0.11922648
33	0xbf295049	-0.6613813
34	0x3e9b651c	0.30350578
35	0xbf0a47cd	-0.5401581
36	0xbdef9108	-0.116975844
37	0x3e47348f	0.19453643
38	0x3ee0a6b2	0.43877178
39	0xbe54f2ec	-0.20795792
40	0x3e32192e	0.17392418
41	0x3e677f7a	0.22607222
42	0xbeb0f977	-0.34565327
43	0x3e9270bb	0.28601632
44	0xbdf2bc1e	-0.11852287
45	0x3ee7e290	0.4529004
46	0xbe2a3865	-0.16623075
47	0x3e95920f	0.29212996
48	0x3eeafaef	0.45894572
49	0x3e8a37ac	0.269956
50	0xbdb42c68	-0.08797532
51	0xbe9cc2ac	-0.30617273
52	0xbedc9b97	-0.43087456
53	0x3eddc6b1	0.43315652
54	0xbece1e60	-0.4025755
55	0xbef4f4cc	-0.47843015
56	0x3db149f9	0.08656687
57	0x3f2e8fe8	0.68188334
58	0x3d89fee1	0.067380674
59	0x3ef7bcc3	0.483862
60	0xbebe3bf2	-0.3715511
61	0x3e771d76	0.24132332
62	0x3e1fc03e	0.15600678
63	0x3ebe5f5f	0.37182137
64	0x3ebeb492	0.3724714
65	0x3d5c0173	0.05371232
66	0xbea105c6	-0.31449717
67	0xbf0488bd	-0.51771146
68	0xbd1bde48	-0.03805378
69	0xbdb8d0d6	-0.09024207
70	0x3e0f5644	0.13997751
71	0xbdef1714	-0.11674324
72	0x3d5d843f	0.054081198
73	0xbe3a7584	-0.18208891
74	0xbf0f946d	-0.56085855
75	0x3e70f619	0.23531379
76	0xbeafa93d	-0.34308806
77	0xbd8c713a	-0.06857534
78	0x3ed5c161	0.417491
79	0xbd7347cf	-0.059394654
80	0xbe24a742	-0.16079429
81	0xbcc9df7a	-0.024642695
82	0x3e1d55e8	0.15364802
83	0x3e9729aa	0.29523975
84	0xbe71b9e3	-0.23606066
85	0x3d575258	0.052568763
86	0xbd77903d	-0.06044029
87	0x3f13e844	0.57776284
88	0x3e951b49	0.2912238
89	0xbe77cb10	-0.24198556
90	0x3e02dff5	0.12780745
91	0x3e5f1b34	0.21787721
92	0x3d8d4836	0.06898539
93	0xbe653058	-0.22381723
94	0x3d162a39	0.03666136
95	0xbd8636cf	-0.06553423
96	0x3f2f8468	0.6856141
97	0xbecc17cf	-0.39861915
98	0x3e936cc3	0.28793916
99	0xbf586a72	-0.8453742
100	0x3d99e510	0.07514393
101	0x3f512089	0.8169027
102	0xbf19b89a	-0.60047305
103	0xbe27d8e3	-0.1639133
104	0x3f319a40	0.6937599
105	0x3eecce0e	0.46250957
106	0xbf6948a8	-0.9112649
107	0x3f44c5cc	0.76864314
108	0xbfa66e17	-1.3002347
109	0x3f3f6c48	0.747746
110	0xbd9334c0	-0.07187796
111	0x3f824647	1.0177697
112	0x3f19623c	0.5991552
113	0x3e9f5eee	0.31127113
114	0xbda5a410	-0.08087933
115	0xbe8f8032	-0.28027493
116	0xbe0e34de	-0.13887355
117	0x3f1dbc8c	0.61615825
118	0xbf20bc00	-0.62786865
119	0xbf2e79e5	-0.68154746
120	0x3d8994f0	0.06717861
121	0x3e70eed7	0.2352861
122	0xbe877d86	-0.26462954
123	0x3f7614fc	0.9612577
124	0xbf244493	-0.64167136
125	0x3e4c3e31	0.19945599
126	0x3dc02059	0.0938117
127	0x3f1877f1	0.59558016
128	0x3ee29958	0.44257617
129	0x3e8ce3d5	0.27517572
130	0x3f457914	0.77137876
131	0xbe9a3bd1	-0.3012376
132	0x3e705c46	0.234727
133	0x3f73ffda	0.95312274
134	0xbf1c742c	-0.61114764
135	0x3e0808fa	0.13284674
136	0x3f14b7af	0.5809278
137	0x3f45c135	0.77247936
138	0xbe61292b	-0.2198836
139	0x3f5bfc94	0.8593228
140	0xbf44ca8d	-0.7687157
141	0x3f2b9b81	0.67034155
142	0xbed0696c	-0.4070543
143	0x3f28eca1	0.6598607
144	0x3db4da91	0.08830751
145	0x3e2ffa70	0.17185378
146	0x3e888859	0.26666525
147	0x3ea895ea	0.32926875
148	0x3e822a62	0.2542296
149	0x3ed32d01	0.41245273
150	0xbea29b25	-0.3175899
151	0x3ec1f949	0.37885502
152	0x3e8112e5	0.25209728
153	0x3f0d6696	0.5523466
154	0xbe1dff40	-0.15429401
155	0xbe34741e	-0.1762242
156	0x3e9a4e26	0.30137748
157	0x3eed6aae	0.46370453
158	0xbec6c469	-0.38821724
159	0x3edc94ec	0.43082368
160	0x3f60bbcd	0.8778656
161	0x3ef55276	0.47914475
162	0xbe10abc5	-0.14128025
163	0xbf97d465	-1.1861693
164	0xbcb5651a	-0.022142936
165	0x3ea17b5e	0.31539434
166	0xbea8d083	-0.32971582
167	0xbe31eb45	-0.17374904
168	0x3ebd9a22	0.37031657
169	0x3f0fd8ff	0.56190485
170	0xbf13780f	-0.5760507
171	0x3f7b47c6	0.9815639
172	0xbe6c0610	-0.23049188
173	0x3f393879	0.72351795
174	0x3e8fa50c	0.28055608
175	0x3ec965a4	0.39335358
176	0x3dc2a7e8	0.09504682
177	0x3e259e68	0.16173708
178	0x3f16dd30	0.58931255
179	0xbf6adbe7	-0.91741794
180	0x3bfa4484	0.007637562
181	0x3f4b6037	0.7944369
182	0xbf05ba08	-0.52236986
183	0x3e4f967d	0.2027225
184	0x3ec1e30c	0.37868536
185	0x3d9f0eb8	0.07766479
186	0xbea77800	-0.3270874
187	0x3f7d6d48	0.98994875
188	0xbeaee973	-0.34162483
189	0x3dc19a52	0.094532624
190	0xbea3fceb	-0.320289
191	0x3efe5673	0.4967533
192	0xbea9344e	-0.33047718
193	0xbe2ad29d	-0.16681905
194	0x3e31fb9f	0.17381142
195	0x3e519e8c	0.20470637
196	0x3d3effd3	0.04663069
197	0x3f6034e3	0.875807
198	0xbeef6d6b	-0.46763167
199	0x3e31796e	0.17331478
200	0x3f079b77	0.52971596
201	0x3f3d2584	0.7388537
202	0x3d967af4	0.0734767
203	0xbdcdfc29	-0.10057861
204	0xbedb826c	-0.42872941
205	0x3f415adb	0.7552926
206	0xbec7a15a	-0.3899029
207	0x3ea88eed	0.32921544
208	0xbe7162f3	-0.23572902
209	0x3d95428c	0.072880834
210	0x3ec6e9c5	0.38850227
211	0x3f08db5e	0.5345973
212	0x3e20cdf1	0.1570356
213	0x3f99c25d	1.201244
214	0xbefe3426	-0.4964916
215	0x3f7393bf	0.9514732
216	0x3f4004ef	0.7500753
217	0x3efcd9cb	0.49384913
218	0xbd3775fa	-0.044790246
219	0x3ec035f3	0.3754116
220	0xbd77e7fd	-0.060523976
221	0x3f150e6c	0.5822513
222	0xbeba6a88	-0.36409402
223	0x3f6072e3	0.87675303
224	0x3e792c8c	0.243334
225	0xbe4c0c01	-0.19926454
226	0x3de1b1cf	0.110202424
227	0xbef64be5	-0.48104778
228	0x3d95376c	0.072859615
229	0x3f715e25	0.9428428
230	0xbf440b53	-0.7657978
231	0xbe846913	-0.25861415
232	0x3f40bb06	0.75285375
233	0x3f4dd0b2	0.8039657
234	0xbf020bc0	-0.5079918
235	0x3e7f73bf	0.24946497
236	0xbdc51276	-0.09622662
237	0x3f79148d	0.97296983
238	0xbed1c465	-0.4097015
239	0x3fbe5a4f	1.487131
240	0xbe350837	-0.17678915
241	0x3ec6494d	0.387278
242	0x3d551835	0.05202504
243	0x3ef0b2d5	0.47011438
244	0xbd8826d1	-0.06648029
245	0x3e78ff89	0.24316229
246	0xbeaab053	-0.3333765
247	0x3edd470e	0.43218273
248	0x3dedb73c	0.11607215
249	0x3d968d5e	0.073511824
250	0x3c50ad60	0.012736648
251	0x3d4b2cfc	0.049603447
252	0x3f0559b1	0.52089983
253	0xbe75dbf4	-0.24009687
254	0x3d105b55	0.03524335
255	0x3d4db350	0.050219834
