models/26102021_1349_mf_Movielens-100k.pt (torch, 673127 bytes, 2 tensors)

user_embedding.weight f4 [943, 64]
-0.012255131 0.034007438 0.05749475 -0.06234262 -0.048218414 -0.014005994 0.03951962 -0.03694485
0.06263075 -0.054368086 0.017640794 -0.0729708 0.004086568 0.009029154 -0.07738789 -0.049487155
0.046425506 -0.0053248224 0.0496376 -0.038614776 -0.06382797 -0.009943066 -0.02625174 0.06123487
-0.056332897 0.04065416 0.05698241 0.06339297 0.052002534 -0.06662766 0.06579134 0.013787778
-0.020830326 0.07537819 0.04491246 -0.014714159 -0.014303047 -0.015378554 -0.026859462 0.006410329
-0.07081476 0.024605824 -0.042083036 -0.06708178 -0.05145578 0.045543727 -0.048453975 -0.06318308
0.055628426 0.017062193 -0.005837666 -0.062302556 -0.0041803042 0.030331925 0.069087565 -0.034706023
0.052991267 0.0046989596 0.041274574 0.05979307 0.009868224 -0.041838683 -0.017104652 -0.048595723
-0.049205128 0.06446664 -0.061098613 -0.025622636 -0.026606634 -0.074964516 0.056660045 0.069491245
0.015013604 -0.009033044 -0.061703596 -0.051812764 0.07636327 -0.02463771 -0.07220793 -0.029605748
-0.031766683 0.055787466 0.023629108 0.06383871 -0.0707414 0.019763846 0.068902224 -0.04482159
0.06186968 -0.04751042 -0.05015378 0.05742529 -0.05106959 0.053780798 -0.00079439004 0.027624968
0.008301467 -0.062207304 0.045536555 -0.010750581 0.051050298 0.027915835 -0.019671813 0.04350902
0.06977761 -0.0666615 -0.020906072 0.056371823 -0.03666499 -0.024573522 -0.0046050227 -0.07631872
0.069885395 -0.0071325004 0.03107453 0.020872427 -0.020869076 -0.021044245 0.037915673 0.049905792
0.040641982 -0.00872755 0.01572694 0.06373995 0.051179674 -0.035417765 -0.058177426 -0.02313338
0.0068584117 -0.010147549 0.0429396 0.05232939 -0.0012979452 0.028491268 -0.07483033 0.07278404
0.027713463 0.026920514 -0.03525512 0.06413067 -0.0107682 0.057957493 -0.068186834 -0.070782796
0.06631722 0.007985423 -0.00785557 0.0028720552 -0.07518243 0.04698054 0.037549987 -0.01128338
0.0035808273 0.065850444 0.045645714 0.056401704 -0.07607305 0.05541331 -0.049810436 0.029101603
-0.051352598 -0.045391697 0.07603936 0.06629394 -0.006824192 -0.013100551 -0.0072946125 0.056286737
0.062083922 -0.011126524 -0.00879839 0.011629765 0.025386984 0.06542746 0.01157544 -0.0032946903
0.032248612 0.056686807 -0.04742476 -0.068629526 0.05646862 -0.011614468 -0.042483944 -0.06003436
0.032409936 -0.044029526 -0.01025903 0.03257656 -0.0036702724 -0.020560028 -0.047212087 0.053071454
-0.06004275 0.025318192 -0.030297127 -0.06888965 0.023541361 -0.06722654 0.0074263103 -0.07748238
-0.025621068 -0.049896706 0.060282007 -0.044577044 -0.044658624 0.03624692 0.05880843 0.037405353
0.00065952586 -0.06437926 -0.075536594 0.05800571 -0.019048072 0.049371157 -0.032241967 -0.022612523
0.04047111 0.002814202 0.041139096 0.05720043 0.07227846 0.07219993 0.029388301 -0.023696454
0.052125257 -0.075849175 -0.05067487 -0.006349292 -0.049658414 0.07058744 -0.049332444 0.01459495
-0.046230424 0.008178313 0.01432807 0.0069652232 0.06909634 -0.052921105 0.080938056 -0.046962805
-0.03857001 -0.06793951 -0.0744541 -0.008275908 -0.057890557 0.06921844 -0.049887557 0.03435343
-0.060065128 -0.06691964 -0.05274658 -0.011498679 -0.06500591 -0.024001298 -0.010010076 -0.031275496
00000000: bfc9 48bc 624b 0b3d 9d7f 6b3d fa5a 7fbd
00000010: ac80 45bd 6679 65bc 53df 213d 7c53 17bd
00000020: 8d44 803d 12b1 5ebd 6d83 903c b771 95bd
00000030: 9ee8 853b 04ef 133c 8b7d 9ebd 0bb3 4abd
00000040: ac28 3e3d d97b aebb cc50 4b3d 872a 1ebd
00000050: 3db8 82bd 3ee8 22bc e40d d7bc 6ad1 7a3d
00000060: 53bd 66bd fa84 263d 6366 693d 2cd4 813d
00000070: 9c00 553d 1574 88bd 9cbd 863d 22e6 613c
00000080: 5ca4 aabc e15f 9a3d 21f6 373d a813 71bc
00000090: 5457 6abc 55f6 7bbc 6008 dcbc bd0d d23b
000000a0: 5407 91bd 2792 c93c 435f 2cbd 2c62 89bd
000000b0: 4cc3 52bd 0f8c 3a3d ad77 46bd 2166 81bd
000000c0: a2da 633d 03c6 8b3c e449 bfbb f730 7fbd
000000d0: effa 88bb a87a f83c c87d 8d3d e727 0ebd
000000e0: 5f0d 593d bbf9 993b 870f 293d 94e9 743d
000000f0: 55ae 213c 0a5f 2bbd 0e1f 8cbc 4f0c 47bd
00000100: 518b 49bd 1607 843d 8a42 7abd 90e6 d1bc
00000110: 28f6 d9bc ff86 99bd 5d14 683d 6d51 8e3d
00000120: 9ffb 753c 55ff 13bc e9bc 7cbd 9f39 54bd
00000130: 5964 9c3d 06d5 c9bc c0e1 93bd c187 f2bc
00000140: c81d 02bd 6681 643d d591 c13c dfbd 823d
00000150: dee0 90bd cae7 a13c 9c1c 8d3d d896 37bd
00000160: 106b 7d3d 499a 42bd 0d6e 4dbd c836 6b3d
00000170: 592e 51bd 4149 5c3d 9d3e 50ba c24d e23c
00000180: e002 083c 16cd 7ebd 8a84 3a3d 3423 30bc
00000190: 1e1a 513d c0af e43c c826 a1bc 8436 323d
000001a0: 90e7 8e3d d385 88bd 3643 abbc 24e6 663d
000001b0: 072e 16bd 694e c9bc bbe5 96bb fd4c 9cbd
000001c0: 1320 8f3d c0b7 e9bb 0390 fe3c a7fc aa3c
000001d0: a0f5 aabc fb64 acbc 774d 1b3d 046a 4c3d
000001e0: 3578 263d fffd 0ebc c9d5 803c 178a 823d
000001f0: c7a1 513d 3812 11bd 744b 6ebd 3782 bdbc
00000200: 87bc e03b e841 26bc 6fe1 2f3d 5857 563d
00000210: d01f aaba 8566 e93c a540 99bd cc0f 953d
00000220: 5807 e33c 6988 dc3c ac67 10bd f156 833d
00000230: 1b6d 30bc d664 6d3d 8aa5 8bbd 92f6 90bd
00000240: 53d1 873d 4bd5 023c a6b4 00bc 1739 3c3b
00000250: 3ff9 99bd ab6e 403d 04ce 193d eddd 38bc
00000260: 50ac 6a3b 99dc 863d 00f7 3a3d 7905 673d
00000270: 30cc 9bbd 11f9 623d 0706 4cbd 7c66 ee3c
00000280: 1a57 52bd a5ec 39bd 86ba 9b3d 1ec5 873d
00000290: 799d dfbb b2a3 56bc a507 efbb ec8c 663d
000002a0: b64b 7e3d 064c 36bc 1f27 10bc c58a 3e3c
000002b0: 5df8 cf3c d5fe 853d eaa6 3d3c bbeb 57bb
000002c0: 1f17 043d 6d30 683d 7740 42bd a38d 8cbd
000002d0: a44b 673d 9c4a 3ebc a503 2ebd 97e6 75bd
000002e0: 48c0 043d 4e58 34bd 7e15 28bc 006f 053d
000002f0: f488 70bb 816d a8bc 7661 41bd 7461 593d
00000300: 63ef 75bd 1968 cf3c ae31 f8bc 0416 8dbd
00000310: d0d9 c03c 11ae 89bd 6858 f33b 15af 9ebd
00000320: 46e3 d1bc 7d60 4cbd 44ea 763d 6b96 36bd
00000330: f6eb 36bd a677 143d 1ce1 703d 5b36 193d
00000340: 08e4 2c3a 46d9 83bd eeb2 9abd 6597 6d3d
00000350: b40a 9cbc 6939 4a3d 2710 04bd e63d b9bc
00000360: 09c5 253d 7a6e 383b 7881 283d 004b 6a3d
00000370: bb06 943d 8fdd 933d bcbf f03c 111f c2bc
00000380: 4b81 553d d056 9bbd 7490 4fbd b90d d0bb
00000390: 9f66 4bbd 2690 903d d110 4abd a81f 6f3c
000003a0: 1d5c 3dbd 55fe 053c 48c0 6a3c 873c e43b
000003b0: 6282 8d3d cdc3 58bd dac2 a53d 125c 40bd
000003c0: 96fb 1dbd df23 8bbd 647b 98bd ad97 07bc
000003d0: a61e 6dbd 66c2 8d3d e556 4cbd 2fb6 0c3d
000003e0: da06 76bd 2a0d 89bd cc0c 58bd f564 3cbc
000003f0: d221 85bd 5f9e c4bc 4d01 24bc bc1a 00bd

item_embedding.weight f4 [1682, 64]
0.017077813 -0.007533299 0.049442973 -0.03360118 0.033978473 -0.01588151 0.057100367 -0.0040729204
-0.038968366 0.04980853 0.03770867 -0.006992539 0.04471666 0.01046543 -0.05219854 0.007376432
-0.029762963 0.028948365 0.009189836 0.054704066 0.022125 0.03502512 -0.040751785 0.023929853
0.047156017 0.049010746 -0.01668255 -0.041597728 -0.054947894 -0.040700763 -0.039147504 0.021786192
0.020359721 -0.05660412 -0.009755143 -0.015761657 0.047846083 0.054215726 0.056914683 -0.039866075
-0.025902964 -0.032812834 -0.0029496856 -0.040909346 0.04394676 -0.005635166 0.022982955 -0.0019224446
0.028670458 0.010899097 -0.041780166 -0.012762899 0.04393915 0.02762076 0.020368978 -0.025126409
0.0018039054 0.035726283 0.038167253 0.027404254 0.055949084 -0.0076035047 0.052126173 0.026960673
-0.027697682 0.047557235 0.048162304 0.03392623 0.014316323 0.053360283 -0.009780914 -0.020227283
-0.008238376 0.04788139 0.004338529 -0.037421294 0.0032324505 0.012793002 0.0030131224 0.05639288
0.028763589 0.048525605 0.037616044 0.006175676 -0.04151726 -0.046266805 -0.03093916 0.00028019588
0.050382353 0.032827158 -0.03718637 -0.061127454 0.017453657 0.038368408 -0.018187216 -0.057708163
0.029931724 0.047286753 0.028230008 -0.029854164 -0.009801333 -0.040899884 -0.047345992 -0.046487123
-0.030322203 0.00090367463 -0.04537381 0.049869224 -0.022086127 -0.015582061 0.033331472 -0.010745843
0.024785733 -0.027259309 0.05456967 0.053575087 -0.00441258 -0.010826014 0.023683188 0.053399034
-0.058458984 -0.0016500326 -0.00053581904 -0.032562036 0.04434588 0.0018041752 0.040914 -0.05235525
0.049241614 0.016024444 -0.047757447 0.035615876 -0.023672948 -0.048922665 0.03820888 -0.019247904
0.044001605 -0.039973278 -0.028433077 -0.053953644 0.004120479 0.028765233 0.033153422 0.048045125
-0.002524408 0.055435684 -0.0007010124 -0.005281785 -0.0049435175 -0.05090695 0.008975087 0.035213932
-0.024538707 0.03335238 0.03300124 0.059982065 -0.027160058 0.048134875 -0.022629026 0.05939573
0.024570167 0.024401018 -0.05217535 0.013829288 0.0064890324 0.03221485 0.03100698 0.037901208
-0.025944239 -0.014753442 0.04886718 0.007049239 0.0024333294 0.03323859 0.026488382 0.02984457
-0.04360509 -0.020902928 0.038531348 0.026965654 0.034818515 -0.057910148 -0.048735704 -0.035705186
-0.02535799 0.019746017 0.04715761 0.035230894 -0.04377685 -0.044126485 0.05107123 -0.005902267
-0.029150415 -0.024856046 0.026979687 0.004570421 0.02629681 0.03395805 0.023654906 0.021582106
0.041100293 0.046421267 0.043549523 -0.019712243 0.017015465 0.045427863 0.051066507 0.038888987
-0.02550789 0.026346803 -0.030400328 -0.024034793 0.031996574 -0.037459992 -0.019366285 0.05080734
0.020496849 0.05596403 0.016732896 -0.028730212 0.018159596 0.010930466 -0.0032922637 -0.026410012
0.027317666 -0.031028427 -0.009861965 -0.051621947 0.0021304088 0.021669265 -0.017599665 -0.01761091
-0.024746284 -0.01754423 -0.017273443 0.020077111 -0.028775921 -0.04269729 -0.034048717 -0.0156197045
-0.012302085 -0.05701777 0.037845768 -0.032430634 0.037760757 0.021095252 -0.05673686 0.05673604
-0.018405195 0.04756271 0.028060822 0.052286923 0.027163262 0.034835514 -0.03227377 -0.03407044
00000000: c5e6 8b3c e4d9 f6bb b784 4a3d 64a1 09bd
00000010: 032d 0b3d f119 82bc 13e2 693d 2276 85bb
00000020: 4b9d 1fbd 0704 4c3d 6874 1a3d ab21 e5bb
00000030: d128 373d 3277 2b3c 23ce 55bd ffb5 f13b
00000040: 75d1 f3bc 1f25 ed3c f790 163c 5f11 603d
00000050: 7d3f b53c 8076 0f3d 58eb 26bd 8a08 c43c
00000060: ab26 413d 7ebf 483d d8a9 88bc 6162 2abd
00000070: 0b11 61bd d8b5 26bd 2259 20bd f578 b23c
00000080: 6ec9 a63c b9d9 67bd 09d4 1fbc 971e 81bc
00000090: 41fa 433d 4f11 5e3d 5f1f 693d 9c4a 23bd
000000a0: 7432 d4bc c066 06bd 834f 41bb 8f90 27bd
000000b0: 8501 343d 33a7 b8bb c046 bc3c 89fa fbba
000000c0: 4fde ea3c 2092 323c ae21 2bbd 7a1b 51bc
000000d0: 8af9 333d ef44 e23c d8dc a63c e6d5 cdbc
000000e0: 0571 ec3a b955 123d 4455 1c3d e37e e03c
000000f0: de2a 653d d226 f9bb 4182 553d a1dc dc3c
00000100: 40e6 e2bc 60cb 423d d645 453d 3bf6 0a3d
00000110: 038f 6a3c 5090 5a3d 2040 20bc b0b3 a5bc
00000120: 41fa 06bc 471f 443d 382a 8e3b 1247 19bd
00000130: 85d7 533b bd99 513c ce77 453b 38fc 663d
00000140: 9ea1 eb3c c9c2 463d 4813 1a3d 535d ca3b
00000150: 010e 2abd 4382 3dbd 1f74 fdbc 41e7 9239
00000160: ba5d 4e3d c575 063d bc50 18bd c860 7abd
00000170: f9fa 8e3c 3128 1d3d 5bfd 94bc 655f 6cbd
00000180: 6033 f53c c1af 413d 9e42 e73c b890 f4bc
00000190: c595 20bc a386 27bd dfed 41bd 4869 3ebd
000001a0: 4566 f8bc 94e4 6c3a e3d9 39bd ac43 4c3d
000001b0: f7ed b4bc e74b 7fbc 9586 083d 550f 30bc
000001c0: 730b cb3c ea4e dfbc 7284 5f3d 8d71 5b3d
000001d0: 6797 90bb 985f 31bc 3f03 c23c f2b8 5a3d
000001e0: b072 6fbd e845 d8ba 3576 0cba c55f 05bd
000001f0: 07a4 353d 137a ec3a 7095 273d 7572 56bd
00000200: 93b1 493d b245 833c 509d 43bd f4e1 113d
00000210: c5ed c1bc 2263 48bd ea80 1c3d c8ad 9dbc
00000220: 073b 343d 05bb 23bd 7cec e8bc 7ffe 5cbd
00000230: 1505 873b 11a5 eb3c e2cb 073d f7ca 443d
00000240: 8a70 25bb 8710 633d 25c4 37ba d312 adbb
00000250: 3bfd a1bb ce83 50bd 3e0c 133c 7c3c 103d
00000260: 6605 c9bc 819c 083d 4f2c 073d c1af 753d
00000270: c57e debc 1329 453d 8260 b9bc f048 733d
00000280: 6047 c93c a5e4 c73c d2b5 55bd 3d94 623c
00000290: f3a1 d43b b8f3 033d 5a02 fe3c 4c3e 1b3d
000002a0: 0389 d4bc 6cb8 71bc f428 483d 4dfd e63b
000002b0: 7e78 1f3b 3025 083d 2afe d83c 9a7c f43c
000002c0: 409b 32bd 9e3c abbc 0cd3 1d3d 13e7 dc3c
000002d0: dc9d 0e3d 3133 6dbd 179f 47bd 9a3f 12bd
000002e0: 8fbb cfbc 66c2 a13c 5728 413d 454e 103d
000002f0: 5b4f 33bd f9bd 34bd 1130 513d ce67 c1bb
00000300: dacc eebc e89e cbbc 8104 dd3c 78c3 953b
00000310: 686c d73c 9917 0b3d efc7 c13c f5cc b03c
00000320: c858 283d 3a24 3e3d fc60 323d 927b a1bc
00000330: 0464 8b3c 9112 3a3d 1d2b 513d 0f4a 1f3d
00000340: ecf5 d0bc 40d5 d73c 1c0a f9bc 9de4 c4bc
00000350: d70e 033d a66f 19bd 0ba6 9ebc 5b1b 503d
00000360: 02e9 a73c 8a3a 653d 6d13 893c 9f5b ebbc
00000370: 6fc3 943c b315 333c 05c3 57bb cf59 d8bc
00000380: 4cc9 df3c 542f febc 1494 21bc 8971 53bd
00000390: 549e 0b3b be83 b13c 2c2d 90bc c144 90bc
000003a0: b8b8 cabc ebb8 8fbc 0981 8dbc c178 a43c
000003b0: 7bbb ebbc 5be3 2ebd ab76 0bbd cae9 7fbc
000003c0: af8e 49bc 778b 69bd 2a04 1b3d fcd5 04bd
000003d0: 06ab 1a3d f3cf ac3c e964 68bd 0d64 683d
000003e0: 7ec6 96bc 1ed1 423d cfdf e53c d02a 563d
000003f0: 7d85 de3c afaf 0e3d 8031 04bd 728d 0bbd
