models/26102021_1351_ngcf_Movielens-100k.pt (torch, 775995 bytes, 14 tensors)

GC_Linear_list.0.weight f4 [64, 64]
0.11714358 -0.1070852 0.015923763 0.07853982 0.031007724 0.12557837 0.10902724 0.022987146
0.066297695 0.029147685 -0.054041084 0.10178549 -0.13599427 -0.04059277 -0.081057884 0.119628295
-0.003357327 -0.057406604 0.114179015 0.10733758 0.07030597 0.019834414 0.08847268 0.110613115
-0.06412648 -0.015165937 -0.120851494 0.12961154 0.04980135 0.09547767 -0.09186035 0.11643339
-0.112681486 -0.103951745 -0.09816294 0.043333873 -0.13236493 -0.029754115 0.119755976 0.08708828
0.1328438 0.0054019974 -0.030677455 -0.034358982 -0.052385427 0.034977324 0.058277622 0.074655734
-0.11371733 -0.1362905 -0.033991627 -0.0026161738 -0.0836568 0.12052863 -0.110257104 -0.08659936
0.079798475 -0.11251491 -0.0875476 -0.13036802 -0.06135894 -0.06592685 -0.00407118 0.0201878
0.003109347 0.020836499 -0.050436802 0.047496404 0.056479573 0.06866628 0.08545135 0.07367021
-0.0692605 -0.0077753677 -0.012712523 -0.1215978 0.04463342 -0.08563777 0.06314571 0.09355984
-0.030374218 -0.049383815 -0.03756623 0.11313617 -0.025377244 0.0871826 0.051077023 0.022647662
0.07522448 0.11557646 0.0050029363 -0.04853726 0.04536201 0.12350649 -0.0500537 0.12441864
-0.091820076 -0.027852172 0.07412556 0.12594375 -0.0043579335 -0.034999456 -0.04095407 -0.035224132
-0.015502362 0.00992531 -0.11321519 0.007630281 0.034914125 -0.123594396 -0.06363048 0.045527175
0.05353516 0.07209405 0.0664151 -0.09385783 -0.084148005 0.09054017 -0.031240989 -0.002441487
-0.015371412 0.088399395 -0.06138947 0.05022285 -0.017899757 0.04694297 -0.106424555 0.09337415
0.065420575 -0.054219924 -0.028583268 -0.08540953 -0.08255222 0.058223654 0.08054223 -0.106593154
0.06290411 -0.033761527 0.10173877 0.06966204 -0.036143713 0.084472544 -0.046391796 -0.10017543
-0.07495773 -0.016120614 0.058285296 0.09732647 -0.07769448 0.050266348 -0.105089426 -0.0052007595
0.092502676 0.1045538 0.009032771 0.023973 -0.07288154 0.07838473 0.10662305 -0.11487589
-0.05181219 -0.038957085 0.032886755 -0.07643497 0.09244338 -0.055233415 0.06046348 0.07077054
0.017579485 -0.003349388 -0.011405621 -0.057593934 0.053436466 0.02339021 0.10616433 -0.038417205
0.09053778 0.07771309 0.049328398 -0.06518033 0.081862904 0.105610386 -0.038287204 -0.061364163
0.07322602 -0.0038161534 -0.025046254 0.11453938 0.04266608 -0.026341785 0.07088279 0.10088193
0.048788987 -0.077373646 0.015540088 0.07862749 0.032894142 -0.095766015 0.085397564 -0.11385756
0.017703922 -0.012957554 -0.06670918 0.08906034 -0.11639539 0.10943165 0.029923622 -0.0028753655
-0.08075896 -0.07802407 0.005039064 -0.0066705043 0.11559041 0.063280076 0.065613106 -0.11065933
0.03274163 0.116838045 0.0282468 0.032795236 -0.08417098 0.056363884 -0.092263155 0.094637714
0.010344833 0.012569788 0.107029684 0.08361064 -0.062239997 -0.111376725 0.05058357 0.122717306
-0.118983 -0.07370929 -0.052246105 -0.04182782 0.040603302 0.037494883 -0.047236312 -0.06755145
0.117327474 -0.10772076 -0.0051673814 0.039442897 -0.053853065 0.050565347 -0.087310396 0.017582508
0.00807382 0.03877982 0.12506771 0.028142631 0.013159332 -0.019359782 -0.04787047 -0.06361894
00000000: f9e8 ef3d 7c4f dbbd 8d72 823c 7cd9 a03d
00000010: e903 fe3c 9e97 003e ac49 df3d 8a4f bc3c
00000020: 16c7 873d 20c7 ee3c 2f5a 5dbd e974 d03d
00000030: 1542 0bbe 9b44 26bd ad01 a6bd aeff f43d
00000040: 9a06 5cbb 3023 6bbd b0d6 e93d ced3 db3d
00000050: 94fc 8f3d c87b a23c 2a31 b53d 2189 e23d
00000060: be54 83bd 8d7a 78bc fd80 f7bd e3b8 043e
00000070: 80fc 4b3d cc89 c33d 4721 bcbd a174 ee3d
00000080: 8dc5 e6bd a7e4 d4bd a709 c9bd dc7e 313d
00000090: ac8a 07be e7be f3bc 9f42 f53d 575b b23d
000000a0: 3508 083e 3d03 b13b 494f fbbc 01bc 0cbd
000000b0: 1a92 56bd 6244 0f3d 84b4 6e3d 1be5 983d
000000c0: a2e4 e8bd bd8f 0bbe ce3a 0bbd 1d74 2bbb
000000d0: 4254 abbd b7d7 f63d 7ace e1bd 015b b1bd
000000e0: 626d a33d 386e e6bd 284c b3bd 327f 05be
000000f0: 8353 7bbd a804 87bd 8867 85bb e360 a53c
00000100: 30c6 4b3b 4eb1 aa3c d296 4ebd 978b 423d
00000110: 2057 673d e8a0 8c3d 1e01 af3d 68e0 963d
00000120: 73d8 8dbd 83c8 febb 3048 50bc 4408 f9bd
00000130: 88d1 363d db62 afbd 8a52 813d 4d9c bf3d
00000140: 5ad3 f8bc af46 4abd 0cdf 19bd f0b3 e73d
00000150: f0e3 cfbc ca8c b23d 2436 513d 9787 b93c
00000160: 4b0f 9a3d 5ab3 ec3d acef a33b 02cf 46bd
00000170: 84cd 393d f8f0 fc3d 1c05 4dbd 33cf fe3d
00000180: 2a0c bcbd 3d2a e4bc 24cf 973d 66f7 003e
00000190: ffcc 8ebb 975b 0fbd 74bf 27bd 2e47 10bd
000001a0: 9efd 7dbc c49d 223c 5edd e7bd 7007 fa3b
000001b0: 1d02 0f3d 0f1f fdbd b250 82bd b47a 3a3d
000001c0: af47 5b3d 0ca6 933d a404 883d 8938 c0bd
000001d0: ca55 acbd 206d b93d 1aed ffbc 5b01 20bb
000001e0: 60d8 7bbc be0a b53d 8673 7bbd 7ab6 4d3d
000001f0: 83a2 92bc 4647 403d 1ef5 d9bd f23a bf3d
00000200: 39fb 853d b615 5ebd 7527 eabc 31eb aebd
00000210: 2311 a9bd ed7b 6e3d 53f3 a43d 834d dabd
00000220: dfd3 803d 8749 0abd 6b5c d03d f9aa 8e3d
00000230: 6e0b 14bd f1ff ac3d 5305 3ebd c728 cdbd
00000240: 7083 99bd 610f 84bc 90bc 6e3d 1a53 c73d
00000250: 491e 9fbd 16e4 4d3d 2039 d7bd 226b aabb
00000260: 0b72 bd3d 4d20 d63d 30fe 133c 0663 c43c
00000270: eb42 95bd 2c88 a03d 305d da3d 0d44 ebbd
00000280: 0539 54bd 7791 1fbd 43b4 063d f089 9cbd
00000290: f452 bd3d 6f3c 62bd 8ea8 773d 25f0 903d
000002a0: da02 903c 6881 5bbb a4de 3abc 9ee7 6bbd
000002b0: 32e0 5a3d d39c bf3c af6c d93d 5c5b 1dbd
000002c0: df6b b93d 0a28 9f3d 930c 4a3d 447d 85bd
000002d0: bda7 a73d 424a d83d 0bd3 1cbd fd58 7bbd
000002e0: 86f7 953d 6e18 7abb cd2d cdbc 9f93 ea3d
000002f0: a1c2 2e3d baca d7bc ff2a 913d 2f9b ce3d
00000300: f6d6 473d 1376 9ebd da9b 7e3c 7307 a13d
00000310: 02bc 063d f920 c4bd ebe4 ae3d 272e e9bd
00000320: d107 913c ec4b 54bc d39e 88bd 4465 b63d
00000330: b560 eebd b31d e03d 6222 f53c a170 3cbb
00000340: f464 a5bd 15cb 9fbd bc1e a53b 3f94 dabb
00000350: aaba ec3d fc98 813d 2a60 863d 5ca1 e2bd
00000360: 161c 063d c948 ef3d d565 e73c 4c54 063d
00000370: d661 acbd d1dd 663d 77f4 bcbd 6bd1 c13d
00000380: 607d 293c 83f1 4d3c 6132 db3d 0e3c ab3d
00000390: 5eef 7ebd 7b19 e4bd b830 4f3d 3653 fb3d
000003a0: 5cad f3bd e5f4 96bd 0300 56bd a653 2bbd
000003b0: a64f 263d 3c94 193d dd7a 41bd 6a58 8abd
000003c0: 6349 f03d b49c dcbd 2353 a9bb e08e 213d
000003d0: 0895 5cbd 9c1d 4f3d cbcf b2bd 3109 903c
000003e0: 0e48 043c 97d7 1e3d c011 003e 608b e63c
000003f0: 3d9a 573c 6898 9ebc d313 44bd a64a 82bd

GC_Linear_list.0.bias f4 [64]
0.0711913 -0.035314403 -0.068440415 -0.0048722816 -0.056782268 0.115676105 -0.03290585 0.08873965
-0.072963476 -0.02842745 -0.11906735 0.05296088 0.071123496 0.095357604 0.06289639 0.056580756
0.094220184 -0.12553918 -0.03364114 0.02933552 -0.014132411 -0.07594323 0.04525116 0.090662666
-0.016936528 0.06911629 -0.08422938 -0.00963895 -0.04691895 0.056995988 -0.10846794 0.061172426
-0.06352705 0.02232951 -0.066385865 -0.012087373 0.061648298 -0.040161476 -0.025372643 0.037642803
0.04773171 0.100976765 0.1094248 -0.029737107 0.09625919 0.03830143 -0.07494661 -0.0014921089
0.07213752 -0.093996674 0.04725268 0.07714942 0.089194916 -0.07322375 -0.06507041 0.08790757
0.09896272 0.051775258 -0.03427738 -0.05386202 -0.0844076 -0.0044368855 0.11768287 0.047847338
00000000: bfcc 913d d6a5 10bd 7d2a 8cbd a9a7 9fbb
00000010: 8694 68bd 98e7 ec3d 49c8 06bd 22bd b53d
00000020: e06d 95bd afe0 e8bc 95d9 f3bd 82ed 583d
00000030: 32a9 913d d94a c33d d3cf 803d 39c1 673d
00000040: 83f6 c03d 588d 00be 4bcb 09bd 0b51 f03c
00000050: a18b 67bc 2088 9bbd 4859 393d 59ad b93d
00000060: 79be 8abc d78c 8d3d 7480 acbd b0ec 1dbc
00000070: 162e 40bd a074 693d 7024 debd f08f 7a3d
00000080: 781a 82bd 60ec b63c 50f5 87bd 1e0a 46bc
00000090: ed82 7c3d 5c80 24bd 4ada cfbc 572f 1a3d
000000a0: 5382 433d e8cc ce3d 1c1a e03d 3c9b f3bc
000000b0: 8a23 c53d f6e1 1c3d 9c7d 99bd de92 c3ba
000000c0: d6bc 933d 5481 c0bd 078c 413d 8400 9e3d
000000d0: d3ab b63d 55f6 95bd a343 85bd e208 b43d
000000e0: f7ac ca3d 4b12 543d 7066 0cbd 6c9e 5cbd
000000f0: e4dd acbd 4b63 91bb b703 f13d 92fb 433d

GC_Linear_list.1.weight f4 [64, 64]
-0.01027978 0.08193105 0.027307259 0.0155467745 0.015012086 0.024893124 -0.003999067 -0.013506018
-0.10743391 -0.032409865 -0.11573708 -0.10486731 -0.015888263 0.10894951 -0.028583072 0.041824814
0.06510952 -0.031208193 0.021948542 -0.05318319 -0.031885 -0.11750058 -0.10553203 -0.032293245
0.05486398 -0.0028144957 0.034639943 -0.042302813 -0.026105132 0.054809004 0.022510417 -0.066257045
0.0055363122 0.036728762 0.062390335 -0.026593344 0.057892468 0.08815146 0.05428897 -0.074649945
0.083633885 -0.09534793 -0.078904755 0.021877058 -0.045036808 0.05720448 -0.054619387 0.034143623
0.052023254 -0.10386616 -0.093090676 -0.08698815 -0.043453313 -0.010924668 -0.019245574 0.08919116
0.1101192 -0.023761017 0.056393888 -0.10767248 0.0064754835 -0.025136007 -0.066325106 0.04074506
0.021546006 -0.015276733 -0.05710209 0.09809563 -0.094676785 -0.081886835 -0.025591899 -0.0888119
0.020089349 -0.006806081 0.11461605 0.08409106 -0.10489185 -0.0467043 -0.0082618315 0.026442576
-0.050258838 -0.06294228 0.030435951 0.02653802 0.053247914 0.045108296 0.07497761 0.0813876
0.05690927 0.085954376 0.113502875 -0.053729028 0.0028507563 -0.021773068 0.026490763 0.114904396
0.12492118 0.11219391 0.028833268 0.08255826 0.097578034 -0.111680664 -0.07580656 0.049773768
-0.088055864 -0.032353003 0.046290223 -0.0067892717 -0.10467467 0.0069122813 -0.012607123 0.05625496
-0.10857031 -0.036334433 0.038284447 -0.106606886 -0.042626724 -0.01754088 0.04458762 -0.09957597
0.085991085 0.07942313 -0.031029169 0.024804724 -0.043508768 -0.012893878 -0.039497975 0.116901144
0.09167864 0.07608182 0.07788944 -0.00332082 -0.0307668 -0.058195334 -0.09386416 0.0596876
-0.07903228 -0.041416965 -0.09454595 0.13341269 -0.018006483 0.04022709 0.024809154 -0.018431956
-0.028435428 -0.113699935 0.11211125 -0.114988945 -0.06299324 -0.057624638 0.07544165 0.09049784
-0.06185041 -0.108307794 0.11966738 0.03126342 -0.08702683 0.13061056 -0.025982045 0.10342141
0.057210155 -0.03942851 -0.01043389 0.04857346 -0.058681518 0.0016138167 0.13191502 0.07253768
0.049120687 -0.04764278 -0.103170976 0.07387343 -0.078035355 -0.05447265 0.02249226 -0.05265375
0.0340235 0.09678964 -0.038144067 0.054449797 0.11020893 0.0021111232 -0.026366826 -0.0048839967
-0.05735063 0.12348145 0.007392927 0.08069728 0.1213944 -0.099929035 0.12671667 -0.07651848
-0.057976197 0.025863016 0.029558102 0.11907007 0.12173824 0.054263704 0.11477829 0.11151651
-0.08407558 -0.12150799 0.108484104 -0.063821934 -0.03385018 -0.068100266 -0.042043537 -0.12280263
0.023696514 0.031628285 -0.073644444 0.08214962 0.046941336 -0.102063924 0.037876837 -0.0150473155
0.11909352 -0.058080494 -0.0022518088 -0.061026137 -0.061538417 -0.04394843 -0.1240159 0.050021607
0.06161448 0.042971734 0.11304316 0.07462994 -0.10813406 0.113909364 -0.02884063 0.01996253
0.08997596 0.11285264 -0.08055171 0.107146196 -0.12405499 -0.0661081 -0.09523294 0.00069783005
0.12050366 0.06756472 0.013494709 0.09406974 0.13259542 -0.12030398 -0.020359468 -0.007476895
-0.1196657 0.03443026 0.10486236 0.12331649 -0.086142115 -0.047369238 -0.012865575 -0.081332125
00000000: 866c 28bc 77cb a73d 79b3 df3c e6b7 7e3c
00000010: 41f5 753c aaec cb3c 9b0a 83bb 5848 5dbc
00000020: 4f06 dcbd 35c0 04bd 9007 edbd acc4 d6bd
00000030: 1a28 82bc ec20 df3d 0c27 eabc 7f50 2b3d
00000040: 2458 853d 53a8 ffbc 6ecd b33c 9ed6 59bd
00000050: d999 02bd 25a4 f0bd 2d21 d8bd ec45 04bd
00000060: 0db9 603d 6773 38bb 9de2 0d3d b745 2dbd
00000070: 6eda d5bc 687f 603d c467 b83c c6b1 87bd
00000080: f469 b53b e670 163d 028d 7f3d 49da d9bc
00000090: a720 6d3d c188 b43d 1c5e 5e3d 12e2 98bd
000000a0: 3e48 ab3d c745 c3bd d198 a1bd 8437 b33c
000000b0: 8478 38bd 3f4f 6a3d 94b8 5fbd 2fda 0b3d
000000c0: 5616 553d c8b7 d4bd 53a6 bebd d826 b2bd
000000d0: 1afc 31bd 61fd 32bc e5a8 9dbc dba9 b63d
000000e0: 2d86 e13d 77a6 c2bc 47fd 663d 6483 dcbd
000000f0: 4b30 d43b 07ea cdbc 75d5 87bd 4be4 263d
00000100: 4081 b03c 434b 7abc e2e3 69bd 5de6 c83d
00000110: e7e5 c1bd 49b4 a7bd 1aa6 d1bc 03e3 b5bd
00000120: 6b92 a43c 8c05 dfbb d2bb ea3d ef37 ac3d
00000130: 8ad1 d6bd 024d 3fbd a25c 07bc 1a9e d83c
00000140: 36dc 4dbd e2e7 80bd d154 f93c 4366 d93c
00000150: 7c1a 5a3d 7ac3 383d dc8d 993d 8bae a63d
00000160: b219 693d d908 b03d 3274 e83d f812 5cbd
00000170: c1d3 3a3b 6f5d b2bc 2803 d93c ff52 eb3d
00000180: add6 ff3d ecc5 e53d bf33 ec3c 4e14 a93d
00000190: fed6 c73d d5b8 e4bd 7840 9bbd 94df 4b3d
000001a0: a256 b4bd 9584 04bd d19a 3d3d 8a78 debb
000001b0: ac5f d6bd 6b80 e23b 1b8e 4ebc 9a6b 663d
000001c0: 1c5a debd 6ad3 14bd 27d0 1c3d b654 dabd
000001d0: 5c99 2ebd e4b1 8fbc 82a1 363d 7cee cbbd
000001e0: 181c b03d 98a8 a23d e230 febc 4733 cb3c
000001f0: 4036 32bd d840 53bc a1c8 21bd de69 ef3d
00000200: 03c2 bb3d c9d0 9b3d 8084 9f3d 1da2 59bb
00000210: a80a fcbc 3b5e 6ebd da3b c0bd fc7a 743d
00000220: addb a1bd d6a4 29bd 4fa1 c1bd 569d 083e
00000230: 5582 93bc 29c5 243d 913c cb3c 9dfe 96bc
00000240: 6af1 e8bc 83db e8bd 959a e53d 537f ebbd
00000250: 9a02 81bd d007 6cbd 2781 9a3d ee56 b93d
00000260: db56 7dbd 7ad0 ddbd 2c14 f53d 120e 003d
00000270: 1f3b b2bd c6be 053e 4cd8 d4bc 9bce d33d
00000280: 3255 6a3d ca7f 21bd e8f2 2abc f7f4 463d
00000290: 085c 70bd b486 d33a bb14 073e a38e 943d
000002a0: c632 493d 1325 43bd 4e4b d3bd f44a 973d
000002b0: 00d1 9fbd b71e 5fbd b041 b83c 75ab 57bd
000002c0: 3a5c 0b3d a639 c63d f43c 1cbd c006 5f3d
000002d0: 38b5 e13d c55a 0a3b 3eff d7bc ef09 a0bb
000002e0: 7fe8 6abd d8e3 fc3d 5e40 f23b 9e44 a53d
000002f0: a19d f83d 98a7 ccbd 04c2 013e b9b5 9cbd
00000300: 7378 6dbd adde d33c d523 f23c 02db f33d
00000310: e651 f93d 9e43 5e3d e110 eb3d c562 e43d
00000320: d12f acbd 2ed9 f8bd ea2c de3d 13b5 82bd
00000330: 7da6 0abd 2778 8bbd d835 2cbd f27f fbbd
00000340: 311f c23c a98c 013d e6d2 96bd 0f3e a83d
00000350: 8f45 403d e406 d1bd be24 1b3d 0489 76bc
00000360: 4ee7 f33d d0e5 6dbd 1593 13bb 8bf6 79bd
00000370: b50f 7cbd 4503 34bd 0cfc fdbd 75e3 4c3d
00000380: 775f 7c3d 2103 303d 2c83 e73d 95d7 983d
00000390: 6475 ddbd 5049 e93d 2f43 ecbc 7688 a33c
000003a0: 5145 b83d 491f e73d 4cf8 a4bd 776f db3d
000003b0: 8b10 febd af63 87bd 7d09 c3bd 95ee 363a
000003c0: 9fca f63d 5f5f 8a3d e918 5d3c a3a7 c03d
000003d0: 18c7 073e ef61 f6bd e6c8 a6bc be00 f5bb
000003e0: 4a13 f5bd bf06 0d3d 14c2 d63d 5b8d fc3d
000003f0: 476b b0bd 3f06 42bd 22ca 52bc 7591 a6bd

GC_Linear_list.1.bias f4 [64]
0.07345399 -0.067659296 -0.044322796 0.010066366 -0.042908188 -0.0639415 0.06543347 -0.107113644
-0.07494251 -0.05444485 0.10851547 0.08185796 0.041512474 0.1152414 0.101822466 0.08825912
-0.016611272 0.004701033 0.022684665 -0.066611804 0.013192597 -0.10152136 0.058277942 0.041996226
0.08485114 -0.12128314 -0.10707447 -0.08209225 0.08440059 0.069911174 0.100172244 0.032703545
-0.02371535 0.071516894 -0.068449855 -0.08619216 -0.11383433 -0.10972904 0.078095004 -0.048166692
-0.10618975 -0.06782368 0.03295477 -0.08881245 -0.026665872 0.010683259 -0.014343242 -0.061419245
0.08328184 -0.047219045 -0.041463967 0.0063185995 -0.010269786 0.10832698 0.09411429 0.03147845
0.03524722 0.052253176 0.0779875 -0.038617235 -0.10374956 -0.047079954 0.05582902 -0.06264929
00000000: 0c6f 963d f590 8abd d28b 35bd 66ed 243c
00000010: 7fc0 2fbd c3f3 82bd fc01 863d 665e dbbd
00000020: 757b 99bd 9001 5fbd 5c3d de3d 25a5 a73d
00000030: fc08 2a3d af03 ec3d 4c88 d03d 33c1 b43d
00000040: 5d14 88bc 1f0b 9a3b 31d5 b93c c56b 88bd
00000050: c325 583c 6eea cfbd dab4 6e3d 3c04 2c3d
00000060: 6fc6 ad3d 4b63 f8bd dc49 dbbd fb1f a8bd
00000070: 37da ac3d 972d 8f3d 1b27 cd3d 27f4 053d
00000080: b246 c2bc 7377 923d 702f 8cbd 8485 b0bd
00000090: f921 e9bd 9eb9 e0bd 46f0 9f3d 704a 45bd
000000a0: 037a d9bd 24e7 8abd 95fb 063d 4de3 b5bd
000000b0: 6372 dabc d608 2f3c ebff 6abc bf92 7bbd
000000c0: ab8f aa3d c268 41bd 1fd6 29bd 410c cf3b
000000d0: 9b42 28bc 89da dd3d febe c03d 8cef 003d
000000e0: 645f 103d 6d07 563d e9b7 9f3d 1b2d 1ebd
000000f0: a67a d4bd e9d6 40bd f8ac 643d 454e 80bd

GC_Linear_list.2.weight f4 [64, 64]
-0.10854313 0.017978506 -0.06815561 -0.0015479798 -0.037018828 -0.06923562 -0.0430162 0.012130603
-0.10324806 -0.07043243 -0.113726966 0.038849976 0.05615885 -0.03863182 -0.004821529 -0.0245483
-0.014420219 -0.06935651 0.023796726 0.121059485 0.034841157 -0.01974485 0.07645048 -0.06587158
0.043789007 0.07583907 0.0513265 0.100535445 0.015566645 -0.07851855 -0.040147644 -0.0927042
0.004102447 0.049350698 0.089599356 0.010842206 0.124165885 0.133145 -0.068170436 0.11981944
0.040774222 0.0655109 -0.053840455 0.055459328 -0.09931738 0.016514521 0.09555018 -0.092688985
-0.009925387 -0.0114940945 -0.013439089 0.12819023 0.00593171 -0.023440236 -0.008522156 0.017654765
0.030548641 0.061825342 -0.09751337 0.07676267 -0.106155545 -0.08246722 -0.027305733 0.0834255
-0.023392387 -0.09709827 -0.072925486 -0.09157328 -0.0011724626 0.095147185 0.032625873 0.10917836
-0.020681553 -0.0897233 -0.06478471 0.051494393 0.12901086 -0.0070459167 0.044346873 0.07142764
-0.11259207 0.009921491 0.07690124 -0.083912894 0.03113456 0.06848308 0.008687651 -0.10184913
-0.08921839 0.04666521 0.06349253 -0.014723432 -0.022208542 0.03207031 -0.038145386 -0.117689736
-0.058850963 -0.06547339 -0.11895939 0.12003803 -0.0042811967 0.09578059 0.03067295 0.073407814
-0.010147468 -0.12328578 0.042638443 0.11494952 -0.114963435 -0.10730219 0.071481094 -0.051216125
0.12186539 0.0294083 0.022243049 0.09850298 0.090400524 0.034957822 -0.07198311 -0.033006053
0.027023826 -0.072820194 -0.055218197 -0.11283702 -0.04029847 0.10219369 0.07831415 -0.011037014
0.07572732 -0.043360982 0.08034674 -0.07829771 -0.03881908 -0.0021752932 0.061870303 0.068212315
0.096150115 -0.044157438 0.11112907 0.06336882 -0.08053794 -0.10660693 -0.119479425 -0.106605105
-0.07787957 -0.050288986 0.058225643 -0.00043219703 -0.0866793 0.06628529 0.08456603 -0.0784369
0.075453795 -0.040661596 0.05877704 0.027329227 0.018121157 -0.1246172 0.12002141 -0.10488164
-0.014867062 0.041001756 -0.10980698 -0.011007686 -0.06718958 0.025737641 -0.016015286 0.13462569
0.11317041 -0.09551292 0.012912679 -0.102746725 -0.032856807 -0.05105666 -0.033045083 -0.00082264154
0.05018811 -0.083666384 -0.11095493 0.082422554 0.08129523 -0.004463203 0.040997934 0.13690223
0.039905168 -0.01216044 -0.034279324 -0.103847586 0.048474524 0.037127823 0.10053272 -0.03887604
-0.115528196 0.08456705 0.12817197 -0.10306354 0.014688897 -0.11234265 0.026312288 -0.0123597635
0.09783876 0.09471204 0.12981309 -0.11700435 -0.041298334 0.024183583 0.088341296 0.10811636
-0.11040904 0.06259072 0.08153215 0.029001817 0.011350351 0.00856796 -0.09934767 -0.10968531
-0.03209648 0.087394714 -0.12243097 -0.080946244 0.04725313 0.05674477 0.05933338 0.09680366
-0.034809813 -0.08265383 0.046183653 -0.09479182 -0.102163434 -0.09151896 -0.068671644 0.0379781
-0.01256738 -0.020997386 0.10580421 0.03788631 0.068449266 -0.1173047 -0.10758302 0.033907145
-0.0491443 0.060382836 -0.0054729483 -0.10657388 0.124256164 0.114314206 0.030115077 0.061754566
-0.044185247 0.031707603 0.07035972 0.09572698 -0.116887584 0.05194259 -0.12739053 0.084863454
00000000: dc4b debd a947 933c 2b95 8bbd 95e5 caba
00000010: 0ea1 17bd 68cb 8dbd c131 30bd 70bf 463c
00000020: b873 d3bd e13e 90bd afe9 e8bd 2721 1f3d
00000030: d306 663d 663c 1ebd ebfd 9dbb 8419 c9bc
00000040: c842 6cbc c90a 8ebd 5af1 c23c 09ee f73d
00000050: 9ab5 0e3d f4bf a1bc 1292 9c3d aee7 86bd
00000060: 1a5c 333d 8451 9b3d bc3b 523d 87e5 cd3d
00000070: 3e0b 7f3c 55ce a0bd db71 24bd b3db bdbd
00000080: d26d 863b f523 4a3d de7f b73d 82a3 313c
00000090: af4a fe3d 2a57 083e f19c 8bbd e563 f53d
000000a0: df02 273d 942a 863d cf87 5cbd 5229 633d
000000b0: e966 cbbd 7649 873c d0af c33d b9d3 bdbd
000000c0: 179e 22bc ba51 3cbc a02f 5cbc 4d44 033e
000000d0: ca5e c23b bd05 c0bc 83a0 0bbc baa0 903c
000000e0: 2541 fa3c 923c 7d3d 17b5 c7bd bf35 9d3d
000000f0: 1468 d9bd 93e4 a8bd 46b0 dfbc fdda aa3d
00000100: 64a1 bfbc 75db c6bd f559 95bd c68a bbbd
00000110: 51ad 99ba 87dc c23d b5a2 053d e798 df3d
00000120: 5c6c a9bc d9c0 b7bd d9ad 84bd c9eb 523d
00000130: 6c1b 043e 6fe1 e6bb 11a5 353d a848 923d
00000140: ac96 e6bd c08d 223c 667e 9d3d 86da abbd
00000150: e80d ff3c db40 8c3d a656 0e3c 4796 d0bd
00000160: 22b8 b6bd 0524 3f3d 5f08 823d 8d3a 71bc
00000170: b0ee b5bc 285c 033d 563e 1cbd 5107 f1bd
00000180: b50d 71bd ea16 86bd fba0 f3bd 80d6 f53d
00000190: 4849 8cbb 9d28 c43d d745 fb3c d656 963d
000001a0: 9141 26bc 417d fcbd a6a5 2e3d a76a eb3d
000001b0: f371 ebbd 40c1 dbbd ae64 923d 00c8 51bd
000001c0: 9094 f93d ade9 f03c 0e37 b63c eebb c93d
000001d0: e923 b93d ef2f 0f3d e16b 93bd 5b31 07bd
000001e0: 1261 dd3c c122 95bd 7a2c 62bd 1817 e7bd
000001f0: 0210 25bd ed4a d13d 2b63 a03d 98d4 34bc
00000200: ed16 9b3d 499b 31bd d58c a43d 8d5a a0bd
00000210: c100 1fbd 5d8f 0ebb b76b 7d3d e6b2 8b3d
00000220: 5aea c43d 6ede 34bd a397 e33d 83c7 813d
00000230: 13f1 a4bd bc54 dabd a1b1 f4bd c753 dabd
00000240: 537f 9fbd d3fb 4dbd 037e 6e3d 8198 e2b9
00000250: eb84 b1bd 95c0 873d f430 ad3d 87a3 a0bd
00000260: 8587 9a3d c68c 26bd 32c0 703d 8be1 df3c
00000270: d272 943c 4d37 ffbd c9cd f53d 2fcc d6bd
00000280: fa94 73bc 75f1 273d 7be2 e0bd 9559 34bc
00000290: b19a 89bd bfd7 d23c 7d32 83bc 51db 093e
000002a0: e3c5 e73d 479c c3bd b48f 533c e06c d2bd
000002b0: dc94 06bd ca20 51bd 485a 07bd 8aa6 57ba
000002c0: 0c92 4d3d 4859 abbd 573c e3bd 28cd a83d
000002d0: 1d7e a63d 0f40 92bb 73ed 273d 1930 0c3e
000002e0: 9a73 233d 953c 47bc 7a68 0cbd 0bae d4bd
000002f0: 398d 463d 5813 183d 19e4 cd3d 7c3c 1fbd
00000300: 0c9a ecbd 7d31 ad3d 833f 033e fa12 d3bd
00000310: b3a9 703c e713 e6bd de8c d73c 9b80 4abc
00000320: b05f c83d 63f8 c13d b9ed 043e fa9f efbd
00000330: 7128 29bd a61c c63c 48ec b43d 1c6c dd3d
00000340: 221e e2bd 902f 803d 54fa a63d 3895 ed3c
00000350: d3f6 393c a160 0c3c cb76 cbbd b1a2 e0bd
00000360: 9977 03bd 00fc b23d 17bd fabd 25c7 a5bd
00000370: 7f8c 413d 346d 683d 8f07 733d ff40 c63d
00000380: bc94 0ebd 6946 a9bd 122b 3d3d 3722 c2bd
00000390: 103b d1bd 4b6e bbbd b8a3 8cbd ed8e 1b3d
000003a0: 6ae7 4dbc b602 acbc e1af d83d ad2e 1b3d
000003b0: 212f 8c3d 723d f0bd 7d54 dcbd 38e2 0a3d
000003c0: 894b 49bd fe53 773d 6b56 b3bb 6843 dabd
000003d0: 047a fe3d 911d ea3d e5b3 f63c 5bf2 7c3d
000003e0: 97fb 34bd d5df 013d c218 903d 820c c43d
000003f0: c262 efbd c1c1 543d aa72 02be e4cc ad3d

GC_Linear_list.2.bias f4 [64]
-0.04977736 0.023753436 0.019608822 -0.06756215 -0.09442479 -0.0047594598 0.043651618 -0.10968556
-0.018836739 0.06385958 0.05221452 0.034975804 0.040715978 0.046485327 0.019660259 0.048638098
0.015801914 0.047205485 -0.101325184 0.040858977 -0.026765341 0.0060631996 -0.07475224 -0.036160424
-0.1214336 -0.08668716 -0.014416749 -0.08754898 0.0072652157 0.10269023 0.08083556 -0.038042225
-0.044642523 0.012727685 0.022290297 0.11112131 0.035966106 -0.0876974 0.04054952 -0.047888026
0.061548065 0.0041638045 0.015630618 0.030426139 -0.084388226 -0.06814612 -0.10625558 0.045182142
-0.026165755 -0.02773608 -0.06722404 0.078953184 -0.089479126 -0.10702513 0.05480068 -0.11424398
0.06874335 0.071702994 -0.057178568 -0.07368058 -0.08836865 0.03702459 -0.091764 0.041174546
00000000: 58e3 4bbd 9196 c23c aea2 a03c 065e 8abd
00000010: c961 c1bd 3ef5 9bbb 0acc 323d d3a2 e0bd
00000020: 814f 9abc d0c8 823d e4de 553d ca42 0f3d
00000030: ccc5 263d 6667 3e3d 8d0e a13c be38 473d
00000040: 0473 813c 8a5a 413d 9483 cfbd be5b 273d
00000050: fd42 dbbc cead c63b b417 99bd f41c 14bd
00000060: 2eb2 f8bd 0a89 b1bd 3a34 6cbc e14c b3bd
00000070: 0c11 ee3b 414f d23d 1d8d a53d 2ad2 1bbd
00000080: 14db 36bd c887 503c 249a b63c 9293 e33d
00000090: 3251 133d b29a b3bd 4117 263d 3c26 44bd
000000a0: d319 7c3d 8670 883b c80b 803c 3d40 f93c
000000b0: bcd3 acbd 3190 8bbd 879c d9bd e910 393d
000000c0: 9159 d6bc c736 e3bc c2ac 89bd 35b2 a13d
000000d0: d540 b7bd fe2f dbbd ae76 603d bff8 e9bd
000000e0: 50c9 8c3d 05d9 923d 1334 6abd d8e5 96bd
000000f0: 9ffa b4bd 19a7 173d c4ee bbbd a4a6 283d

Bi_Linear_list.0.weight f4 [64, 64]
0.099646635 -0.06351739 0.0119743245 0.09516664 -0.041302163 0.05276908 0.110108025 -0.008523225
-0.036178056 -0.10066663 -0.0946582 -0.03227049 0.059277438 -0.020153487 0.008319766 -0.062971026
0.008433718 0.015041038 -0.0029376247 0.08050122 0.050223697 -0.067044 -0.09287023 -0.011649548
0.014085959 0.007327264 0.00891338 0.025341265 0.089156836 0.027810575 -0.008591457 -0.0795432
-0.0011659861 -0.05066749 0.027813444 -0.049166374 0.11774993 -0.091289215 -0.11565851 0.11919521
-0.08266572 0.043568283 0.013020613 0.119326055 0.065447934 0.094531894 0.11924828 0.030724488
-0.0026835382 0.05935712 0.07888562 0.07684202 0.11966385 0.10668909 0.058176845 -0.11219655
0.03320099 -0.048741937 0.07674836 -0.062253833 0.02767987 -0.08374041 0.030385936 0.064470805
-0.016784156 0.07765292 0.0005108222 -0.08870147 0.017143225 -0.08251819 0.050382134 0.09823012
-0.041710444 0.10082628 -0.046032473 -0.0018699111 0.028708233 0.06457725 0.055601772 0.09847079
0.048433002 -0.09640494 0.010394992 0.04511761 -0.056665473 0.04280346 0.07529022 -0.023018474
-0.04103884 -0.03127142 0.035292346 0.09833434 -0.009595107 0.050461527 -0.0032530741 0.12161636
-0.11610257 0.07446906 0.04975931 -0.06700651 0.02590092 0.0030292203 -0.07585465 0.028996008
0.08291693 0.035963822 0.006646073 -0.019919846 -0.035447642 -0.10993944 -0.066823885 -0.030762305
-0.03269098 0.0092362715 0.0065734237 -0.03847693 0.106821746 -0.037127804 0.044061486 0.07664191
-0.051551636 0.07298541 0.02723677 -0.028179375 0.10748042 -0.05041381 0.010847633 0.06214882
-0.08817634 0.108827464 -0.05201428 -0.0034437669 0.022814333 -0.073308825 0.071906574 -0.11654516
0.067153424 -0.017425863 0.028506799 0.031780712 -0.027075259 -0.007780695 0.06689589 0.10318429
-0.059597697 0.05295013 0.083548486 -0.017961567 0.044933986 -0.11128284 -0.12160292 0.06946157
0.11791337 -0.041377295 -0.050728917 -0.025843125 0.10334442 0.05914098 -0.06981313 0.006968052
0.08068217 -0.02959551 0.06670298 -0.030475987 0.035604645 -0.05849796 -0.12041614 0.11968539
0.036717642 0.11431743 -0.040945344 0.102589965 0.008520116 0.0011671128 0.05400625 -0.025787149
0.061492242 -0.06650144 0.08080979 -0.09066101 0.1187619 0.09826569 -0.036575112 -0.026335256
0.08312955 -0.08236456 -0.07177075 0.016722461 0.036048602 -0.026786188 -0.018033272 -0.11729991
-0.022058282 0.11109191 -0.007761733 -0.12122164 -0.094769545 -0.07092941 -0.0912207 -0.022955334
0.05618627 -0.08600913 0.1088448 -0.029748442 -0.07201937 0.11444435 0.081271596 0.01398493
0.010829364 0.06833768 -0.12946008 0.05667087 0.08135638 0.07635772 -0.05370947 0.043489974
0.047739413 -0.06836342 -0.07802535 -0.0428773 -0.09405752 -0.07755222 -0.019523025 -0.09714552
-0.08961748 0.06760582 -0.08345484 -0.086807966 -0.07898009 0.12627676 0.034398254 -0.005274486
-0.06501367 -0.11304103 0.044046022 -0.09475093 -0.097140364 0.016342212 0.07186528 -0.07309005
-0.056161832 0.029077712 -0.0035893584 -0.06469542 -0.097559415 0.117816 -0.041372914 0.073987596
0.09622864 0.0816077 0.027585145 0.0060280147 -0.02153049 -0.1088699 0.012130063 0.08825311
00000000: 8913 cc3d 6815 82bd f52f 443c bae6 c23d
00000010: 752c 29bd 6424 583d 5180 e13d ffa4 0bbc
00000020: 712f 14bd 4e2a cebd 29dc c1bd 102e 04bd
00000030: e6cc 723d ed18 a5bc a14f 083c f4f6 80bd
00000040: 942d 0a3c b06e 763c 2a85 40bb d3dd a43d
00000050: 5db7 4d3d 5d4e 89bd bf32 bebd bfdd 3ebc
00000060: cbc8 663c 8c19 f03b 6d09 123c 7c98 cf3c
00000070: dc97 b63d 01d3 e33c 2fc3 0cbc 8ce7 a2bd
00000080: 00d4 98ba b788 4fbd 05d9 e33c ae62 49bd
00000090: e026 f13d d7f5 babd 5ede ecbd 9e1c f43d
000000a0: a54c a9bd a874 323d 6954 553c 3861 f43d
000000b0: 9109 863d f099 c13d 7138 f43d ecb1 fb3c
000000c0: 4dde 2fbb 7420 733d c98e a13d 595f 9d3d
000000d0: 5212 f53d cf7f da3d d84a 6e3d 4ec7 e5bd
000000e0: c3fd 073d a0a5 47bd 3f2e 9d3d e0fd 7ebd
000000f0: e5c0 e23c 1880 abbd edeb f83c 4509 843d
00000100: ed7e 89bc 7e08 9f3d b3e8 053a 1ea9 b5bd
00000110: f36f 8c3c 4cff a8bd 7f5d 4e3d e02c c93d
00000120: 92d8 2abd 027e ce3d 8c8c 3cbd ce17 f5ba
00000130: 872d eb3c 1441 843d afbe 633d 0eab c93d
00000140: af61 463d f46f c5bd c24f 2a3c 3ecd 383d
00000150: 0e1a 68bd ae52 2f3d c231 9a3d 3d91 bcbc
00000160: 5818 28bd 7616 00bd b58e 103d 8463 c93d
00000170: cc34 1dbc bfb0 4e3d 8731 55bb 0012 f93d
00000180: 2fc7 edbd 3c83 983d 6bd0 4b3d b63a 89bd
00000190: 2b2e d43c e285 463b af59 9bbd 0989 ed3c
000001a0: 5ad0 a93d cd4e 133d 4dc7 d93b f22e a3bc
000001b0: 8c31 11bd ee27 e1bd f6da 88bd 3b01 fcbc
000001c0: fae6 05bd bb53 173c e065 d73b fc99 1dbd
000001d0: 5cc5 da3d 5313 18bd d179 343d 6ff6 9c3d
000001e0: cf27 53bd 6079 953d a61f df3c 6fd8 e6bc
000001f0: b21e dc3d b67e 4ebd 45ba 313c c38f 7e3d
00000200: cc95 b4bd efe0 de3d ed0c 55bd d2b0 61bb
00000210: 20e5 ba3c f022 96bd c143 933d 3baf eebd
00000220: bc87 893d afc0 8ebc 1787 e93c 7e2c 023d
00000230: efcc ddbc 33f5 febb b600 893d 4952 d33d
00000240: b71c 74bd 3ce2 583d 781b ab3d 2324 93bc
00000250: b30c 383d 42e8 e3bd f40a f9bd de41 8e3d
00000260: 917c f13d 3d7b 29bd 20c9 4fbd f6b4 d3bc
00000270: 3da6 d33d d03d 723d 30fa 8ebd 4254 e43b
00000280: b23c a53d 4872 f2bc 929b 883d c7a8 f9bc
00000290: 2dd6 113d 8f9b 6fbd bd9c f6bd 9d1d f53d
000002a0: 3d65 163d 421f ea3d 4eb6 27bd b01a d23d
000002b0: f597 0b3c cff9 983a a835 5d3d 923f d3bc
000002c0: 4adf 7b3d e831 88bd 9a7f a53d 7bac b9bd
000002d0: 7039 f33d 863f c93d c9cf 15bd 09bd d7bc
000002e0: d33f aa3d c0ae a8bd 8bfc 92bd 8bfd 883c
000002f0: b3a7 133d b56e dbbc 83ba 93bc ef3a f0bd
00000300: 92b3 b4bc 2884 e33d 2356 febb 0d43 f8bd
00000310: 8916 c2bd 7043 91bd ebd1 babd d30c bcbc
00000320: 9323 663d 8e25 b0bd 06ea de3d 01b3 f3bc
00000330: e47e 93bd cd61 ea3d b971 a63d 0c21 653c
00000340: a56d 313c a0f4 8b3d 2f91 04be b71f 683d
00000350: 2c9e a63d 7061 9c3d 76fe 5bbd 8b22 323d
00000360: 678a 433d 1f02 8cbd c1cb 9fbd 1ca0 2fbd
00000370: 3ba1 c0bd b3d3 9ebd c0ee 9fbc 3bf4 c6bd
00000380: 5f89 b7bd ec74 8a3d 5fea aabd 60c8 b1bd
00000390: 50c0 a1bd b24e 013e 2fe5 0c3d 98d5 acbb
000003a0: e325 85bd 0e82 e7bd 9a69 343d c70c c2bd
000003b0: 87f1 c6bd 1ae0 853c 1b2e 933d 3cb0 95bd
000003c0: f309 66bd 6234 ee3c 713b 6bbb 087f 84bd
000003d0: 3bcd c7bd 8449 f13d a576 29bd cf86 973d
000003e0: 8513 c53d f021 a73d 3efa e13c a786 c53b
000003f0: b660 b0bc 2ff7 debd 2cbd 463c 0cbe b43d

Bi_Linear_list.0.bias f4 [64]
-0.12252112 -0.09875974 -0.05653507 0.08477687 0.10427476 0.063531205 -0.048771333 0.11357629
-0.049292423 0.10578953 0.0569163 0.098685004 0.04840322 0.115698025 -0.12372273 -0.0255704
0.033677008 0.03459747 0.110899374 0.012343241 0.0060023293 0.047102135 0.01793468 0.09438963
0.058728896 -0.08666036 0.03046642 -0.08628673 -0.10297556 0.049685147 -0.13748848 -0.009287699
0.02175287 0.1087393 -0.088401854 0.109360926 0.028706854 -0.0411937 -0.028498717 0.06971206
-0.074736506 -0.072812915 -0.030631706 -0.00014499409 0.07365911 -0.10202332 -0.052393775 0.0014735541
0.08852178 0.06418751 -0.12530696 0.10299861 -0.056018174 -0.07013412 -0.00820334 -0.11754125
0.0142885735 0.039528828 -0.040459804 -0.07564482 -0.05102564 -0.09866784 -0.10550389 -0.03600508
00000000: 5aec fabd 8c42 cabd 5191 67bd 7f9f ad3d
00000010: 018e d53d a61c 823d 73c4 47bd b09a e83d
00000020: dae6 49bd 2ea8 d83d 1121 693d 5d1b ca3d
00000030: 7442 463d 16f3 ec3d 5862 fdbd 0479 d1bc
00000040: e7f0 093d 14b6 0d3d 361f e33d 4e3b 4a3c
00000050: 30af c43b 2bee 403d c0eb 923c 5a4f c13d
00000060: b68d 703d fd7a b1bd b794 f93c 19b7 b0bd
00000070: dae4 d2bd a782 4b3d c8c9 0cbe 6f2b 18bc
00000080: 1333 b23c b6b2 de3d 080c b5bd 9ff8 df3d
00000090: a32a eb3c baba 28bd 2476 e9bc 32c5 8e3d
000000a0: 740f 99bd f01e 95bd 58ef fabc 8e09 18b9
000000b0: 96da 963d 9af1 d0bd db9a 56bd 4524 c13a
000000c0: e84a b53d be74 833d 7850 00be eff0 d23d
000000d0: 5073 65bd 7aa2 8fbd 4d67 06bc 78b9 f0bd
000000e0: 9f1a 6a3c fbe8 213d 2eb9 25bd aceb 9abd
000000f0: 4300 51bd 5d12 cabd 6c12 d8bd 107a 13bd

Bi_Linear_list.1.weight f4 [64, 64]
-0.068784915 -0.03017285 0.07905053 -0.0029616577 -0.037838247 0.013143815 -0.05863046 -0.08670192
-0.014623606 0.086917855 -0.0037518276 0.013817988 -0.11538775 0.0040664 -0.102317296 -0.041524466
0.078320034 -0.10111075 -0.031893108 -0.12873681 -0.038749408 0.02728211 0.048628066 -0.023832466
-0.018293496 0.03854222 0.112244986 0.0003463158 0.10693807 -0.00042715127 0.11752353 0.0041542863
-0.07507817 -0.08537226 -0.09749478 -0.03156939 -0.003941855 0.010704384 -0.058883626 0.04471743
-0.037722453 -0.027265524 -0.013559829 0.058705606 -0.016283954 0.033127174 0.048143666 0.102091655
-0.056170974 -0.051559217 0.027797516 0.097563155 -0.057881635 -0.0065351855 -0.0995336 -0.08864889
0.03793454 -0.00042880437 -0.09362772 0.109883554 -0.114018306 -0.023682807 -0.0024560129 0.09787735
0.046757605 0.1076885 -0.048628874 0.06326188 0.01467086 -0.036819905 -0.050750706 0.03458526
-0.04810235 0.0783237 0.09335395 -0.093880616 -0.085596725 -0.06214014 0.039158363 0.019107549
-0.0844279 -0.030173209 -0.016220585 -0.092852354 0.051226184 0.09250515 0.048453614 -0.08389148
0.11851996 0.035606902 -0.09879349 -0.021196406 -0.08190609 0.04494295 0.017475637 0.053727664
0.044175092 -0.025046485 -0.119849056 -0.08766245 -0.049785547 -0.09933037 -0.04036467 0.10640512
-0.088492595 -0.0033331658 0.09408481 -0.017670454 -0.052648276 0.10849099 -0.057439275 0.07782892
-0.106278315 0.1271353 -0.12303404 -0.015308221 0.08102688 -0.09623635 -0.05232183 0.09489594
0.0883775 0.015822034 -0.09914837 0.046164557 -0.115257874 -0.0678072 -0.10009334 -0.06406371
0.005725941 -0.00817371 -0.013866593 -0.105856255 0.046400517 0.10365348 -0.0018539978 -0.047773145
-0.038109228 -0.033332586 -0.106728874 0.024036199 -0.07359875 0.08088935 0.020689907 -0.044244185
0.08659237 0.103021495 -0.10333793 0.012986753 -0.023102812 0.042502888 0.02647762 -0.00832877
0.05542223 0.08715444 0.08333052 0.10850774 0.08874575 0.0323629 -0.054465182 -0.007192154
0.11578133 -0.10682346 -0.07085333 -0.010898052 -0.06427905 -0.12614124 -0.005679309 -0.051160846
-0.0955492 -0.071298406 -0.056358375 0.07600729 -0.12103638 -0.0650588 -0.07527611 0.060264904
0.059469603 0.11255539 -0.0044478993 -0.10935631 -0.10090386 -0.11084192 -0.009130786 -0.061410103
-0.037042513 0.044889595 0.12045031 -0.0068611265 -0.088564105 -0.05974807 0.010498472 -0.052518006
-0.0677025 0.027039025 -0.10027577 -0.05704734 -0.09688113 0.06403336 -0.056273084 0.024450235
0.06207438 0.1218006 -0.026131244 -0.12399996 0.019864058 0.05223798 -0.021815592 0.06515178
-0.0701834 0.045302395 0.049648765 0.020875672 0.092270225 -0.0016013202 0.06731166 -0.08331683
0.037728455 0.091732964 -0.0071467664 0.09366493 0.10293245 -0.06857728 -0.030796664 -0.08142331
0.120837905 0.0032705034 -0.0140147265 0.09037016 0.12563753 -0.08297301 0.099369176 0.06727286
-0.051274903 -0.09517571 -0.07469629 0.100890204 0.07733832 0.04718595 -0.037310965 -0.107126586
-0.11092317 -0.08890286 -0.104600996 -0.10834583 0.014141057 0.049086586 -0.09970409 0.08943862
0.007938102 0.04750927 0.06744176 -0.092044555 -0.045020383 -0.112387784 0.06967382 -0.13096102
00000000: 1bdf 8cbd 0d2d f7bc 3fe5 a13d 5f18 42bb
00000010: 47fc 1abd 2859 573c 7e26 70bd c790 b1bd
00000020: d997 6fbc fd01 b23d 39e1 75bb d864 623c
00000030: 6a50 ecbd 703f 853b bb8b d1bd 8f15 2abd
00000040: 4166 a03d 2713 cfbd 59a2 02bd 95d3 03be
00000050: b3b7 1ebd bb7e df3c 392e 473d 4e3c c3bc
00000060: 3edc 95bc 72de 1d3d b3e0 e53d b891 b539
00000070: 5902 db3d 46f3 dfb9 2db0 f03d ae20 883b
00000080: 95c2 99bd a7d7 aebd 58ab c7bd e84e 01bd
00000090: ad2a 81bb 7161 2f3c f52f 71bd a029 373d
000000a0: dc82 1abd f35b dfbc 0c2a 5ebc 4a75 703d
000000b0: ed65 85bc 5cb0 073d 4b32 453d 6e15 d13d
000000c0: 8913 66bd c22f 53bd 9eb7 e33c 31cf c73d
000000d0: 4b15 6dbd 1c25 d6bb 46d8 cbbd 8d8d b5bd
000000e0: 4061 1b3d 26d1 e0b9 e4bf bfbd a10a e13d
000000f0: 6e82 e9bd 7202 c2bc 0ff5 20bb ec73 c83d
00000100: e784 3f3d ca8b dc3d 122f 47bd 728f 813d
00000110: 0c5e 703c 78d0 16bd f9df 4fbd 46a9 0d3d
00000120: f806 45bd 2d68 a03d 5b30 bf3d 7b44 c0bd
00000130: 564d afbd a986 7ebd 8564 203d 6f87 9c3c
00000140: 89e8 acbd ce2d f7bc 08e1 84bc 6029 bebd
00000150: 8cd2 513d 5773 bd3d 4c77 463d 4ccf abbd
00000160: 98ba f23d 8bd8 113d 3e54 cabd 16a4 adbc
00000170: 61be a7bd 1916 383d 1129 8f3c 8a11 5c3d
00000180: f1f0 343d 492e cdbc 6c73 f5bd 5f88 b3bd
00000190: eeeb 4bbd b96d cbbd 6d55 25bd edea d93d
000001a0: 9b3b b5bd 3e71 5abb 89af c03d a1c1 90bc
000001b0: b8a5 57bd 8630 de3d 7245 6bbd c564 9f3d
000001c0: 72a8 d9bd c22f 023e 45f9 fbbd 55cf 7abc
000001d0: 6cf1 a53d 9017 c5bd 6a4f 56bd cd58 c23d
000001e0: 43ff b43d 369d 813c 4d0e cbbd 0c17 3d3d
000001f0: 520c ecbd 80de 8abd bdfd ccbd d633 83bd
00000200: ada0 bb3b 06eb 05bc b530 63bc 2acb d8bd
00000210: 780e 3e3d 4748 d43d d801 f3ba c6ad 43bd
00000220: 6c18 1cbd c087 08bd ab94 dabd 90e7 c43c
00000230: f1ba 96bd 51a9 a53d e17d a93c 6439 35bd
00000240: 5757 b13d effc d23d d6a2 d3bd 64c6 543c
00000250: 1c42 bdbc 8217 2e3d 98e7 d83c 6575 08bc
00000260: 6c02 633d 077e b23d 31a9 aa3d 4e39 de3d
00000270: 55c0 b53d f68e 043d e216 5fbd 29ac ebbb
00000280: c31e ed3d 42c6 dabd 8d1b 91bd be8d 32bc
00000290: bca4 83bd 2b2b 01be 7f19 babb 098e 51bd
000002a0: 4daf c3bd e604 92bd 0ad8 66bd b6a9 9b3d
000002b0: ece1 f7bd 8c3d 85bd 5c2a 9abd 55d8 763d
000002c0: 6696 733d 7183 e63d afbf 91bb 33f6 dfbd
000002d0: afa6 cebd 1701 e3bd 4b99 15bc 2989 7bbd
000002e0: e4b9 17bd 27de 373d a7ae f63d 4dd3 e0bb
000002f0: 1961 b5bd 64ba 74bd c801 2c3c 1f1d 57bd
00000300: 9ca7 8abd f280 dd3c 625d cdbd 79aa 69bd
00000310: 9d69 c6bd ec23 833d 9b7e 66bd dc4b c83c
00000320: b541 7e3d 9872 f93d 3111 d6bc b1f3 fdbd
00000330: f3b9 a23c 7ef7 553d 9db6 b2bc 4c6e 853d
00000340: 50bc 8fbd 018f 393d 815c 4b3d 7503 ab3c
00000350: 2cf8 bc3d 64e3 d1ba b2da 893d 04a2 aabd
00000360: 2789 1a3d 7ede bb3d 6c2f eabb 66d3 bf3d
00000370: 40ce d23d 3f72 8cbd 4949 fcbc 44c1 a6bd
00000380: dd79 f73d f155 563b 069e 65bc fe13 b93d
00000390: 20a7 003e c1ed a9bd 1182 cb3d 5ac6 893d
000003a0: a205 52bd 7ceb c2bd 5efa 98bd 869f ce3d
000003b0: 8e63 9e3d 0e46 413d 62d3 18bd 2f65 dbbd
000003c0: b02b e3bd b412 b6bd 0c39 d6bd 6be4 ddbd
000003d0: e4af 673c 040f 493d a831 ccbd 982b b73d
000003e0: d00e 023c 1599 423d e81e 8a3d db81 bcbd
000003f0: 4b67 38bd 912b e6bd 26b1 8e3d a51a 06be

Bi_Linear_list.1.bias f4 [64]
-0.0036040356 -0.012164033 -0.024903636 -0.11886248 0.02317973 -0.100723274 -0.07121615 -0.09091656
0.00034021848 -0.099710375 -0.06890193 -0.09457964 -0.090099394 -0.035695553 0.022499938 0.053679667
0.06875514 -0.033190396 -0.13264179 0.09084052 0.0757653 0.047710944 0.04345123 -0.07478423
0.0438001 0.056207437 -0.0946598 0.036581255 0.026195027 0.08072802 -0.08672731 0.069481805
-0.01918585 0.005503246 -0.04049563 -0.077795126 -0.06750305 0.06952848 -0.056336105 0.06128312
0.031176873 -0.025180552 -0.10111309 -0.013439001 -0.043391917 0.00798564 -0.124179654 -0.0012368097
0.029080018 -0.020029074 -0.03915645 -0.07612888 0.050203737 0.059614886 0.024000347 0.035608117
-0.10591677 -0.0682049 -0.089821145 -0.05579033 -0.123056844 0.00024246164 -0.123033784 0.07003092
00000000: af31 6cbb a74b 47bc b602 ccbc 2c6e f3bd
00000010: 6be3 bd3c 0148 cebd c6d9 91bd 7632 babd
00000020: 5a5f b239 f434 ccbd 741c 8dbd f8b2 c1bd
00000030: 0886 b8bd 8035 12bd ca51 b83c 36df 5b3d
00000040: 7fcf 8c3d a7f2 07bd 40d3 07be 980a ba3d
00000050: d62a 9b3d 8d6c 433d ebf9 313d 7928 99bd
00000060: bc67 333d c539 663d ffdc c1bd 3ad6 153d
00000070: f496 d63c bb54 a53d 179e b1bd 7a4c 8e3d
00000080: a52b 9dbc 9354 b43b bfde 25bd 0d53 9fbd
00000090: 0a3f 8abd f364 8e3d b0c0 66bd 0204 7b3d
000000a0: a466 ff3c 7247 cebc 6114 cfbd 412f 5cbc
000000b0: b9bb 31bd 34d6 023c e751 febd 721c a2ba
000000c0: 3839 ee3c 0314 a4bc 8462 20bd 75e9 9bbd
000000d0: 6fa2 4d3d bd2e 743d 609c c43c d1d9 113d
000000e0: e4ea d8bd 03af 8bbd 26f4 b7bd 6784 64bd
000000f0: 3a05 fcbd 4d3d 7e39 23f9 fbbd 5f6c 8f3d

Bi_Linear_list.2.weight f4 [64, 64]
0.121337995 -0.046012126 -0.075291686 0.12116708 -0.037372313 -0.08496091 0.051015113 -0.020464202
0.0046905307 -0.0340185 0.12248137 0.07456817 0.012996446 0.12031878 0.0783743 -0.041312855
0.04989635 -0.006756099 0.07468859 -0.040596377 0.10806847 0.12016093 -0.08720478 0.09283769
-0.06989862 -0.06615989 -0.046851195 -0.01592524 -0.022462802 0.0568015 0.02424696 0.09913247
-0.057085507 0.033444803 -0.08437142 0.08552548 0.05518489 0.06292526 -0.10571664 -0.03036269
0.07524591 -0.018752608 0.022339571 0.08907856 -0.06910767 -0.021966008 0.11547165 -0.022331083
-0.0113180755 0.121643946 0.07604652 -0.0011385134 -0.023420215 0.10932628 -0.109114625 0.020286642
-0.040134676 0.0062592993 -0.046724223 -0.07138084 -0.1204537 0.09921448 0.041557584 -0.07135909
-0.06817637 -0.11322055 0.06404157 -0.069834694 -0.08796625 0.03597727 0.0062593976 0.09172262
0.008423535 -0.099576615 0.0021039336 -0.055408314 0.041552644 0.11898296 -0.13870923 0.007871427
0.013999259 -0.13535024 0.044317566 0.04752299 0.07584431 -0.110746905 0.03393024 -0.0318664
0.0068900464 0.015039376 0.076478235 0.08187074 0.10885505 -0.0351963 -0.010021912 0.08300399
-0.06900214 -0.0866465 0.052413512 0.08996372 -0.015983766 0.020503614 -0.0895792 -0.09071291
0.061450206 -0.112499475 0.04264135 0.036024693 -0.09513079 -0.016828658 0.07540431 -0.117294095
0.058711525 -0.034762874 -0.0061754147 0.023885408 -0.069349565 0.011034974 0.065295026 -0.095840134
-0.11739413 -0.075154535 0.0071404097 0.10184484 0.09127713 0.07252994 0.06842233 -0.10196546
0.066587076 0.018618835 0.09543354 -0.11824243 0.07277837 -0.032703973 0.06925658 -0.11772803
0.061046816 -0.080893256 -0.11935079 0.006115026 0.013734734 -0.0006849698 0.04844921 0.0064321966
-0.13238081 -0.09851605 0.022201713 0.041451793 -0.11525445 0.008572133 -0.052469585 -0.011428757
0.036701452 -0.04937094 -0.07043602 -0.024928872 0.1188518 -0.074328594 0.0006527412 -0.07212073
0.008952071 -0.029810471 -0.0033797538 0.026277002 0.027245272 0.0994121 -0.083520114 0.089740105
0.05600108 -0.081238955 -0.011018344 0.04557175 0.09039146 0.035574798 -0.09493038 -0.124601126
-0.11586241 0.014864335 0.12036645 -0.028438471 0.085655555 -0.0431547 0.0070541548 -0.08926702
-0.026225816 0.08792748 0.014194492 0.07590421 0.0068857614 0.08964766 0.017736578 -0.047797237
0.09727282 0.0750136 -0.06784502 0.1216395 -0.06149825 0.014988878 -0.010628942 -0.01141492
-0.061019998 -0.06390808 0.08324429 -0.0826475 -0.041066665 0.07407202 0.09593979 0.101916224
0.03222556 -0.10309951 -0.0993133 0.124957174 -0.04922476 0.043770976 0.028369907 -0.102141716
0.09008226 -0.027615897 0.027146073 -0.026986877 0.123704545 0.11911824 -0.107474096 0.081533566
0.035461824 -0.016389519 -0.08076209 -0.020438446 -0.079397045 -0.12937833 0.074881524 0.015140355
-0.047499456 0.11146659 0.03529387 0.07965627 0.0148867015 -0.029263973 -0.1294541 0.09917565
0.047752973 0.05796365 0.006012672 0.03106725 -0.08900126 -0.12074605 0.022056842 -0.10542294
0.06937373 0.076832086 0.0915847 -0.013962581 -0.010832556 -0.032441948 0.001870031 -0.035961747
00000000: 0e80 f83d 3677 3cbd 8732 9abd 7226 f83d
00000010: b613 19bd fcff adbd 39f5 503d 8ba4 a7bc
00000020: 06b3 993b fc56 0bbd 83d7 fa3d 32b7 983d
00000030: 0cef 543c b169 f63d b482 a03d ab37 29bd
00000040: 1d60 4c3d 4462 ddbb 55f6 983d 6348 26bd
00000050: 0153 dd3d ef16 f63d 6b98 b2bd b021 be3d
00000060: 0227 8fbd d67e 87bd 0ae7 3fbd a675 82bc
00000070: e903 b8bc b1a8 683d 90a1 c63c f705 cb3d
00000080: 7ed2 69bd 6bfd 083d ecca acbd fc27 af3d
00000090: 8d09 623d f5de 803d f781 d8bd 2dbb f8bc
000000a0: 871a 9a3d 129f 99bc 7a01 b73c d26e b63d
000000b0: 5288 8dbd 0ff2 b3bc 677c ec3d adef b6bc
000000c0: 736f 39bc 7620 f93d 47be 9b3d 2c3a 95ba
000000d0: c0db bfbc 75e6 df3d 7d77 dfbd 2c30 a63c
000000e0: 4264 24bd cf1a cd3b e661 3fbd 1e30 92bd
000000f0: 6eb0 f6bd f630 cb3d 4938 2a3d b724 92bd
00000100: 0da0 8bbd 2de0 e7bd 3a28 833d 7e05 8fbd
00000110: a627 b4bd e75c 133d a21b cd3b 12d9 bb3d
00000120: de02 0a3c d3ee cbbd 26e2 093b d4f3 62bd
00000130: 1b33 2a3d 57ad f33d cb09 0ebe 28f7 003c
00000140: 265d 653c 4199 0abe 5686 353d 77a7 423d
00000150: 4354 9b3d 46cf e2bd 6ffa 0a3d 5886 02bd
00000160: e6c5 e13b b767 763c 9fa0 9c3d d9ab a73d
00000170: 65ef de3d ff29 10bd f232 24bc fffd a93d
00000180: fe50 8dbd b873 b1bd 8daf 563d e63e b83d
00000190: 63f0 82bc 32f7 a73c 4d75 b7bd b1c7 b9bd
000001a0: 36b3 7b3d 2066 e6bd b2a8 2e3d a18e 133d
000001b0: eed3 c2bd 41dc 89bc 936d 9a3d e337 f0bd
000001c0: 7f7b 703d 8463 0ebd 225b cabb 55ab c33c
000001d0: 2507 8ebd 09cc 343c 66b9 853d d547 c4bd
000001e0: 556c f0bd 9fea 99bd 19fa e93b 0794 d03d
000001f0: 81ef ba3d 948a 943d 0221 8c3d 44d3 d0bd
00000200: ce5e 883d 8786 983c a972 c33d 1629 f2bd
00000210: d30c 953d 9af4 05bd 65d6 8d3d 651b f1bd
00000220: 3a0c 7a3d 5dab a5bd 306e f4bd 8e60 c83b
00000230: a607 613c 8c8f 33ba ae72 463d 2dc5 d23b
00000240: d68e 07be c8c2 c9bd 5ee0 b53c 5bc9 293d
00000250: 860a ecbd 2272 0c3c 59ea 56bd ae3f 3bbc
00000260: 4354 163d 2f39 4abd c340 90bd a237 ccbc
00000270: 9368 f33d 9739 98bd b81c 2b3a 09b4 93bd
00000280: b5ab 123c 1735 f4bc dc7e 5dbb de42 d73c
00000290: 7a31 df3c 9298 cb3d 980c abbd a9c9 b73d
000002a0: 6361 653d 9c60 a6bd 4986 34bc 71a9 3a3d
000002b0: 281f b93d e1b6 113d dc6a c2bd e02e ffbd
000002c0: 4549 edbd 8a89 733c af82 f63d ccf7 e8bc
000002d0: 2e6c af3d fcc2 30bd 8a26 e73b a1d1 b6bd
000002e0: 86d7 d6bc 5313 b43d 0490 683c ab73 9b3d
000002f0: f4a1 e13b 3199 b73d 4d4c 913c 09c7 43bd
00000300: f936 c73d bba0 993d 54f2 8abd 211e f93d
00000310: 97e5 7bbd e993 753c 0425 2ebc a505 3bbc
00000320: 1bf0 79bd 3de2 82bd fb7b aa3d 1843 a9bd
00000330: 8535 28bd 12b3 973d 157c c43d 74b9 d03d
00000340: f3fe 033d d625 d3bd c564 cbbd 8ce9 ff3d
00000350: e79f 49bd 3249 333d 0268 e83c ad2f d1bd
00000360: 0c7d b83d bc3a e2bc 7161 de3c 9513 ddbc
00000370: cf58 fd3d 44f4 f33d 611b dcbd 12fb a63d
00000380: 6b40 113d 5043 86bc 9866 a5bd 876e a7bc
00000390: eb9a a2bd c17b 04be 7c5b 993d 400f 783c
000003a0: ca8e 42bd 9848 e43d 4e90 103d d422 a33d
000003b0: 5ae7 733c 00bb efbc 9e8f 04be 9a1c cb3d
000003c0: 9f98 433d 4b6b 6d3d f305 c53b bf80 fe3c
000003d0: 4b46 b6bd b449 f7bd 8db0 b43c fbe7 d7bd
000003e0: d013 8e3d 245a 9d3d c290 bb3d 4fc3 64bc
000003f0: 087b 31bc d9e1 04bd d41b f53a a04c 13bd

Bi_Linear_list.2.bias f4 [64]
-0.034353945 -0.10109186 -0.08113337 -0.036793686 -0.080236144 0.075221606 -0.13284126 -0.09651525
-0.07908401 -0.13452578 -0.11366318 -0.090397224 0.034164023 0.025171906 -0.092836365 -0.066692404
0.049470507 -0.026342148 0.040855356 -0.012965623 -0.081819944 0.010606946 0.010454176 -0.062381748
-0.0010313669 -0.059785224 -0.11140305 0.041496884 0.009889021 0.07779936 0.098361984 0.11101591
0.058129568 -0.04875462 0.027769487 -0.119504996 -0.069610134 0.061532944 -0.100376144 -0.006983428
-0.018066257 0.106764264 0.029129576 -0.1338816 -0.07799381 0.086690195 0.026300577 0.052669536
-0.07389197 -0.061229613 0.0911452 -0.09859189 -0.031840384 -0.008471314 -0.108909234 0.045856107
0.07333349 0.030752417 -0.08463351 -0.135582 -0.095284835 0.0654988 -0.13985777 0.047517892
00000000: b9b6 0cbd 4009 cfbd 4129 a6bd fab4 16bd
00000010: d952 a4bd c90d 9a3d 8a07 08be caa9 c5bd
00000020: ccf6 a1bd 20c1 09be 3ec8 e8bd 2e22 b9bd
00000030: 93ef 0b3d 5035 ce3c fe20 bebd 0796 88bd
00000040: 96a1 4a3d 7dcb d7bc f257 273d c46d 54bc
00000050: 3791 a7bd c2c8 2d3c fe47 2b3c 0184 7fbd
00000060: ee2e 87ba 5ae1 74bd 4827 e4bd a3f8 293d
00000070: 8f05 223c 4555 9f3d 0272 c93d 4f5c e33d
00000080: 4519 6e3d edb2 47bd d67c e33c 09bf f4bd
00000090: c28f 8ebd f809 7c3d 0292 cdbd 3dd5 e4bb
000000a0: b0ff 93bc 39a7 da3d 26a1 ee3c 4218 09be
000000b0: 38bb 9fbd a18a b13d 4f74 d73c 03bc 573d
000000c0: ac54 97bd e7cb 7abd 56aa ba3d 8bea c9bd
000000d0: 106b 02bd 44cb 0abc ce0b dfbd 9dd3 3b3d
000000e0: de2f 963d 7eec fb3c 5554 adbd 02d6 0abe
000000f0: b224 c3bd 3c24 863d e036 0fbe 1fa2 423d
