models/26102021_1347_mf_Movielens-100k.pt (torch, 673127 bytes, 2 tensors)

user_embedding.weight f4 [943, 64]
0	0x3d8da9d6	0.06917159
1	0x3c45da25	0.0120759355
2	0x3d867b0f	0.0656644
3	0xbd90531d	-0.070471026
4	0xbc5751a7	-0.013142026
5	0x3b2d15ac	0.0026410623
6	0x3d411cce	0.04714661
7	0x3d90a65c	0.070629805
8	0xbc91a83c	-0.017780416
9	0xbbc1b0f4	-0.005910987
10	0x3d941c25	0.07231931
11	0x3cb09315	0.02155451
12	0x3d802154	0.06256357
13	0xbd0fbda0	-0.03509295
14	0x3ca9c7f3	0.020725226
15	0xbd3124a9	-0.043247852
16	0xbd0e9bbb	-0.034816485
17	0xbc97579d	-0.018474394
18	0xbd799c32	-0.060939975
19	0xbcebd975	-0.028790215
20	0xbc880a71	-0.016606541
21	0x3d985ea6	0.07439928
22	0x3d255853	0.040367436
23	0xbd1d941e	-0.038471334
24	0xbd3a478f	-0.0454784
25	0x3d9f11e5	0.07767085
26	0xbcc08b89	-0.023504036
27	0xbd904e97	-0.0704624
28	0xbccbe51d	-0.024889523
29	0x3cc208a7	0.023685766
30	0xbcf45063	-0.029823488
31	0x3b84050c	0.004028922
32	0x3d1b1f55	0.037871677
33	0xbd8ebf6b	-0.06970104
34	0xbc99cfb7	-0.018775804
35	0xbd4d36ff	-0.050101276
36	0x3c9dfa33	0.019284343
37	0xbc6e9b4b	-0.014563392
38	0x3d9a4493	0.07532611
39	0x3d7466b8	0.059668273
40	0x3d145d8a	0.03622202
41	0xbc1cd16c	-0.009571414
42	0xbd555d0d	-0.052090693
43	0xbd7cccdd	-0.06171881
44	0x3c022289	0.007942804
45	0xbd8a357e	-0.06748484
46	0xbc48b859	-0.012250983
47	0x3cdd8133	0.027039146
48	0xbb84bbfc	-0.00405073
49	0x3c254465	0.010087107
50	0x3c92717e	0.017876383
51	0xbd85b32e	-0.065283164
52	0x3cbf6b2a	0.02336653
53	0x3c26f913	0.01019122
54	0x3d484e76	0.04890295
55	0x3c95b220	0.018273413
56	0xbd796d17	-0.06089505
57	0x3c83b4d6	0.01607744
58	0xbd2ede63	-0.042692553
59	0x3ccce85a	0.025013138
60	0x3d90d38d	0.070716
61	0x3d154135	0.03643914
62	0xbd90d757	-0.07072323
63	0xbd957999	-0.072985835
64	0xbd31ce52	-0.043409653
65	0x3c18d345	0.009327714
66	0x3d413187	0.047166374
67	0xbd3f31fd	-0.046678532
68	0x3d59883c	0.05310844
69	0x3d41433e	0.047183268
70	0x3b7fd3c5	0.0039036137
71	0x3cda1891	0.026623042
72	0xbd5bb341	-0.053637747
73	0x3cf69caa	0.030104
74	0x3d228a75	0.039682824
75	0xbd5ece34	-0.05439587
76	0x3d89d6b5	0.06730405
77	0xbd3f6306	-0.046725295
78	0xbd9a00b9	-0.07519669
79	0xbc700aa6	-0.014650976
80	0x3bb5acbc	0.005544273
81	0x3d46b5ea	0.04851333
82	0xbb34ed49	-0.0027607253
83	0x3c919bff	0.01777458
84	0xbd611e10	-0.05496031
85	0x3d68999d	0.056787122
86	0xbc00300e	-0.007823957
87	0x3b791c1f	0.0038011146
88	0x3d845518	0.06461543
89	0xbc383e16	-0.011245271
90	0xbcc7b5a6	-0.024378609
91	0x3d8f1ab0	0.06987512
92	0x3d30a736	0.043128215
93	0x3d017887	0.031609084
94	0xbd8c92d0	-0.0686394
95	0xbced73b9	-0.028985845
96	0x3d1533a4	0.0364262
97	0x3cd8d41d	0.026468331
98	0xbd835c23	-0.06414058
99	0x3cc6183c	0.024181478
100	0xbcba98bb	-0.022777906
101	0x3d2a892d	0.041634727
102	0xbd5b034e	-0.05346995
103	0xbd979cb9	-0.07402939
104	0xbd92ed15	-0.07174126
105	0x3c6ed3c5	0.014576857
106	0xbd206fe1	-0.039169196
107	0xbd754d6d	-0.059888292
108	0xbd8a5e8b	-0.06756314
109	0x3ca7dc55	0.020490805
110	0xbd4fc8ad	-0.05072849
111	0xbd753cab	-0.05987231
112	0xbd560a82	-0.052256115
113	0x3c996a05	0.018727312
114	0xbb99a213	-0.00468851
115	0xbd8e4cd9	-0.06948251
116	0xbd99059b	-0.07471772
117	0x3d8bb5fc	0.0682182
118	0xbc3fafca	-0.011699626
119	0xbaf552ab	-0.0018716654
120	0xbc39b850	-0.011335447
121	0x3c3fc58a	0.011704812
122	0xbd8fdd99	-0.07024688
123	0x3d37bc29	0.044857178
124	0x3d3bd288	0.045855075
125	0xbb0c6e8a	-0.002142819
126	0xbd9d981f	-0.076950304
127	0x3c665ad1	0.014059738
128	0xbc99617d	-0.018723244
129	0x3d544b1f	0.051829454
130	0xbd18e6e9	-0.037329588
131	0xbd7ded9d	-0.061994184
132	0x3d6e9592	0.05824811
133	0xbcef565a	-0.02921598
134	0x3d4ffcc9	0.050778184
135	0xbd4d0fe9	-0.050064
136	0x3d6953c6	0.05696466
137	0xbcf4ba17	-0.02987389
138	0x3cb21641	0.021739127
139	0x3d96ec1e	0.073692545
140	0xbd052f15	-0.032515604
141	0xbcbcb910	-0.023037463
142	0x3d418931	0.047249977
143	0x3d6d4a8f	0.057932433
144	0xbd144f0f	-0.03620821
145	0x394e2c96	0.000196623
146	0x3ce647fd	0.028110499
147	0xbd3e9da5	-0.04653706
148	0x3d5ff15e	0.054673545
149	0xbd94add1	-0.07259715
150	0x3b4c21c4	0.0031148056
151	0xbc236cbb	-0.009974654
152	0x3d7bbf88	0.061461955
153	0xbc6a8814	-0.01431467
154	0xbd8d3947	-0.068956904
155	0x3d625a53	0.05526192
156	0xbd52ac09	-0.051433597
157	0x3d30cb5b	0.043162685
158	0xbce6cd9e	-0.028174218
159	0x3d7e300e	0.062057547
160	0xbd47eaa5	-0.04880776
161	0xbb8affca	-0.004241918
162	0x3d664fe7	0.056228545
163	0xbc1d9ed4	-0.009620387
164	0xbd77c842	-0.060493715
165	0x3a946527	0.001132165
166	0x3c8d73b6	0.01726709
167	0x3d8399e2	0.06425835
168	0x3d09c124	0.03363146
169	0x3d32cd71	0.043652955
170	0x3ce2d0f4	0.027687527
171	0x3d68d8b4	0.05684729
172	0xbd81a4fd	-0.06330297
173	0x3d8bb28a	0.06821163
174	0x3d36e520	0.044652104
175	0x3c542f19	0.012950682
176	0xbb16f0f3	-0.00230318
177	0x3c935f34	0.017989732
178	0xbd8ec06c	-0.06970295
179	0x3d1b39da	0.03789697
180	0xbb9c7846	-0.00477508
181	0x3d9a6444	0.075386554
182	0xbcfb18f5	-0.030651549
183	0x3d2ea026	0.0426332
184	0x3d74c57c	0.05975865
185	0xbd834994	-0.06410518
186	0xbcb2018d	-0.021729255
187	0xbd259229	-0.040422592
188	0x3d153850	0.036430657
189	0xbd5ac5b5	-0.053411204
190	0xbd88c31c	-0.06677839
191	0x3d327835	0.04357167
192	0x3cb2bbc0	0.021818042
193	0xbb45afaa	-0.0030164518
194	0x3c9542c3	0.018220311
195	0x3cf9cfb2	0.030494545
196	0xbd6eb023	-0.058273446
197	0x3d890ca0	0.06691861
198	0xbd0b0ef8	-0.033949822
199	0xbd34a4c2	-0.044102438
200	0xbd87f4db	-0.06638499
201	0x3d42cb99	0.047557447
202	0xbd7002ce	-0.058596425
203	0xbd09b796	-0.033622347
204	0x3d794eaf	0.060866054
205	0xbd3c4e9d	-0.04597341
206	0xbd4f9009	-0.050674472
207	0x3d8fba5b	0.07017966
208	0x3d8ffbb8	0.070304334
209	0xbcf0c2ae	-0.029389706
210	0xbd0b9fad	-0.034087826
211	0x3caab2a2	0.020837132
212	0x3c09ee2e	0.008418603
213	0xbccc6f70	-0.024955481
214	0x3cc167ae	0.023609009
215	0xbc15d0e0	-0.009144038
216	0x3d443d86	0.047910236
217	0x3d170950	0.036874115
218	0x3c79475d	0.015214768
219	0xbd892a51	-0.06697524
220	0xbd0ffa30	-0.035150707
221	0x3d004e7d	0.031324852
222	0xbd28be8a	-0.041197337
223	0xbd91f40c	-0.07126626
224	0xbd2f381c	-0.04277812
225	0xbd0bb886	-0.034111522
226	0x3c66c5b7	0.014085225
227	0x3d366709	0.044531856
228	0x3c766f6d	0.015041214
229	0xbd9c5113	-0.07632651
230	0x3d2d509d	0.042313207
231	0xbd003d2c	-0.031308338
232	0x3b799d7b	0.003808825
233	0x3d5605be	0.05225157
234	0xbcca0fa3	-0.02466566
235	0xbd8f7541	-0.07004786
236	0x3d90c1ca	0.07068212
237	0x3d2b6739	0.041846488
238	0x3ce0c31c	0.027436785
239	0xbd3cd2c4	-0.04609944
240	0xbc1f7b32	-0.009733962
241	0xbd5f5f09	-0.054533992
242	0x3b22b405	0.0024826538
243	0x3d2378f7	0.039910283
244	0x3c23d850	0.010000303
245	0xbd811536	-0.06302874
246	0x3d7989ec	0.06092255
247	0x3cf48423	0.029848164
248	0xbd891f15	-0.066953816
249	0x3d89e65d	0.067333914
250	0x3d204fc3	0.039138567
251	0x3c2eef80	0.010677218
252	0x3cb0adc2	0.02156723
253	0xbd29c070	-0.04144329
254	0x3d31ba27	0.04339042
255	0xbd3da158	-0.046296448

item_embedding.weight f4 [1682, 64]
0	0x3d3ed8f5	0.046593625
1	0xbd31cb9f	-0.04340708
2	0x3d680dd8	0.056653827
3	0xbc26afba	-0.010173732
4	0xbc826e13	-0.015921628
5	0x3d1874e5	0.037220854
6	0x3d5ea91e	0.0543605
7	0x3d592b30	0.053019702
8	0xbaab4d42	-0.0013069289
9	0xbb4cca09	-0.0031248352
10	0x3c1eadd1	0.009684996
11	0xbc808245	-0.015687117
12	0x3bc94320	0.006142035
13	0x3d6dae47	0.058027532
14	0x3c482ce8	0.012217738
15	0xbc8558ce	-0.016277697
16	0x3c1e0277	0.009644142
17	0xbcd91ec2	-0.026503924
18	0xbd550915	-0.052010614
19	0xbd0b5cb7	-0.034023967
20	0x3d4ac2d7	0.04950222
21	0xbd58e40d	-0.05295186
22	0x3d566eab	0.052351635
23	0xbc65983b	-0.014013345
24	0xbc7793bd	-0.015110907
25	0xbd1f6a53	-0.038919758
26	0x3c7ce58b	0.015435587
27	0x3c6c67ea	0.014429072
28	0x3ced3925	0.028957913
29	0x3d23511f	0.039872285
30	0xbab72e88	-0.0013975659
31	0xbd23bb28	-0.039973408
32	0x3d4823b4	0.048862174
33	0x3cef6014	0.029220618
34	0x398094ab	0.0002452483
35	0xbd5c23c3	-0.053745043
36	0xbb57e891	-0.0032945017
37	0x3d32fb6d	0.04369681
38	0xbc3fa427	-0.011696852
39	0xbd621b91	-0.05520207
40	0xbd724db7	-0.059156146
41	0x3c52c7b9	0.012865
42	0x3c92f467	0.017938806
43	0xbd016322	-0.03158868
44	0x3d59dea5	0.053190846
45	0xbd5a63cc	-0.05331783
46	0xbd725a9d	-0.059168447
47	0x3cdcecc1	0.026968362
48	0xbca98396	-0.020692628
49	0xbd31e614	-0.04343231
50	0x3b444c8f	0.002995286
51	0x3bd41717	0.006472479
52	0xbcc8cb19	-0.024510907
53	0x3c463038	0.012096457
54	0xbbc7baea	-0.00609528
55	0x3d0964f7	0.033543553
56	0x3bdbb8d9	0.006705385
57	0xbac6379a	-0.0015122772
58	0x3c1390d2	0.009006696
59	0x3d5aee86	0.05345013
60	0xbc1ab9f9	-0.009443753
61	0xbd6c6cf7	-0.057721104
62	0xbcffa5a1	-0.031206908
63	0xbd56763f	-0.052358862
64	0xbc09da43	-0.008413854
65	0xbd6e7f1a	-0.058226682
66	0x3ce67507	0.028131975
67	0xbd154889	-0.036446128
68	0xbd4d09f4	-0.05005832
69	0x3d265521	0.04060853
70	0x3d2494e7	0.040181067
71	0xbd0e5fcd	-0.03475933
72	0xbd060f30	-0.032729328
73	0x3c4575f6	0.01205205
74	0x3d21cfdd	0.039504874
75	0x3c54bab4	0.012983967
76	0x3c0d4776	0.008622995
77	0xbc1b618a	-0.009483704
78	0x3cfbb2eb	0.030724963
79	0xbc20c24b	-0.009811948
80	0xbd3505c4	-0.04419495
81	0xbc1b6491	-0.009484426
82	0xbd102f87	-0.035201576
83	0xbbeb431a	-0.00717963
84	0x3c4cdc60	0.012503713
85	0x3c0a1267	0.008427239
86	0x3bfbda5c	0.0076859426
87	0x3d5b538b	0.05354647
88	0xbd497321	-0.04918206
89	0xbc8f824c	-0.017518185
90	0x3d131890	0.035912097
91	0xbc1faffe	-0.00974655
92	0x3d39552c	0.04524724
93	0xbcf38c3e	-0.029729959
94	0x3c7d70ec	0.015468817
95	0xbce8ceeb	-0.028418979
96	0x3d3d9143	0.04628111
97	0xbd27a344	-0.040927187
98	0xbd59f6e6	-0.053213976
99	0xbd6c97e8	-0.057762057
100	0xbc0197d6	-0.007909736
101	0xba9a0bc6	-0.0011752776
102	0xbcf7a8c6	-0.030231845
103	0x3cdfb424	0.027307577
104	0xbcb4d443	-0.02207387
105	0xbd577329	-0.05260006
106	0x3bd78434	0.006577039
107	0x3c3237c8	0.010877557
108	0xbc844b41	-0.016149165
109	0xbb1c0ba7	-0.0023810656
110	0xbd3b198c	-0.04567866
111	0x3d4f3f13	0.05059726
112	0xbd23fa0e	-0.040033393
113	0xbcc61bae	-0.02418312
114	0xbd12eb40	-0.035868883
115	0x3d31e531	0.043431465
116	0xbd5b05c2	-0.053472288
117	0xbc886871	-0.016651364
118	0xbd4f9801	-0.05068207
119	0xbc9552fb	-0.018228045
120	0x3c276365	0.010216569
121	0xbd62dea7	-0.05538812
122	0xbcffb2fc	-0.031213276
123	0x3d6f57a3	0.058433186
124	0x3d37404a	0.044739045
125	0x3d1ff331	0.039050285
126	0xbd262e16	-0.040571295
127	0x3d47ba78	0.048761815
128	0xbd4dcdd5	-0.050245125
129	0xbd006f04	-0.031355873
130	0xbd551b74	-0.052028134
131	0xbc1a9ac1	-0.00943631
132	0x3c2188bd	0.009859261
133	0xbd078ae5	-0.033091445
134	0x3cfd9de7	0.030959083
135	0x3d3d25f2	0.046178766
136	0x3c784ede	0.015155522
137	0x3d3ac914	0.04560192
138	0x3d3a4c01	0.04548264
139	0x3d08df27	0.03341594
140	0x3c6086ce	0.013704015
141	0x3b2d0609	0.0026401302
142	0x3d09de0f	0.033659037
143	0x3d243418	0.040088743
144	0x3d29b50a	0.041432418
145	0xbd3d9eb1	-0.046293918
146	0x3cb842e8	0.02249284
147	0x3cbcedfc	0.023062699
148	0xbd355d3e	-0.044278376
149	0xbceee68b	-0.029162666
150	0xbc8507f9	-0.016239153
151	0xbcb1dd15	-0.021711865
152	0xbd018f0c	-0.03163056
153	0x3d6f47f0	0.058418214
154	0xbd0e82aa	-0.03479258
155	0xbcbd27c2	-0.023090247
156	0xbd750b4e	-0.059825234
157	0xbd6e0aae	-0.058115654
158	0xbcd6de0d	-0.026228929
159	0x3d37b7e6	0.044853114
160	0x3cd8640e	0.026414897
161	0x3d1022c9	0.035189424
162	0x3d4cea45	0.050028104
163	0xbd0c95fa	-0.034322716
164	0xbcfcd59d	-0.030863577
165	0xbb63f76b	-0.0034784924
166	0x3d56a45e	0.052402847
167	0xbc53f2d9	-0.012936317
168	0xbd4e6561	-0.05038965
169	0x3d46514e	0.048417382
170	0xbd5d9099	-0.054092977
171	0xbd223eed	-0.039610792
172	0xbca285cc	-0.01983919
173	0x3d6bec76	0.057598554
174	0xbcc5588e	-0.024090078
175	0x3d5ca54b	0.053868573
176	0x3cb9614f	0.022629408
177	0xbca8e967	-0.020619107
178	0x3ce0fad8	0.027463362
179	0x3d48cc26	0.049022816
180	0x3d082986	0.033242725
181	0xbd522f9c	-0.051314935
182	0x3d184fd5	0.03718551
183	0x3d6049d7	0.05475792
184	0x3d4f78b5	0.050652225
185	0x3cc91f17	0.024550958
186	0xbceb08a4	-0.028690644
187	0xbd2b1e5b	-0.041776996
188	0xbbfac6c7	-0.0076530906
189	0xbd1e5d09	-0.038662944
190	0x3d45949b	0.048237424
191	0x3b9f0838	0.0048532747
192	0x3d284aca	0.04108695
193	0xbcbe0680	-0.023196459
194	0x3d30b36e	0.043139867
195	0x3b13b5ee	0.0022538858
196	0xbd4ce302	-0.05002118
197	0x3a8fd836	0.001097447
198	0xbce42dd8	-0.027853891
199	0x3caa34c9	0.020777123
200	0xbd516459	-0.05112109
201	0xbd4ef744	-0.05052878
202	0x3d340dee	0.043958597
203	0xbbaddbf6	-0.0053057624
204	0x3a80248a	0.0009776514
205	0xbd22e6bd	-0.03977083
206	0xbd010d9b	-0.031507116
207	0x3d2f1c07	0.04275134
208	0x3d58745c	0.052845344
209	0x3ccbba61	0.024869146
210	0xbcf9bb2e	-0.030484762
211	0x3bd0db8d	0.0063738287
212	0x3cb9c215	0.022675553
213	0x3b8ece11	0.004358061
214	0xbb2d1b93	-0.002641414
215	0x3cbeaa92	0.023274694
216	0xbc9b1465	-0.018930623
217	0x3caa6c6a	0.020803649
218	0xbd3037ce	-0.04302197
219	0xbc9981bc	-0.01873862
220	0xbbe72912	-0.0070544565
221	0x3d0ad5da	0.03389535
222	0x3c7d5733	0.015462684
223	0xbc8a262b	-0.016863903
224	0xbc99c939	-0.018772708
225	0x3ce37410	0.027765304
226	0xbd2710f9	-0.04078767
227	0xbd32569d	-0.043539632
228	0xbc0f2291	-0.008736269
229	0xbc95b50e	-0.01827481
230	0x3c5fc00e	0.013656629
231	0x3cf237ac	0.029567562
232	0xbccf8d63	-0.025335973
233	0xbd6b15c1	-0.057393793
234	0x3d2101ae	0.039308242
235	0xbd04a43a	-0.03238318
236	0x3d0baaf7	0.03409859
237	0x3b33b9ef	0.0027424057
238	0xbd3ef47a	-0.04661987
239	0xbce5dd39	-0.028059589
240	0x3d578f17	0.052626695
241	0x3d1b02e6	0.03784456
242	0xbc84eab6	-0.0162252
243	0x3d14caa9	0.036326084
244	0x3cc00002	0.023437504
245	0x3d005ca3	0.031338345
246	0x3c1a0034	0.0093994625
247	0x3c8260d6	0.015915316
248	0x3d4d934c	0.0501893
249	0x3d11d219	0.035600755
250	0xbbd684f0	-0.006546609
251	0xbce4989c	-0.027904801
252	0xbb988b62	-0.0046552876
253	0x3d261182	0.04054404
254	0x3cb134fa	0.021631707
255	0xbd29a8cc	-0.041420743
